<?xml version="1.0" ?>
<net name="saved_model" version="11">
	<layers>
		<layer id="0" name="input_1" type="Parameter" version="opset1">
			<data element_type="f32" shape="?,640,640,3"/>
			<rt_info>
				<attribute name="fused_names" value="input_1" version="0"/>
				<attribute name="old_api_map_order" value="0, 2, 3, 1" version="0"/>
			</rt_info>
			<output>
				<port id="0" names="Func/StatefulPartitionedCall/input/_0:0,input_1:0" precision="FP32">
					<dim>-1</dim>
					<dim>640</dim>
					<dim>640</dim>
					<dim>3</dim>
				</port>
			</output>
		</layer>
		<layer id="1" name="input_1/Transpose([0 3 1 2])/value4077350568" type="Const" version="opset1">
			<data element_type="i64" offset="0" shape="4" size="32"/>
			<rt_info>
				<attribute name="fused_names" value="input_1/Transpose([0 3 1 2])/value4077350568" version="0"/>
			</rt_info>
			<output>
				<port id="0" precision="I64">
					<dim>4</dim>
				</port>
			</output>
		</layer>
		<layer id="2" name="input_1/Transpose([0 3 1 2])" type="Transpose" version="opset1">
			<rt_info>
				<attribute name="fused_names" value="input_1/Transpose([0 3 1 2])" version="0"/>
			</rt_info>
			<input>
				<port id="0" precision="FP32">
					<dim>-1</dim>
					<dim>640</dim>
					<dim>640</dim>
					<dim>3</dim>
				</port>
				<port id="1" precision="I64">
					<dim>4</dim>
				</port>
			</input>
			<output>
				<port id="2" precision="FP32">
					<dim>-1</dim>
					<dim>3</dim>
					<dim>640</dim>
					<dim>640</dim>
				</port>
			</output>
		</layer>
		<layer id="3" name="StatefulPartitionedCall/u_net_1/model_1/bn_Conv1/FusedBatchNormV3/mean/Fused_Mul__copy" type="Const" version="opset1">
			<data element_type="f32" offset="32" shape="32, 3, 3, 3" size="3456"/>
			<rt_info>
				<attribute name="fused_names" value="StatefulPartitionedCall/u_net_1/model_1/bn_Conv1/FusedBatchNormV3/mean/Fused_Mul__copy" version="0"/>
			</rt_info>
			<output>
				<port id="0" names="StatefulPartitionedCall/u_net_1/model_1/Conv1/Conv2D/ReadVariableOp:0" precision="FP32">
					<dim>32</dim>
					<dim>3</dim>
					<dim>3</dim>
					<dim>3</dim>
				</port>
			</output>
		</layer>
		<layer id="4" name="StatefulPartitionedCall/u_net_1/model_1/Conv1/Conv2D" type="Convolution" version="opset1">
			<data auto_pad="same_upper" dilations="1, 1" pads_begin="0, 0" pads_end="0, 0" strides="2, 2"/>
			<rt_info>
				<attribute name="fused_names" value="StatefulPartitionedCall/u_net_1/model_1/Conv1/Conv2D" version="0"/>
			</rt_info>
			<input>
				<port id="0" precision="FP32">
					<dim>-1</dim>
					<dim>3</dim>
					<dim>640</dim>
					<dim>640</dim>
				</port>
				<port id="1" precision="FP32">
					<dim>32</dim>
					<dim>3</dim>
					<dim>3</dim>
					<dim>3</dim>
				</port>
			</input>
			<output>
				<port id="2" names="StatefulPartitionedCall/u_net_1/model_1/bn_Conv1/FusedBatchNormV3:0" precision="FP32">
					<dim>-1</dim>
					<dim>32</dim>
					<dim>320</dim>
					<dim>320</dim>
				</port>
			</output>
		</layer>
		<layer id="5" name="StatefulPartitionedCall/u_net_1/model_1/Conv1_relu/Relu6" type="Clamp" version="opset1">
			<data max="6" min="0"/>
			<rt_info>
				<attribute name="fused_names" value="StatefulPartitionedCall/u_net_1/model_1/Conv1_relu/Relu6" version="0"/>
			</rt_info>
			<input>
				<port id="0" precision="FP32">
					<dim>-1</dim>
					<dim>32</dim>
					<dim>320</dim>
					<dim>320</dim>
				</port>
			</input>
			<output>
				<port id="1" names="StatefulPartitionedCall/u_net_1/model_1/Conv1_relu/Relu6:0" precision="FP32">
					<dim>-1</dim>
					<dim>32</dim>
					<dim>320</dim>
					<dim>320</dim>
				</port>
			</output>
		</layer>
		<layer id="6" name="StatefulPartitionedCall/u_net_1/model_1/expanded_conv_depthwise_BN/FusedBatchNormV3/mean/Fused_Mul__copy" type="Const" version="opset1">
			<data element_type="f32" offset="3488" shape="32, 1, 1, 3, 3" size="1152"/>
			<rt_info>
				<attribute name="fused_names" value="StatefulPartitionedCall/u_net_1/model_1/expanded_conv_depthwise_BN/FusedBatchNormV3/mean/Fused_Mul__copy" version="0"/>
			</rt_info>
			<output>
				<port id="0" names="StatefulPartitionedCall/u_net_1/model_1/expanded_conv_depthwise/depthwise/ReadVariableOp:0" precision="FP32">
					<dim>32</dim>
					<dim>1</dim>
					<dim>1</dim>
					<dim>3</dim>
					<dim>3</dim>
				</port>
			</output>
		</layer>
		<layer id="7" name="StatefulPartitionedCall/u_net_1/model_1/expanded_conv_depthwise/depthwise" type="GroupConvolution" version="opset1">
			<data auto_pad="same_upper" dilations="1, 1" pads_begin="0, 0" pads_end="0, 0" strides="1, 1"/>
			<rt_info>
				<attribute name="fused_names" value="StatefulPartitionedCall/u_net_1/model_1/expanded_conv_depthwise/depthwise" version="0"/>
			</rt_info>
			<input>
				<port id="0" precision="FP32">
					<dim>-1</dim>
					<dim>32</dim>
					<dim>320</dim>
					<dim>320</dim>
				</port>
				<port id="1" precision="FP32">
					<dim>32</dim>
					<dim>1</dim>
					<dim>1</dim>
					<dim>3</dim>
					<dim>3</dim>
				</port>
			</input>
			<output>
				<port id="2" names="StatefulPartitionedCall/u_net_1/model_1/expanded_conv_depthwise_BN/FusedBatchNormV3:0" precision="FP32">
					<dim>-1</dim>
					<dim>32</dim>
					<dim>320</dim>
					<dim>320</dim>
				</port>
			</output>
		</layer>
		<layer id="8" name="StatefulPartitionedCall/u_net_1/model_1/expanded_conv_depthwise_relu/Relu6" type="Clamp" version="opset1">
			<data max="6" min="0"/>
			<rt_info>
				<attribute name="fused_names" value="StatefulPartitionedCall/u_net_1/model_1/expanded_conv_depthwise_relu/Relu6" version="0"/>
			</rt_info>
			<input>
				<port id="0" precision="FP32">
					<dim>-1</dim>
					<dim>32</dim>
					<dim>320</dim>
					<dim>320</dim>
				</port>
			</input>
			<output>
				<port id="1" names="StatefulPartitionedCall/u_net_1/model_1/expanded_conv_depthwise_relu/Relu6:0" precision="FP32">
					<dim>-1</dim>
					<dim>32</dim>
					<dim>320</dim>
					<dim>320</dim>
				</port>
			</output>
		</layer>
		<layer id="9" name="StatefulPartitionedCall/u_net_1/model_1/expanded_conv_project_BN/FusedBatchNormV3/mean/Fused_Mul__copy" type="Const" version="opset1">
			<data element_type="f32" offset="4640" shape="16, 32, 1, 1" size="2048"/>
			<rt_info>
				<attribute name="fused_names" value="StatefulPartitionedCall/u_net_1/model_1/expanded_conv_project_BN/FusedBatchNormV3/mean/Fused_Mul__copy" version="0"/>
			</rt_info>
			<output>
				<port id="0" names="StatefulPartitionedCall/u_net_1/model_1/expanded_conv_project/Conv2D/ReadVariableOp:0" precision="FP32">
					<dim>16</dim>
					<dim>32</dim>
					<dim>1</dim>
					<dim>1</dim>
				</port>
			</output>
		</layer>
		<layer id="10" name="StatefulPartitionedCall/u_net_1/model_1/expanded_conv_project/Conv2D" type="Convolution" version="opset1">
			<data auto_pad="same_upper" dilations="1, 1" pads_begin="0, 0" pads_end="0, 0" strides="1, 1"/>
			<rt_info>
				<attribute name="fused_names" value="StatefulPartitionedCall/u_net_1/model_1/expanded_conv_project/Conv2D" version="0"/>
			</rt_info>
			<input>
				<port id="0" precision="FP32">
					<dim>-1</dim>
					<dim>32</dim>
					<dim>320</dim>
					<dim>320</dim>
				</port>
				<port id="1" precision="FP32">
					<dim>16</dim>
					<dim>32</dim>
					<dim>1</dim>
					<dim>1</dim>
				</port>
			</input>
			<output>
				<port id="2" names="StatefulPartitionedCall/u_net_1/model_1/expanded_conv_project_BN/FusedBatchNormV3:0" precision="FP32">
					<dim>-1</dim>
					<dim>16</dim>
					<dim>320</dim>
					<dim>320</dim>
				</port>
			</output>
		</layer>
		<layer id="11" name="StatefulPartitionedCall/u_net_1/model_1/block_1_expand_BN/FusedBatchNormV3/mean/Fused_Mul__copy" type="Const" version="opset1">
			<data element_type="f32" offset="6688" shape="96, 16, 1, 1" size="6144"/>
			<rt_info>
				<attribute name="fused_names" value="StatefulPartitionedCall/u_net_1/model_1/block_1_expand_BN/FusedBatchNormV3/mean/Fused_Mul__copy" version="0"/>
			</rt_info>
			<output>
				<port id="0" names="StatefulPartitionedCall/u_net_1/model_1/block_1_expand/Conv2D/ReadVariableOp:0" precision="FP32">
					<dim>96</dim>
					<dim>16</dim>
					<dim>1</dim>
					<dim>1</dim>
				</port>
			</output>
		</layer>
		<layer id="12" name="StatefulPartitionedCall/u_net_1/model_1/block_1_expand/Conv2D" type="Convolution" version="opset1">
			<data auto_pad="same_upper" dilations="1, 1" pads_begin="0, 0" pads_end="0, 0" strides="1, 1"/>
			<rt_info>
				<attribute name="fused_names" value="StatefulPartitionedCall/u_net_1/model_1/block_1_expand/Conv2D" version="0"/>
			</rt_info>
			<input>
				<port id="0" precision="FP32">
					<dim>-1</dim>
					<dim>16</dim>
					<dim>320</dim>
					<dim>320</dim>
				</port>
				<port id="1" precision="FP32">
					<dim>96</dim>
					<dim>16</dim>
					<dim>1</dim>
					<dim>1</dim>
				</port>
			</input>
			<output>
				<port id="2" names="StatefulPartitionedCall/u_net_1/model_1/block_1_expand_BN/FusedBatchNormV3:0" precision="FP32">
					<dim>-1</dim>
					<dim>96</dim>
					<dim>320</dim>
					<dim>320</dim>
				</port>
			</output>
		</layer>
		<layer id="13" name="StatefulPartitionedCall/u_net_1/model_1/block_1_expand_relu/Relu6" type="Clamp" version="opset1">
			<data max="6" min="0"/>
			<rt_info>
				<attribute name="fused_names" value="StatefulPartitionedCall/u_net_1/model_1/block_1_expand_relu/Relu6" version="0"/>
			</rt_info>
			<input>
				<port id="0" precision="FP32">
					<dim>-1</dim>
					<dim>96</dim>
					<dim>320</dim>
					<dim>320</dim>
				</port>
			</input>
			<output>
				<port id="1" names="StatefulPartitionedCall/u_net_1/model_1/block_1_expand_relu/Relu6:0" precision="FP32">
					<dim>-1</dim>
					<dim>96</dim>
					<dim>320</dim>
					<dim>320</dim>
				</port>
			</output>
		</layer>
		<layer id="14" name="StatefulPartitionedCall/u_net_1/model_1/block_1_depthwise_BN/FusedBatchNormV3/mean/Fused_Mul__copy" type="Const" version="opset1">
			<data element_type="f32" offset="12832" shape="96, 1, 1, 3, 3" size="3456"/>
			<rt_info>
				<attribute name="fused_names" value="StatefulPartitionedCall/u_net_1/model_1/block_1_depthwise_BN/FusedBatchNormV3/mean/Fused_Mul__copy" version="0"/>
			</rt_info>
			<output>
				<port id="0" names="StatefulPartitionedCall/u_net_1/model_1/block_1_depthwise/depthwise/ReadVariableOp:0" precision="FP32">
					<dim>96</dim>
					<dim>1</dim>
					<dim>1</dim>
					<dim>3</dim>
					<dim>3</dim>
				</port>
			</output>
		</layer>
		<layer id="15" name="StatefulPartitionedCall/u_net_1/model_1/block_1_depthwise/depthwise" type="GroupConvolution" version="opset1">
			<data auto_pad="explicit" dilations="1, 1" pads_begin="0, 0" pads_end="1, 1" strides="2, 2"/>
			<rt_info>
				<attribute name="fused_names" value="StatefulPartitionedCall/u_net_1/model_1/block_1_depthwise/depthwise, StatefulPartitionedCall/u_net_1/model_1/block_1_pad/Pad" version="0"/>
			</rt_info>
			<input>
				<port id="0" precision="FP32">
					<dim>-1</dim>
					<dim>96</dim>
					<dim>320</dim>
					<dim>320</dim>
				</port>
				<port id="1" precision="FP32">
					<dim>96</dim>
					<dim>1</dim>
					<dim>1</dim>
					<dim>3</dim>
					<dim>3</dim>
				</port>
			</input>
			<output>
				<port id="2" names="StatefulPartitionedCall/u_net_1/model_1/block_1_depthwise_BN/FusedBatchNormV3:0" precision="FP32">
					<dim>-1</dim>
					<dim>96</dim>
					<dim>160</dim>
					<dim>160</dim>
				</port>
			</output>
		</layer>
		<layer id="16" name="StatefulPartitionedCall/u_net_1/model_1/block_1_depthwise_relu/Relu6" type="Clamp" version="opset1">
			<data max="6" min="0"/>
			<rt_info>
				<attribute name="fused_names" value="StatefulPartitionedCall/u_net_1/model_1/block_1_depthwise_relu/Relu6" version="0"/>
			</rt_info>
			<input>
				<port id="0" precision="FP32">
					<dim>-1</dim>
					<dim>96</dim>
					<dim>160</dim>
					<dim>160</dim>
				</port>
			</input>
			<output>
				<port id="1" names="StatefulPartitionedCall/u_net_1/model_1/block_1_depthwise_relu/Relu6:0" precision="FP32">
					<dim>-1</dim>
					<dim>96</dim>
					<dim>160</dim>
					<dim>160</dim>
				</port>
			</output>
		</layer>
		<layer id="17" name="StatefulPartitionedCall/u_net_1/model_1/block_1_project_BN/FusedBatchNormV3/mean/Fused_Mul__copy" type="Const" version="opset1">
			<data element_type="f32" offset="16288" shape="24, 96, 1, 1" size="9216"/>
			<rt_info>
				<attribute name="fused_names" value="StatefulPartitionedCall/u_net_1/model_1/block_1_project_BN/FusedBatchNormV3/mean/Fused_Mul__copy" version="0"/>
			</rt_info>
			<output>
				<port id="0" names="StatefulPartitionedCall/u_net_1/model_1/block_1_project/Conv2D/ReadVariableOp:0" precision="FP32">
					<dim>24</dim>
					<dim>96</dim>
					<dim>1</dim>
					<dim>1</dim>
				</port>
			</output>
		</layer>
		<layer id="18" name="StatefulPartitionedCall/u_net_1/model_1/block_1_project/Conv2D" type="Convolution" version="opset1">
			<data auto_pad="same_upper" dilations="1, 1" pads_begin="0, 0" pads_end="0, 0" strides="1, 1"/>
			<rt_info>
				<attribute name="fused_names" value="StatefulPartitionedCall/u_net_1/model_1/block_1_project/Conv2D" version="0"/>
			</rt_info>
			<input>
				<port id="0" precision="FP32">
					<dim>-1</dim>
					<dim>96</dim>
					<dim>160</dim>
					<dim>160</dim>
				</port>
				<port id="1" precision="FP32">
					<dim>24</dim>
					<dim>96</dim>
					<dim>1</dim>
					<dim>1</dim>
				</port>
			</input>
			<output>
				<port id="2" names="StatefulPartitionedCall/u_net_1/model_1/block_1_project_BN/FusedBatchNormV3:0" precision="FP32">
					<dim>-1</dim>
					<dim>24</dim>
					<dim>160</dim>
					<dim>160</dim>
				</port>
			</output>
		</layer>
		<layer id="19" name="StatefulPartitionedCall/u_net_1/model_1/block_2_expand_BN/FusedBatchNormV3/mean/Fused_Mul__copy" type="Const" version="opset1">
			<data element_type="f32" offset="25504" shape="144, 24, 1, 1" size="13824"/>
			<rt_info>
				<attribute name="fused_names" value="StatefulPartitionedCall/u_net_1/model_1/block_2_expand_BN/FusedBatchNormV3/mean/Fused_Mul__copy" version="0"/>
			</rt_info>
			<output>
				<port id="0" names="StatefulPartitionedCall/u_net_1/model_1/block_2_expand/Conv2D/ReadVariableOp:0" precision="FP32">
					<dim>144</dim>
					<dim>24</dim>
					<dim>1</dim>
					<dim>1</dim>
				</port>
			</output>
		</layer>
		<layer id="20" name="StatefulPartitionedCall/u_net_1/model_1/block_2_expand/Conv2D" type="Convolution" version="opset1">
			<data auto_pad="same_upper" dilations="1, 1" pads_begin="0, 0" pads_end="0, 0" strides="1, 1"/>
			<rt_info>
				<attribute name="fused_names" value="StatefulPartitionedCall/u_net_1/model_1/block_2_expand/Conv2D" version="0"/>
			</rt_info>
			<input>
				<port id="0" precision="FP32">
					<dim>-1</dim>
					<dim>24</dim>
					<dim>160</dim>
					<dim>160</dim>
				</port>
				<port id="1" precision="FP32">
					<dim>144</dim>
					<dim>24</dim>
					<dim>1</dim>
					<dim>1</dim>
				</port>
			</input>
			<output>
				<port id="2" names="StatefulPartitionedCall/u_net_1/model_1/block_2_expand_BN/FusedBatchNormV3:0" precision="FP32">
					<dim>-1</dim>
					<dim>144</dim>
					<dim>160</dim>
					<dim>160</dim>
				</port>
			</output>
		</layer>
		<layer id="21" name="StatefulPartitionedCall/u_net_1/model_1/block_2_expand_relu/Relu6" type="Clamp" version="opset1">
			<data max="6" min="0"/>
			<rt_info>
				<attribute name="fused_names" value="StatefulPartitionedCall/u_net_1/model_1/block_2_expand_relu/Relu6" version="0"/>
			</rt_info>
			<input>
				<port id="0" precision="FP32">
					<dim>-1</dim>
					<dim>144</dim>
					<dim>160</dim>
					<dim>160</dim>
				</port>
			</input>
			<output>
				<port id="1" names="StatefulPartitionedCall/u_net_1/model_1/block_2_expand_relu/Relu6:0" precision="FP32">
					<dim>-1</dim>
					<dim>144</dim>
					<dim>160</dim>
					<dim>160</dim>
				</port>
			</output>
		</layer>
		<layer id="22" name="StatefulPartitionedCall/u_net_1/model_1/block_2_depthwise_BN/FusedBatchNormV3/mean/Fused_Mul__copy" type="Const" version="opset1">
			<data element_type="f32" offset="39328" shape="144, 1, 1, 3, 3" size="5184"/>
			<rt_info>
				<attribute name="fused_names" value="StatefulPartitionedCall/u_net_1/model_1/block_2_depthwise_BN/FusedBatchNormV3/mean/Fused_Mul__copy" version="0"/>
			</rt_info>
			<output>
				<port id="0" names="StatefulPartitionedCall/u_net_1/model_1/block_2_depthwise/depthwise/ReadVariableOp:0" precision="FP32">
					<dim>144</dim>
					<dim>1</dim>
					<dim>1</dim>
					<dim>3</dim>
					<dim>3</dim>
				</port>
			</output>
		</layer>
		<layer id="23" name="StatefulPartitionedCall/u_net_1/model_1/block_2_depthwise/depthwise" type="GroupConvolution" version="opset1">
			<data auto_pad="same_upper" dilations="1, 1" pads_begin="0, 0" pads_end="0, 0" strides="1, 1"/>
			<rt_info>
				<attribute name="fused_names" value="StatefulPartitionedCall/u_net_1/model_1/block_2_depthwise/depthwise" version="0"/>
			</rt_info>
			<input>
				<port id="0" precision="FP32">
					<dim>-1</dim>
					<dim>144</dim>
					<dim>160</dim>
					<dim>160</dim>
				</port>
				<port id="1" precision="FP32">
					<dim>144</dim>
					<dim>1</dim>
					<dim>1</dim>
					<dim>3</dim>
					<dim>3</dim>
				</port>
			</input>
			<output>
				<port id="2" names="StatefulPartitionedCall/u_net_1/model_1/block_2_depthwise_BN/FusedBatchNormV3:0" precision="FP32">
					<dim>-1</dim>
					<dim>144</dim>
					<dim>160</dim>
					<dim>160</dim>
				</port>
			</output>
		</layer>
		<layer id="24" name="StatefulPartitionedCall/u_net_1/model_1/block_2_depthwise_relu/Relu6" type="Clamp" version="opset1">
			<data max="6" min="0"/>
			<rt_info>
				<attribute name="fused_names" value="StatefulPartitionedCall/u_net_1/model_1/block_2_depthwise_relu/Relu6" version="0"/>
			</rt_info>
			<input>
				<port id="0" precision="FP32">
					<dim>-1</dim>
					<dim>144</dim>
					<dim>160</dim>
					<dim>160</dim>
				</port>
			</input>
			<output>
				<port id="1" names="StatefulPartitionedCall/u_net_1/model_1/block_2_depthwise_relu/Relu6:0" precision="FP32">
					<dim>-1</dim>
					<dim>144</dim>
					<dim>160</dim>
					<dim>160</dim>
				</port>
			</output>
		</layer>
		<layer id="25" name="StatefulPartitionedCall/u_net_1/model_1/block_2_project_BN/FusedBatchNormV3/mean/Fused_Mul__copy" type="Const" version="opset1">
			<data element_type="f32" offset="44512" shape="24, 144, 1, 1" size="13824"/>
			<rt_info>
				<attribute name="fused_names" value="StatefulPartitionedCall/u_net_1/model_1/block_2_project_BN/FusedBatchNormV3/mean/Fused_Mul__copy" version="0"/>
			</rt_info>
			<output>
				<port id="0" names="StatefulPartitionedCall/u_net_1/model_1/block_2_project/Conv2D/ReadVariableOp:0" precision="FP32">
					<dim>24</dim>
					<dim>144</dim>
					<dim>1</dim>
					<dim>1</dim>
				</port>
			</output>
		</layer>
		<layer id="26" name="StatefulPartitionedCall/u_net_1/model_1/block_2_project/Conv2D" type="Convolution" version="opset1">
			<data auto_pad="same_upper" dilations="1, 1" pads_begin="0, 0" pads_end="0, 0" strides="1, 1"/>
			<rt_info>
				<attribute name="fused_names" value="StatefulPartitionedCall/u_net_1/model_1/block_2_project/Conv2D" version="0"/>
			</rt_info>
			<input>
				<port id="0" precision="FP32">
					<dim>-1</dim>
					<dim>144</dim>
					<dim>160</dim>
					<dim>160</dim>
				</port>
				<port id="1" precision="FP32">
					<dim>24</dim>
					<dim>144</dim>
					<dim>1</dim>
					<dim>1</dim>
				</port>
			</input>
			<output>
				<port id="2" names="StatefulPartitionedCall/u_net_1/model_1/block_2_project_BN/FusedBatchNormV3:0" precision="FP32">
					<dim>-1</dim>
					<dim>24</dim>
					<dim>160</dim>
					<dim>160</dim>
				</port>
			</output>
		</layer>
		<layer id="27" name="StatefulPartitionedCall/u_net_1/model_1/block_2_add/add" type="Add" version="opset1">
			<data auto_broadcast="numpy"/>
			<rt_info>
				<attribute name="fused_names" value="StatefulPartitionedCall/u_net_1/model_1/block_2_add/add" version="0"/>
			</rt_info>
			<input>
				<port id="0" precision="FP32">
					<dim>-1</dim>
					<dim>24</dim>
					<dim>160</dim>
					<dim>160</dim>
				</port>
				<port id="1" precision="FP32">
					<dim>-1</dim>
					<dim>24</dim>
					<dim>160</dim>
					<dim>160</dim>
				</port>
			</input>
			<output>
				<port id="2" names="StatefulPartitionedCall/u_net_1/model_1/block_2_add/add:0" precision="FP32">
					<dim>-1</dim>
					<dim>24</dim>
					<dim>160</dim>
					<dim>160</dim>
				</port>
			</output>
		</layer>
		<layer id="28" name="StatefulPartitionedCall/u_net_1/model_1/block_3_expand_BN/FusedBatchNormV3/mean/Fused_Mul__copy" type="Const" version="opset1">
			<data element_type="f32" offset="58336" shape="144, 24, 1, 1" size="13824"/>
			<rt_info>
				<attribute name="fused_names" value="StatefulPartitionedCall/u_net_1/model_1/block_3_expand_BN/FusedBatchNormV3/mean/Fused_Mul__copy" version="0"/>
			</rt_info>
			<output>
				<port id="0" names="StatefulPartitionedCall/u_net_1/model_1/block_3_expand/Conv2D/ReadVariableOp:0" precision="FP32">
					<dim>144</dim>
					<dim>24</dim>
					<dim>1</dim>
					<dim>1</dim>
				</port>
			</output>
		</layer>
		<layer id="29" name="StatefulPartitionedCall/u_net_1/model_1/block_3_expand/Conv2D" type="Convolution" version="opset1">
			<data auto_pad="same_upper" dilations="1, 1" pads_begin="0, 0" pads_end="0, 0" strides="1, 1"/>
			<rt_info>
				<attribute name="fused_names" value="StatefulPartitionedCall/u_net_1/model_1/block_3_expand/Conv2D" version="0"/>
			</rt_info>
			<input>
				<port id="0" precision="FP32">
					<dim>-1</dim>
					<dim>24</dim>
					<dim>160</dim>
					<dim>160</dim>
				</port>
				<port id="1" precision="FP32">
					<dim>144</dim>
					<dim>24</dim>
					<dim>1</dim>
					<dim>1</dim>
				</port>
			</input>
			<output>
				<port id="2" names="StatefulPartitionedCall/u_net_1/model_1/block_3_expand_BN/FusedBatchNormV3:0" precision="FP32">
					<dim>-1</dim>
					<dim>144</dim>
					<dim>160</dim>
					<dim>160</dim>
				</port>
			</output>
		</layer>
		<layer id="30" name="StatefulPartitionedCall/u_net_1/model_1/block_3_expand_relu/Relu6" type="Clamp" version="opset1">
			<data max="6" min="0"/>
			<rt_info>
				<attribute name="fused_names" value="StatefulPartitionedCall/u_net_1/model_1/block_3_expand_relu/Relu6" version="0"/>
			</rt_info>
			<input>
				<port id="0" precision="FP32">
					<dim>-1</dim>
					<dim>144</dim>
					<dim>160</dim>
					<dim>160</dim>
				</port>
			</input>
			<output>
				<port id="1" names="StatefulPartitionedCall/u_net_1/model_1/block_3_expand_relu/Relu6:0" precision="FP32">
					<dim>-1</dim>
					<dim>144</dim>
					<dim>160</dim>
					<dim>160</dim>
				</port>
			</output>
		</layer>
		<layer id="31" name="StatefulPartitionedCall/u_net_1/model_1/block_3_depthwise_BN/FusedBatchNormV3/mean/Fused_Mul__copy" type="Const" version="opset1">
			<data element_type="f32" offset="72160" shape="144, 1, 1, 3, 3" size="5184"/>
			<rt_info>
				<attribute name="fused_names" value="StatefulPartitionedCall/u_net_1/model_1/block_3_depthwise_BN/FusedBatchNormV3/mean/Fused_Mul__copy" version="0"/>
			</rt_info>
			<output>
				<port id="0" names="StatefulPartitionedCall/u_net_1/model_1/block_3_depthwise/depthwise/ReadVariableOp:0" precision="FP32">
					<dim>144</dim>
					<dim>1</dim>
					<dim>1</dim>
					<dim>3</dim>
					<dim>3</dim>
				</port>
			</output>
		</layer>
		<layer id="32" name="StatefulPartitionedCall/u_net_1/model_1/block_3_depthwise/depthwise" type="GroupConvolution" version="opset1">
			<data auto_pad="explicit" dilations="1, 1" pads_begin="0, 0" pads_end="1, 1" strides="2, 2"/>
			<rt_info>
				<attribute name="fused_names" value="StatefulPartitionedCall/u_net_1/model_1/block_3_depthwise/depthwise, StatefulPartitionedCall/u_net_1/model_1/block_3_pad/Pad" version="0"/>
			</rt_info>
			<input>
				<port id="0" precision="FP32">
					<dim>-1</dim>
					<dim>144</dim>
					<dim>160</dim>
					<dim>160</dim>
				</port>
				<port id="1" precision="FP32">
					<dim>144</dim>
					<dim>1</dim>
					<dim>1</dim>
					<dim>3</dim>
					<dim>3</dim>
				</port>
			</input>
			<output>
				<port id="2" names="StatefulPartitionedCall/u_net_1/model_1/block_3_depthwise_BN/FusedBatchNormV3:0" precision="FP32">
					<dim>-1</dim>
					<dim>144</dim>
					<dim>80</dim>
					<dim>80</dim>
				</port>
			</output>
		</layer>
		<layer id="33" name="StatefulPartitionedCall/u_net_1/model_1/block_3_depthwise_relu/Relu6" type="Clamp" version="opset1">
			<data max="6" min="0"/>
			<rt_info>
				<attribute name="fused_names" value="StatefulPartitionedCall/u_net_1/model_1/block_3_depthwise_relu/Relu6" version="0"/>
			</rt_info>
			<input>
				<port id="0" precision="FP32">
					<dim>-1</dim>
					<dim>144</dim>
					<dim>80</dim>
					<dim>80</dim>
				</port>
			</input>
			<output>
				<port id="1" names="StatefulPartitionedCall/u_net_1/model_1/block_3_depthwise_relu/Relu6:0" precision="FP32">
					<dim>-1</dim>
					<dim>144</dim>
					<dim>80</dim>
					<dim>80</dim>
				</port>
			</output>
		</layer>
		<layer id="34" name="StatefulPartitionedCall/u_net_1/model_1/block_3_project_BN/FusedBatchNormV3/mean/Fused_Mul__copy" type="Const" version="opset1">
			<data element_type="f32" offset="77344" shape="32, 144, 1, 1" size="18432"/>
			<rt_info>
				<attribute name="fused_names" value="StatefulPartitionedCall/u_net_1/model_1/block_3_project_BN/FusedBatchNormV3/mean/Fused_Mul__copy" version="0"/>
			</rt_info>
			<output>
				<port id="0" names="StatefulPartitionedCall/u_net_1/model_1/block_3_project/Conv2D/ReadVariableOp:0" precision="FP32">
					<dim>32</dim>
					<dim>144</dim>
					<dim>1</dim>
					<dim>1</dim>
				</port>
			</output>
		</layer>
		<layer id="35" name="StatefulPartitionedCall/u_net_1/model_1/block_3_project/Conv2D" type="Convolution" version="opset1">
			<data auto_pad="same_upper" dilations="1, 1" pads_begin="0, 0" pads_end="0, 0" strides="1, 1"/>
			<rt_info>
				<attribute name="fused_names" value="StatefulPartitionedCall/u_net_1/model_1/block_3_project/Conv2D" version="0"/>
			</rt_info>
			<input>
				<port id="0" precision="FP32">
					<dim>-1</dim>
					<dim>144</dim>
					<dim>80</dim>
					<dim>80</dim>
				</port>
				<port id="1" precision="FP32">
					<dim>32</dim>
					<dim>144</dim>
					<dim>1</dim>
					<dim>1</dim>
				</port>
			</input>
			<output>
				<port id="2" names="StatefulPartitionedCall/u_net_1/model_1/block_3_project_BN/FusedBatchNormV3:0" precision="FP32">
					<dim>-1</dim>
					<dim>32</dim>
					<dim>80</dim>
					<dim>80</dim>
				</port>
			</output>
		</layer>
		<layer id="36" name="StatefulPartitionedCall/u_net_1/model_1/block_4_expand_BN/FusedBatchNormV3/mean/Fused_Mul__copy" type="Const" version="opset1">
			<data element_type="f32" offset="95776" shape="192, 32, 1, 1" size="24576"/>
			<rt_info>
				<attribute name="fused_names" value="StatefulPartitionedCall/u_net_1/model_1/block_4_expand_BN/FusedBatchNormV3/mean/Fused_Mul__copy" version="0"/>
			</rt_info>
			<output>
				<port id="0" names="StatefulPartitionedCall/u_net_1/model_1/block_4_expand/Conv2D/ReadVariableOp:0" precision="FP32">
					<dim>192</dim>
					<dim>32</dim>
					<dim>1</dim>
					<dim>1</dim>
				</port>
			</output>
		</layer>
		<layer id="37" name="StatefulPartitionedCall/u_net_1/model_1/block_4_expand/Conv2D" type="Convolution" version="opset1">
			<data auto_pad="same_upper" dilations="1, 1" pads_begin="0, 0" pads_end="0, 0" strides="1, 1"/>
			<rt_info>
				<attribute name="fused_names" value="StatefulPartitionedCall/u_net_1/model_1/block_4_expand/Conv2D" version="0"/>
			</rt_info>
			<input>
				<port id="0" precision="FP32">
					<dim>-1</dim>
					<dim>32</dim>
					<dim>80</dim>
					<dim>80</dim>
				</port>
				<port id="1" precision="FP32">
					<dim>192</dim>
					<dim>32</dim>
					<dim>1</dim>
					<dim>1</dim>
				</port>
			</input>
			<output>
				<port id="2" names="StatefulPartitionedCall/u_net_1/model_1/block_4_expand_BN/FusedBatchNormV3:0" precision="FP32">
					<dim>-1</dim>
					<dim>192</dim>
					<dim>80</dim>
					<dim>80</dim>
				</port>
			</output>
		</layer>
		<layer id="38" name="StatefulPartitionedCall/u_net_1/model_1/block_4_expand_relu/Relu6" type="Clamp" version="opset1">
			<data max="6" min="0"/>
			<rt_info>
				<attribute name="fused_names" value="StatefulPartitionedCall/u_net_1/model_1/block_4_expand_relu/Relu6" version="0"/>
			</rt_info>
			<input>
				<port id="0" precision="FP32">
					<dim>-1</dim>
					<dim>192</dim>
					<dim>80</dim>
					<dim>80</dim>
				</port>
			</input>
			<output>
				<port id="1" names="StatefulPartitionedCall/u_net_1/model_1/block_4_expand_relu/Relu6:0" precision="FP32">
					<dim>-1</dim>
					<dim>192</dim>
					<dim>80</dim>
					<dim>80</dim>
				</port>
			</output>
		</layer>
		<layer id="39" name="StatefulPartitionedCall/u_net_1/model_1/block_4_depthwise_BN/FusedBatchNormV3/mean/Fused_Mul__copy" type="Const" version="opset1">
			<data element_type="f32" offset="120352" shape="192, 1, 1, 3, 3" size="6912"/>
			<rt_info>
				<attribute name="fused_names" value="StatefulPartitionedCall/u_net_1/model_1/block_4_depthwise_BN/FusedBatchNormV3/mean/Fused_Mul__copy" version="0"/>
			</rt_info>
			<output>
				<port id="0" names="StatefulPartitionedCall/u_net_1/model_1/block_4_depthwise/depthwise/ReadVariableOp:0" precision="FP32">
					<dim>192</dim>
					<dim>1</dim>
					<dim>1</dim>
					<dim>3</dim>
					<dim>3</dim>
				</port>
			</output>
		</layer>
		<layer id="40" name="StatefulPartitionedCall/u_net_1/model_1/block_4_depthwise/depthwise" type="GroupConvolution" version="opset1">
			<data auto_pad="same_upper" dilations="1, 1" pads_begin="0, 0" pads_end="0, 0" strides="1, 1"/>
			<rt_info>
				<attribute name="fused_names" value="StatefulPartitionedCall/u_net_1/model_1/block_4_depthwise/depthwise" version="0"/>
			</rt_info>
			<input>
				<port id="0" precision="FP32">
					<dim>-1</dim>
					<dim>192</dim>
					<dim>80</dim>
					<dim>80</dim>
				</port>
				<port id="1" precision="FP32">
					<dim>192</dim>
					<dim>1</dim>
					<dim>1</dim>
					<dim>3</dim>
					<dim>3</dim>
				</port>
			</input>
			<output>
				<port id="2" names="StatefulPartitionedCall/u_net_1/model_1/block_4_depthwise_BN/FusedBatchNormV3:0" precision="FP32">
					<dim>-1</dim>
					<dim>192</dim>
					<dim>80</dim>
					<dim>80</dim>
				</port>
			</output>
		</layer>
		<layer id="41" name="StatefulPartitionedCall/u_net_1/model_1/block_4_depthwise_relu/Relu6" type="Clamp" version="opset1">
			<data max="6" min="0"/>
			<rt_info>
				<attribute name="fused_names" value="StatefulPartitionedCall/u_net_1/model_1/block_4_depthwise_relu/Relu6" version="0"/>
			</rt_info>
			<input>
				<port id="0" precision="FP32">
					<dim>-1</dim>
					<dim>192</dim>
					<dim>80</dim>
					<dim>80</dim>
				</port>
			</input>
			<output>
				<port id="1" names="StatefulPartitionedCall/u_net_1/model_1/block_4_depthwise_relu/Relu6:0" precision="FP32">
					<dim>-1</dim>
					<dim>192</dim>
					<dim>80</dim>
					<dim>80</dim>
				</port>
			</output>
		</layer>
		<layer id="42" name="StatefulPartitionedCall/u_net_1/model_1/block_4_project_BN/FusedBatchNormV3/mean/Fused_Mul__copy" type="Const" version="opset1">
			<data element_type="f32" offset="127264" shape="32, 192, 1, 1" size="24576"/>
			<rt_info>
				<attribute name="fused_names" value="StatefulPartitionedCall/u_net_1/model_1/block_4_project_BN/FusedBatchNormV3/mean/Fused_Mul__copy" version="0"/>
			</rt_info>
			<output>
				<port id="0" names="StatefulPartitionedCall/u_net_1/model_1/block_4_project/Conv2D/ReadVariableOp:0" precision="FP32">
					<dim>32</dim>
					<dim>192</dim>
					<dim>1</dim>
					<dim>1</dim>
				</port>
			</output>
		</layer>
		<layer id="43" name="StatefulPartitionedCall/u_net_1/model_1/block_4_project/Conv2D" type="Convolution" version="opset1">
			<data auto_pad="same_upper" dilations="1, 1" pads_begin="0, 0" pads_end="0, 0" strides="1, 1"/>
			<rt_info>
				<attribute name="fused_names" value="StatefulPartitionedCall/u_net_1/model_1/block_4_project/Conv2D" version="0"/>
			</rt_info>
			<input>
				<port id="0" precision="FP32">
					<dim>-1</dim>
					<dim>192</dim>
					<dim>80</dim>
					<dim>80</dim>
				</port>
				<port id="1" precision="FP32">
					<dim>32</dim>
					<dim>192</dim>
					<dim>1</dim>
					<dim>1</dim>
				</port>
			</input>
			<output>
				<port id="2" names="StatefulPartitionedCall/u_net_1/model_1/block_4_project_BN/FusedBatchNormV3:0" precision="FP32">
					<dim>-1</dim>
					<dim>32</dim>
					<dim>80</dim>
					<dim>80</dim>
				</port>
			</output>
		</layer>
		<layer id="44" name="StatefulPartitionedCall/u_net_1/model_1/block_4_add/add" type="Add" version="opset1">
			<data auto_broadcast="numpy"/>
			<rt_info>
				<attribute name="fused_names" value="StatefulPartitionedCall/u_net_1/model_1/block_4_add/add" version="0"/>
			</rt_info>
			<input>
				<port id="0" precision="FP32">
					<dim>-1</dim>
					<dim>32</dim>
					<dim>80</dim>
					<dim>80</dim>
				</port>
				<port id="1" precision="FP32">
					<dim>-1</dim>
					<dim>32</dim>
					<dim>80</dim>
					<dim>80</dim>
				</port>
			</input>
			<output>
				<port id="2" names="StatefulPartitionedCall/u_net_1/model_1/block_4_add/add:0" precision="FP32">
					<dim>-1</dim>
					<dim>32</dim>
					<dim>80</dim>
					<dim>80</dim>
				</port>
			</output>
		</layer>
		<layer id="45" name="StatefulPartitionedCall/u_net_1/model_1/block_5_expand_BN/FusedBatchNormV3/mean/Fused_Mul__copy" type="Const" version="opset1">
			<data element_type="f32" offset="151840" shape="192, 32, 1, 1" size="24576"/>
			<rt_info>
				<attribute name="fused_names" value="StatefulPartitionedCall/u_net_1/model_1/block_5_expand_BN/FusedBatchNormV3/mean/Fused_Mul__copy" version="0"/>
			</rt_info>
			<output>
				<port id="0" names="StatefulPartitionedCall/u_net_1/model_1/block_5_expand/Conv2D/ReadVariableOp:0" precision="FP32">
					<dim>192</dim>
					<dim>32</dim>
					<dim>1</dim>
					<dim>1</dim>
				</port>
			</output>
		</layer>
		<layer id="46" name="StatefulPartitionedCall/u_net_1/model_1/block_5_expand/Conv2D" type="Convolution" version="opset1">
			<data auto_pad="same_upper" dilations="1, 1" pads_begin="0, 0" pads_end="0, 0" strides="1, 1"/>
			<rt_info>
				<attribute name="fused_names" value="StatefulPartitionedCall/u_net_1/model_1/block_5_expand/Conv2D" version="0"/>
			</rt_info>
			<input>
				<port id="0" precision="FP32">
					<dim>-1</dim>
					<dim>32</dim>
					<dim>80</dim>
					<dim>80</dim>
				</port>
				<port id="1" precision="FP32">
					<dim>192</dim>
					<dim>32</dim>
					<dim>1</dim>
					<dim>1</dim>
				</port>
			</input>
			<output>
				<port id="2" names="StatefulPartitionedCall/u_net_1/model_1/block_5_expand_BN/FusedBatchNormV3:0" precision="FP32">
					<dim>-1</dim>
					<dim>192</dim>
					<dim>80</dim>
					<dim>80</dim>
				</port>
			</output>
		</layer>
		<layer id="47" name="StatefulPartitionedCall/u_net_1/model_1/block_5_expand_relu/Relu6" type="Clamp" version="opset1">
			<data max="6" min="0"/>
			<rt_info>
				<attribute name="fused_names" value="StatefulPartitionedCall/u_net_1/model_1/block_5_expand_relu/Relu6" version="0"/>
			</rt_info>
			<input>
				<port id="0" precision="FP32">
					<dim>-1</dim>
					<dim>192</dim>
					<dim>80</dim>
					<dim>80</dim>
				</port>
			</input>
			<output>
				<port id="1" names="StatefulPartitionedCall/u_net_1/model_1/block_5_expand_relu/Relu6:0" precision="FP32">
					<dim>-1</dim>
					<dim>192</dim>
					<dim>80</dim>
					<dim>80</dim>
				</port>
			</output>
		</layer>
		<layer id="48" name="StatefulPartitionedCall/u_net_1/model_1/block_5_depthwise_BN/FusedBatchNormV3/mean/Fused_Mul__copy" type="Const" version="opset1">
			<data element_type="f32" offset="176416" shape="192, 1, 1, 3, 3" size="6912"/>
			<rt_info>
				<attribute name="fused_names" value="StatefulPartitionedCall/u_net_1/model_1/block_5_depthwise_BN/FusedBatchNormV3/mean/Fused_Mul__copy" version="0"/>
			</rt_info>
			<output>
				<port id="0" names="StatefulPartitionedCall/u_net_1/model_1/block_5_depthwise/depthwise/ReadVariableOp:0" precision="FP32">
					<dim>192</dim>
					<dim>1</dim>
					<dim>1</dim>
					<dim>3</dim>
					<dim>3</dim>
				</port>
			</output>
		</layer>
		<layer id="49" name="StatefulPartitionedCall/u_net_1/model_1/block_5_depthwise/depthwise" type="GroupConvolution" version="opset1">
			<data auto_pad="same_upper" dilations="1, 1" pads_begin="0, 0" pads_end="0, 0" strides="1, 1"/>
			<rt_info>
				<attribute name="fused_names" value="StatefulPartitionedCall/u_net_1/model_1/block_5_depthwise/depthwise" version="0"/>
			</rt_info>
			<input>
				<port id="0" precision="FP32">
					<dim>-1</dim>
					<dim>192</dim>
					<dim>80</dim>
					<dim>80</dim>
				</port>
				<port id="1" precision="FP32">
					<dim>192</dim>
					<dim>1</dim>
					<dim>1</dim>
					<dim>3</dim>
					<dim>3</dim>
				</port>
			</input>
			<output>
				<port id="2" names="StatefulPartitionedCall/u_net_1/model_1/block_5_depthwise_BN/FusedBatchNormV3:0" precision="FP32">
					<dim>-1</dim>
					<dim>192</dim>
					<dim>80</dim>
					<dim>80</dim>
				</port>
			</output>
		</layer>
		<layer id="50" name="StatefulPartitionedCall/u_net_1/model_1/block_5_depthwise_relu/Relu6" type="Clamp" version="opset1">
			<data max="6" min="0"/>
			<rt_info>
				<attribute name="fused_names" value="StatefulPartitionedCall/u_net_1/model_1/block_5_depthwise_relu/Relu6" version="0"/>
			</rt_info>
			<input>
				<port id="0" precision="FP32">
					<dim>-1</dim>
					<dim>192</dim>
					<dim>80</dim>
					<dim>80</dim>
				</port>
			</input>
			<output>
				<port id="1" names="StatefulPartitionedCall/u_net_1/model_1/block_5_depthwise_relu/Relu6:0" precision="FP32">
					<dim>-1</dim>
					<dim>192</dim>
					<dim>80</dim>
					<dim>80</dim>
				</port>
			</output>
		</layer>
		<layer id="51" name="StatefulPartitionedCall/u_net_1/model_1/block_5_project_BN/FusedBatchNormV3/mean/Fused_Mul__copy" type="Const" version="opset1">
			<data element_type="f32" offset="183328" shape="32, 192, 1, 1" size="24576"/>
			<rt_info>
				<attribute name="fused_names" value="StatefulPartitionedCall/u_net_1/model_1/block_5_project_BN/FusedBatchNormV3/mean/Fused_Mul__copy" version="0"/>
			</rt_info>
			<output>
				<port id="0" names="StatefulPartitionedCall/u_net_1/model_1/block_5_project/Conv2D/ReadVariableOp:0" precision="FP32">
					<dim>32</dim>
					<dim>192</dim>
					<dim>1</dim>
					<dim>1</dim>
				</port>
			</output>
		</layer>
		<layer id="52" name="StatefulPartitionedCall/u_net_1/model_1/block_5_project/Conv2D" type="Convolution" version="opset1">
			<data auto_pad="same_upper" dilations="1, 1" pads_begin="0, 0" pads_end="0, 0" strides="1, 1"/>
			<rt_info>
				<attribute name="fused_names" value="StatefulPartitionedCall/u_net_1/model_1/block_5_project/Conv2D" version="0"/>
			</rt_info>
			<input>
				<port id="0" precision="FP32">
					<dim>-1</dim>
					<dim>192</dim>
					<dim>80</dim>
					<dim>80</dim>
				</port>
				<port id="1" precision="FP32">
					<dim>32</dim>
					<dim>192</dim>
					<dim>1</dim>
					<dim>1</dim>
				</port>
			</input>
			<output>
				<port id="2" names="StatefulPartitionedCall/u_net_1/model_1/block_5_project_BN/FusedBatchNormV3:0" precision="FP32">
					<dim>-1</dim>
					<dim>32</dim>
					<dim>80</dim>
					<dim>80</dim>
				</port>
			</output>
		</layer>
		<layer id="53" name="StatefulPartitionedCall/u_net_1/model_1/block_5_add/add" type="Add" version="opset1">
			<data auto_broadcast="numpy"/>
			<rt_info>
				<attribute name="fused_names" value="StatefulPartitionedCall/u_net_1/model_1/block_5_add/add" version="0"/>
			</rt_info>
			<input>
				<port id="0" precision="FP32">
					<dim>-1</dim>
					<dim>32</dim>
					<dim>80</dim>
					<dim>80</dim>
				</port>
				<port id="1" precision="FP32">
					<dim>-1</dim>
					<dim>32</dim>
					<dim>80</dim>
					<dim>80</dim>
				</port>
			</input>
			<output>
				<port id="2" names="StatefulPartitionedCall/u_net_1/model_1/block_5_add/add:0" precision="FP32">
					<dim>-1</dim>
					<dim>32</dim>
					<dim>80</dim>
					<dim>80</dim>
				</port>
			</output>
		</layer>
		<layer id="54" name="StatefulPartitionedCall/u_net_1/model_1/block_6_expand_BN/FusedBatchNormV3/mean/Fused_Mul__copy" type="Const" version="opset1">
			<data element_type="f32" offset="207904" shape="192, 32, 1, 1" size="24576"/>
			<rt_info>
				<attribute name="fused_names" value="StatefulPartitionedCall/u_net_1/model_1/block_6_expand_BN/FusedBatchNormV3/mean/Fused_Mul__copy" version="0"/>
			</rt_info>
			<output>
				<port id="0" names="StatefulPartitionedCall/u_net_1/model_1/block_6_expand/Conv2D/ReadVariableOp:0" precision="FP32">
					<dim>192</dim>
					<dim>32</dim>
					<dim>1</dim>
					<dim>1</dim>
				</port>
			</output>
		</layer>
		<layer id="55" name="StatefulPartitionedCall/u_net_1/model_1/block_6_expand/Conv2D" type="Convolution" version="opset1">
			<data auto_pad="same_upper" dilations="1, 1" pads_begin="0, 0" pads_end="0, 0" strides="1, 1"/>
			<rt_info>
				<attribute name="fused_names" value="StatefulPartitionedCall/u_net_1/model_1/block_6_expand/Conv2D" version="0"/>
			</rt_info>
			<input>
				<port id="0" precision="FP32">
					<dim>-1</dim>
					<dim>32</dim>
					<dim>80</dim>
					<dim>80</dim>
				</port>
				<port id="1" precision="FP32">
					<dim>192</dim>
					<dim>32</dim>
					<dim>1</dim>
					<dim>1</dim>
				</port>
			</input>
			<output>
				<port id="2" names="StatefulPartitionedCall/u_net_1/model_1/block_6_expand_BN/FusedBatchNormV3:0" precision="FP32">
					<dim>-1</dim>
					<dim>192</dim>
					<dim>80</dim>
					<dim>80</dim>
				</port>
			</output>
		</layer>
		<layer id="56" name="StatefulPartitionedCall/u_net_1/model_1/block_6_expand_relu/Relu6" type="Clamp" version="opset1">
			<data max="6" min="0"/>
			<rt_info>
				<attribute name="fused_names" value="StatefulPartitionedCall/u_net_1/model_1/block_6_expand_relu/Relu6" version="0"/>
			</rt_info>
			<input>
				<port id="0" precision="FP32">
					<dim>-1</dim>
					<dim>192</dim>
					<dim>80</dim>
					<dim>80</dim>
				</port>
			</input>
			<output>
				<port id="1" names="StatefulPartitionedCall/u_net_1/model_1/block_6_expand_relu/Relu6:0" precision="FP32">
					<dim>-1</dim>
					<dim>192</dim>
					<dim>80</dim>
					<dim>80</dim>
				</port>
			</output>
		</layer>
		<layer id="57" name="StatefulPartitionedCall/u_net_1/model_1/block_6_depthwise_BN/FusedBatchNormV3/mean/Fused_Mul__copy" type="Const" version="opset1">
			<data element_type="f32" offset="232480" shape="192, 1, 1, 3, 3" size="6912"/>
			<rt_info>
				<attribute name="fused_names" value="StatefulPartitionedCall/u_net_1/model_1/block_6_depthwise_BN/FusedBatchNormV3/mean/Fused_Mul__copy" version="0"/>
			</rt_info>
			<output>
				<port id="0" names="StatefulPartitionedCall/u_net_1/model_1/block_6_depthwise/depthwise/ReadVariableOp:0" precision="FP32">
					<dim>192</dim>
					<dim>1</dim>
					<dim>1</dim>
					<dim>3</dim>
					<dim>3</dim>
				</port>
			</output>
		</layer>
		<layer id="58" name="StatefulPartitionedCall/u_net_1/model_1/block_6_depthwise/depthwise" type="GroupConvolution" version="opset1">
			<data auto_pad="explicit" dilations="1, 1" pads_begin="0, 0" pads_end="1, 1" strides="2, 2"/>
			<rt_info>
				<attribute name="fused_names" value="StatefulPartitionedCall/u_net_1/model_1/block_6_depthwise/depthwise, StatefulPartitionedCall/u_net_1/model_1/block_6_pad/Pad" version="0"/>
			</rt_info>
			<input>
				<port id="0" precision="FP32">
					<dim>-1</dim>
					<dim>192</dim>
					<dim>80</dim>
					<dim>80</dim>
				</port>
				<port id="1" precision="FP32">
					<dim>192</dim>
					<dim>1</dim>
					<dim>1</dim>
					<dim>3</dim>
					<dim>3</dim>
				</port>
			</input>
			<output>
				<port id="2" names="StatefulPartitionedCall/u_net_1/model_1/block_6_depthwise_BN/FusedBatchNormV3:0" precision="FP32">
					<dim>-1</dim>
					<dim>192</dim>
					<dim>40</dim>
					<dim>40</dim>
				</port>
			</output>
		</layer>
		<layer id="59" name="StatefulPartitionedCall/u_net_1/model_1/block_6_depthwise_relu/Relu6" type="Clamp" version="opset1">
			<data max="6" min="0"/>
			<rt_info>
				<attribute name="fused_names" value="StatefulPartitionedCall/u_net_1/model_1/block_6_depthwise_relu/Relu6" version="0"/>
			</rt_info>
			<input>
				<port id="0" precision="FP32">
					<dim>-1</dim>
					<dim>192</dim>
					<dim>40</dim>
					<dim>40</dim>
				</port>
			</input>
			<output>
				<port id="1" names="StatefulPartitionedCall/u_net_1/model_1/block_6_depthwise_relu/Relu6:0" precision="FP32">
					<dim>-1</dim>
					<dim>192</dim>
					<dim>40</dim>
					<dim>40</dim>
				</port>
			</output>
		</layer>
		<layer id="60" name="StatefulPartitionedCall/u_net_1/model_1/block_6_project_BN/FusedBatchNormV3/mean/Fused_Mul__copy" type="Const" version="opset1">
			<data element_type="f32" offset="239392" shape="64, 192, 1, 1" size="49152"/>
			<rt_info>
				<attribute name="fused_names" value="StatefulPartitionedCall/u_net_1/model_1/block_6_project_BN/FusedBatchNormV3/mean/Fused_Mul__copy" version="0"/>
			</rt_info>
			<output>
				<port id="0" names="StatefulPartitionedCall/u_net_1/model_1/block_6_project/Conv2D/ReadVariableOp:0" precision="FP32">
					<dim>64</dim>
					<dim>192</dim>
					<dim>1</dim>
					<dim>1</dim>
				</port>
			</output>
		</layer>
		<layer id="61" name="StatefulPartitionedCall/u_net_1/model_1/block_6_project/Conv2D" type="Convolution" version="opset1">
			<data auto_pad="same_upper" dilations="1, 1" pads_begin="0, 0" pads_end="0, 0" strides="1, 1"/>
			<rt_info>
				<attribute name="fused_names" value="StatefulPartitionedCall/u_net_1/model_1/block_6_project/Conv2D" version="0"/>
			</rt_info>
			<input>
				<port id="0" precision="FP32">
					<dim>-1</dim>
					<dim>192</dim>
					<dim>40</dim>
					<dim>40</dim>
				</port>
				<port id="1" precision="FP32">
					<dim>64</dim>
					<dim>192</dim>
					<dim>1</dim>
					<dim>1</dim>
				</port>
			</input>
			<output>
				<port id="2" names="StatefulPartitionedCall/u_net_1/model_1/block_6_project_BN/FusedBatchNormV3:0" precision="FP32">
					<dim>-1</dim>
					<dim>64</dim>
					<dim>40</dim>
					<dim>40</dim>
				</port>
			</output>
		</layer>
		<layer id="62" name="StatefulPartitionedCall/u_net_1/model_1/block_7_expand_BN/FusedBatchNormV3/mean/Fused_Mul__copy" type="Const" version="opset1">
			<data element_type="f32" offset="288544" shape="384, 64, 1, 1" size="98304"/>
			<rt_info>
				<attribute name="fused_names" value="StatefulPartitionedCall/u_net_1/model_1/block_7_expand_BN/FusedBatchNormV3/mean/Fused_Mul__copy" version="0"/>
			</rt_info>
			<output>
				<port id="0" names="StatefulPartitionedCall/u_net_1/model_1/block_7_expand/Conv2D/ReadVariableOp:0" precision="FP32">
					<dim>384</dim>
					<dim>64</dim>
					<dim>1</dim>
					<dim>1</dim>
				</port>
			</output>
		</layer>
		<layer id="63" name="StatefulPartitionedCall/u_net_1/model_1/block_7_expand/Conv2D" type="Convolution" version="opset1">
			<data auto_pad="same_upper" dilations="1, 1" pads_begin="0, 0" pads_end="0, 0" strides="1, 1"/>
			<rt_info>
				<attribute name="fused_names" value="StatefulPartitionedCall/u_net_1/model_1/block_7_expand/Conv2D" version="0"/>
			</rt_info>
			<input>
				<port id="0" precision="FP32">
					<dim>-1</dim>
					<dim>64</dim>
					<dim>40</dim>
					<dim>40</dim>
				</port>
				<port id="1" precision="FP32">
					<dim>384</dim>
					<dim>64</dim>
					<dim>1</dim>
					<dim>1</dim>
				</port>
			</input>
			<output>
				<port id="2" names="StatefulPartitionedCall/u_net_1/model_1/block_7_expand_BN/FusedBatchNormV3:0" precision="FP32">
					<dim>-1</dim>
					<dim>384</dim>
					<dim>40</dim>
					<dim>40</dim>
				</port>
			</output>
		</layer>
		<layer id="64" name="StatefulPartitionedCall/u_net_1/model_1/block_7_expand_relu/Relu6" type="Clamp" version="opset1">
			<data max="6" min="0"/>
			<rt_info>
				<attribute name="fused_names" value="StatefulPartitionedCall/u_net_1/model_1/block_7_expand_relu/Relu6" version="0"/>
			</rt_info>
			<input>
				<port id="0" precision="FP32">
					<dim>-1</dim>
					<dim>384</dim>
					<dim>40</dim>
					<dim>40</dim>
				</port>
			</input>
			<output>
				<port id="1" names="StatefulPartitionedCall/u_net_1/model_1/block_7_expand_relu/Relu6:0" precision="FP32">
					<dim>-1</dim>
					<dim>384</dim>
					<dim>40</dim>
					<dim>40</dim>
				</port>
			</output>
		</layer>
		<layer id="65" name="StatefulPartitionedCall/u_net_1/model_1/block_7_depthwise_BN/FusedBatchNormV3/mean/Fused_Mul__copy" type="Const" version="opset1">
			<data element_type="f32" offset="386848" shape="384, 1, 1, 3, 3" size="13824"/>
			<rt_info>
				<attribute name="fused_names" value="StatefulPartitionedCall/u_net_1/model_1/block_7_depthwise_BN/FusedBatchNormV3/mean/Fused_Mul__copy" version="0"/>
			</rt_info>
			<output>
				<port id="0" names="StatefulPartitionedCall/u_net_1/model_1/block_7_depthwise/depthwise/ReadVariableOp:0" precision="FP32">
					<dim>384</dim>
					<dim>1</dim>
					<dim>1</dim>
					<dim>3</dim>
					<dim>3</dim>
				</port>
			</output>
		</layer>
		<layer id="66" name="StatefulPartitionedCall/u_net_1/model_1/block_7_depthwise/depthwise" type="GroupConvolution" version="opset1">
			<data auto_pad="same_upper" dilations="1, 1" pads_begin="0, 0" pads_end="0, 0" strides="1, 1"/>
			<rt_info>
				<attribute name="fused_names" value="StatefulPartitionedCall/u_net_1/model_1/block_7_depthwise/depthwise" version="0"/>
			</rt_info>
			<input>
				<port id="0" precision="FP32">
					<dim>-1</dim>
					<dim>384</dim>
					<dim>40</dim>
					<dim>40</dim>
				</port>
				<port id="1" precision="FP32">
					<dim>384</dim>
					<dim>1</dim>
					<dim>1</dim>
					<dim>3</dim>
					<dim>3</dim>
				</port>
			</input>
			<output>
				<port id="2" names="StatefulPartitionedCall/u_net_1/model_1/block_7_depthwise_BN/FusedBatchNormV3:0" precision="FP32">
					<dim>-1</dim>
					<dim>384</dim>
					<dim>40</dim>
					<dim>40</dim>
				</port>
			</output>
		</layer>
		<layer id="67" name="StatefulPartitionedCall/u_net_1/model_1/block_7_depthwise_relu/Relu6" type="Clamp" version="opset1">
			<data max="6" min="0"/>
			<rt_info>
				<attribute name="fused_names" value="StatefulPartitionedCall/u_net_1/model_1/block_7_depthwise_relu/Relu6" version="0"/>
			</rt_info>
			<input>
				<port id="0" precision="FP32">
					<dim>-1</dim>
					<dim>384</dim>
					<dim>40</dim>
					<dim>40</dim>
				</port>
			</input>
			<output>
				<port id="1" names="StatefulPartitionedCall/u_net_1/model_1/block_7_depthwise_relu/Relu6:0" precision="FP32">
					<dim>-1</dim>
					<dim>384</dim>
					<dim>40</dim>
					<dim>40</dim>
				</port>
			</output>
		</layer>
		<layer id="68" name="StatefulPartitionedCall/u_net_1/model_1/block_7_project_BN/FusedBatchNormV3/mean/Fused_Mul__copy" type="Const" version="opset1">
			<data element_type="f32" offset="400672" shape="64, 384, 1, 1" size="98304"/>
			<rt_info>
				<attribute name="fused_names" value="StatefulPartitionedCall/u_net_1/model_1/block_7_project_BN/FusedBatchNormV3/mean/Fused_Mul__copy" version="0"/>
			</rt_info>
			<output>
				<port id="0" names="StatefulPartitionedCall/u_net_1/model_1/block_7_project/Conv2D/ReadVariableOp:0" precision="FP32">
					<dim>64</dim>
					<dim>384</dim>
					<dim>1</dim>
					<dim>1</dim>
				</port>
			</output>
		</layer>
		<layer id="69" name="StatefulPartitionedCall/u_net_1/model_1/block_7_project/Conv2D" type="Convolution" version="opset1">
			<data auto_pad="same_upper" dilations="1, 1" pads_begin="0, 0" pads_end="0, 0" strides="1, 1"/>
			<rt_info>
				<attribute name="fused_names" value="StatefulPartitionedCall/u_net_1/model_1/block_7_project/Conv2D" version="0"/>
			</rt_info>
			<input>
				<port id="0" precision="FP32">
					<dim>-1</dim>
					<dim>384</dim>
					<dim>40</dim>
					<dim>40</dim>
				</port>
				<port id="1" precision="FP32">
					<dim>64</dim>
					<dim>384</dim>
					<dim>1</dim>
					<dim>1</dim>
				</port>
			</input>
			<output>
				<port id="2" names="StatefulPartitionedCall/u_net_1/model_1/block_7_project_BN/FusedBatchNormV3:0" precision="FP32">
					<dim>-1</dim>
					<dim>64</dim>
					<dim>40</dim>
					<dim>40</dim>
				</port>
			</output>
		</layer>
		<layer id="70" name="StatefulPartitionedCall/u_net_1/model_1/block_7_add/add" type="Add" version="opset1">
			<data auto_broadcast="numpy"/>
			<rt_info>
				<attribute name="fused_names" value="StatefulPartitionedCall/u_net_1/model_1/block_7_add/add" version="0"/>
			</rt_info>
			<input>
				<port id="0" precision="FP32">
					<dim>-1</dim>
					<dim>64</dim>
					<dim>40</dim>
					<dim>40</dim>
				</port>
				<port id="1" precision="FP32">
					<dim>-1</dim>
					<dim>64</dim>
					<dim>40</dim>
					<dim>40</dim>
				</port>
			</input>
			<output>
				<port id="2" names="StatefulPartitionedCall/u_net_1/model_1/block_7_add/add:0" precision="FP32">
					<dim>-1</dim>
					<dim>64</dim>
					<dim>40</dim>
					<dim>40</dim>
				</port>
			</output>
		</layer>
		<layer id="71" name="StatefulPartitionedCall/u_net_1/model_1/block_8_expand_BN/FusedBatchNormV3/mean/Fused_Mul__copy" type="Const" version="opset1">
			<data element_type="f32" offset="498976" shape="384, 64, 1, 1" size="98304"/>
			<rt_info>
				<attribute name="fused_names" value="StatefulPartitionedCall/u_net_1/model_1/block_8_expand_BN/FusedBatchNormV3/mean/Fused_Mul__copy" version="0"/>
			</rt_info>
			<output>
				<port id="0" names="StatefulPartitionedCall/u_net_1/model_1/block_8_expand/Conv2D/ReadVariableOp:0" precision="FP32">
					<dim>384</dim>
					<dim>64</dim>
					<dim>1</dim>
					<dim>1</dim>
				</port>
			</output>
		</layer>
		<layer id="72" name="StatefulPartitionedCall/u_net_1/model_1/block_8_expand/Conv2D" type="Convolution" version="opset1">
			<data auto_pad="same_upper" dilations="1, 1" pads_begin="0, 0" pads_end="0, 0" strides="1, 1"/>
			<rt_info>
				<attribute name="fused_names" value="StatefulPartitionedCall/u_net_1/model_1/block_8_expand/Conv2D" version="0"/>
			</rt_info>
			<input>
				<port id="0" precision="FP32">
					<dim>-1</dim>
					<dim>64</dim>
					<dim>40</dim>
					<dim>40</dim>
				</port>
				<port id="1" precision="FP32">
					<dim>384</dim>
					<dim>64</dim>
					<dim>1</dim>
					<dim>1</dim>
				</port>
			</input>
			<output>
				<port id="2" names="StatefulPartitionedCall/u_net_1/model_1/block_8_expand_BN/FusedBatchNormV3:0" precision="FP32">
					<dim>-1</dim>
					<dim>384</dim>
					<dim>40</dim>
					<dim>40</dim>
				</port>
			</output>
		</layer>
		<layer id="73" name="StatefulPartitionedCall/u_net_1/model_1/block_8_expand_relu/Relu6" type="Clamp" version="opset1">
			<data max="6" min="0"/>
			<rt_info>
				<attribute name="fused_names" value="StatefulPartitionedCall/u_net_1/model_1/block_8_expand_relu/Relu6" version="0"/>
			</rt_info>
			<input>
				<port id="0" precision="FP32">
					<dim>-1</dim>
					<dim>384</dim>
					<dim>40</dim>
					<dim>40</dim>
				</port>
			</input>
			<output>
				<port id="1" names="StatefulPartitionedCall/u_net_1/model_1/block_8_expand_relu/Relu6:0" precision="FP32">
					<dim>-1</dim>
					<dim>384</dim>
					<dim>40</dim>
					<dim>40</dim>
				</port>
			</output>
		</layer>
		<layer id="74" name="StatefulPartitionedCall/u_net_1/model_1/block_8_depthwise_BN/FusedBatchNormV3/mean/Fused_Mul__copy" type="Const" version="opset1">
			<data element_type="f32" offset="597280" shape="384, 1, 1, 3, 3" size="13824"/>
			<rt_info>
				<attribute name="fused_names" value="StatefulPartitionedCall/u_net_1/model_1/block_8_depthwise_BN/FusedBatchNormV3/mean/Fused_Mul__copy" version="0"/>
			</rt_info>
			<output>
				<port id="0" names="StatefulPartitionedCall/u_net_1/model_1/block_8_depthwise/depthwise/ReadVariableOp:0" precision="FP32">
					<dim>384</dim>
					<dim>1</dim>
					<dim>1</dim>
					<dim>3</dim>
					<dim>3</dim>
				</port>
			</output>
		</layer>
		<layer id="75" name="StatefulPartitionedCall/u_net_1/model_1/block_8_depthwise/depthwise" type="GroupConvolution" version="opset1">
			<data auto_pad="same_upper" dilations="1, 1" pads_begin="0, 0" pads_end="0, 0" strides="1, 1"/>
			<rt_info>
				<attribute name="fused_names" value="StatefulPartitionedCall/u_net_1/model_1/block_8_depthwise/depthwise" version="0"/>
			</rt_info>
			<input>
				<port id="0" precision="FP32">
					<dim>-1</dim>
					<dim>384</dim>
					<dim>40</dim>
					<dim>40</dim>
				</port>
				<port id="1" precision="FP32">
					<dim>384</dim>
					<dim>1</dim>
					<dim>1</dim>
					<dim>3</dim>
					<dim>3</dim>
				</port>
			</input>
			<output>
				<port id="2" names="StatefulPartitionedCall/u_net_1/model_1/block_8_depthwise_BN/FusedBatchNormV3:0" precision="FP32">
					<dim>-1</dim>
					<dim>384</dim>
					<dim>40</dim>
					<dim>40</dim>
				</port>
			</output>
		</layer>
		<layer id="76" name="StatefulPartitionedCall/u_net_1/model_1/block_8_depthwise_relu/Relu6" type="Clamp" version="opset1">
			<data max="6" min="0"/>
			<rt_info>
				<attribute name="fused_names" value="StatefulPartitionedCall/u_net_1/model_1/block_8_depthwise_relu/Relu6" version="0"/>
			</rt_info>
			<input>
				<port id="0" precision="FP32">
					<dim>-1</dim>
					<dim>384</dim>
					<dim>40</dim>
					<dim>40</dim>
				</port>
			</input>
			<output>
				<port id="1" names="StatefulPartitionedCall/u_net_1/model_1/block_8_depthwise_relu/Relu6:0" precision="FP32">
					<dim>-1</dim>
					<dim>384</dim>
					<dim>40</dim>
					<dim>40</dim>
				</port>
			</output>
		</layer>
		<layer id="77" name="StatefulPartitionedCall/u_net_1/model_1/block_8_project_BN/FusedBatchNormV3/mean/Fused_Mul__copy" type="Const" version="opset1">
			<data element_type="f32" offset="611104" shape="64, 384, 1, 1" size="98304"/>
			<rt_info>
				<attribute name="fused_names" value="StatefulPartitionedCall/u_net_1/model_1/block_8_project_BN/FusedBatchNormV3/mean/Fused_Mul__copy" version="0"/>
			</rt_info>
			<output>
				<port id="0" names="StatefulPartitionedCall/u_net_1/model_1/block_8_project/Conv2D/ReadVariableOp:0" precision="FP32">
					<dim>64</dim>
					<dim>384</dim>
					<dim>1</dim>
					<dim>1</dim>
				</port>
			</output>
		</layer>
		<layer id="78" name="StatefulPartitionedCall/u_net_1/model_1/block_8_project/Conv2D" type="Convolution" version="opset1">
			<data auto_pad="same_upper" dilations="1, 1" pads_begin="0, 0" pads_end="0, 0" strides="1, 1"/>
			<rt_info>
				<attribute name="fused_names" value="StatefulPartitionedCall/u_net_1/model_1/block_8_project/Conv2D" version="0"/>
			</rt_info>
			<input>
				<port id="0" precision="FP32">
					<dim>-1</dim>
					<dim>384</dim>
					<dim>40</dim>
					<dim>40</dim>
				</port>
				<port id="1" precision="FP32">
					<dim>64</dim>
					<dim>384</dim>
					<dim>1</dim>
					<dim>1</dim>
				</port>
			</input>
			<output>
				<port id="2" names="StatefulPartitionedCall/u_net_1/model_1/block_8_project_BN/FusedBatchNormV3:0" precision="FP32">
					<dim>-1</dim>
					<dim>64</dim>
					<dim>40</dim>
					<dim>40</dim>
				</port>
			</output>
		</layer>
		<layer id="79" name="StatefulPartitionedCall/u_net_1/model_1/block_8_add/add" type="Add" version="opset1">
			<data auto_broadcast="numpy"/>
			<rt_info>
				<attribute name="fused_names" value="StatefulPartitionedCall/u_net_1/model_1/block_8_add/add" version="0"/>
			</rt_info>
			<input>
				<port id="0" precision="FP32">
					<dim>-1</dim>
					<dim>64</dim>
					<dim>40</dim>
					<dim>40</dim>
				</port>
				<port id="1" precision="FP32">
					<dim>-1</dim>
					<dim>64</dim>
					<dim>40</dim>
					<dim>40</dim>
				</port>
			</input>
			<output>
				<port id="2" names="StatefulPartitionedCall/u_net_1/model_1/block_8_add/add:0" precision="FP32">
					<dim>-1</dim>
					<dim>64</dim>
					<dim>40</dim>
					<dim>40</dim>
				</port>
			</output>
		</layer>
		<layer id="80" name="StatefulPartitionedCall/u_net_1/model_1/block_9_expand_BN/FusedBatchNormV3/mean/Fused_Mul__copy" type="Const" version="opset1">
			<data element_type="f32" offset="709408" shape="384, 64, 1, 1" size="98304"/>
			<rt_info>
				<attribute name="fused_names" value="StatefulPartitionedCall/u_net_1/model_1/block_9_expand_BN/FusedBatchNormV3/mean/Fused_Mul__copy" version="0"/>
			</rt_info>
			<output>
				<port id="0" names="StatefulPartitionedCall/u_net_1/model_1/block_9_expand/Conv2D/ReadVariableOp:0" precision="FP32">
					<dim>384</dim>
					<dim>64</dim>
					<dim>1</dim>
					<dim>1</dim>
				</port>
			</output>
		</layer>
		<layer id="81" name="StatefulPartitionedCall/u_net_1/model_1/block_9_expand/Conv2D" type="Convolution" version="opset1">
			<data auto_pad="same_upper" dilations="1, 1" pads_begin="0, 0" pads_end="0, 0" strides="1, 1"/>
			<rt_info>
				<attribute name="fused_names" value="StatefulPartitionedCall/u_net_1/model_1/block_9_expand/Conv2D" version="0"/>
			</rt_info>
			<input>
				<port id="0" precision="FP32">
					<dim>-1</dim>
					<dim>64</dim>
					<dim>40</dim>
					<dim>40</dim>
				</port>
				<port id="1" precision="FP32">
					<dim>384</dim>
					<dim>64</dim>
					<dim>1</dim>
					<dim>1</dim>
				</port>
			</input>
			<output>
				<port id="2" names="StatefulPartitionedCall/u_net_1/model_1/block_9_expand_BN/FusedBatchNormV3:0" precision="FP32">
					<dim>-1</dim>
					<dim>384</dim>
					<dim>40</dim>
					<dim>40</dim>
				</port>
			</output>
		</layer>
		<layer id="82" name="StatefulPartitionedCall/u_net_1/model_1/block_9_expand_relu/Relu6" type="Clamp" version="opset1">
			<data max="6" min="0"/>
			<rt_info>
				<attribute name="fused_names" value="StatefulPartitionedCall/u_net_1/model_1/block_9_expand_relu/Relu6" version="0"/>
			</rt_info>
			<input>
				<port id="0" precision="FP32">
					<dim>-1</dim>
					<dim>384</dim>
					<dim>40</dim>
					<dim>40</dim>
				</port>
			</input>
			<output>
				<port id="1" names="StatefulPartitionedCall/u_net_1/model_1/block_9_expand_relu/Relu6:0" precision="FP32">
					<dim>-1</dim>
					<dim>384</dim>
					<dim>40</dim>
					<dim>40</dim>
				</port>
			</output>
		</layer>
		<layer id="83" name="StatefulPartitionedCall/u_net_1/model_1/block_9_depthwise_BN/FusedBatchNormV3/mean/Fused_Mul__copy" type="Const" version="opset1">
			<data element_type="f32" offset="807712" shape="384, 1, 1, 3, 3" size="13824"/>
			<rt_info>
				<attribute name="fused_names" value="StatefulPartitionedCall/u_net_1/model_1/block_9_depthwise_BN/FusedBatchNormV3/mean/Fused_Mul__copy" version="0"/>
			</rt_info>
			<output>
				<port id="0" names="StatefulPartitionedCall/u_net_1/model_1/block_9_depthwise/depthwise/ReadVariableOp:0" precision="FP32">
					<dim>384</dim>
					<dim>1</dim>
					<dim>1</dim>
					<dim>3</dim>
					<dim>3</dim>
				</port>
			</output>
		</layer>
		<layer id="84" name="StatefulPartitionedCall/u_net_1/model_1/block_9_depthwise/depthwise" type="GroupConvolution" version="opset1">
			<data auto_pad="same_upper" dilations="1, 1" pads_begin="0, 0" pads_end="0, 0" strides="1, 1"/>
			<rt_info>
				<attribute name="fused_names" value="StatefulPartitionedCall/u_net_1/model_1/block_9_depthwise/depthwise" version="0"/>
			</rt_info>
			<input>
				<port id="0" precision="FP32">
					<dim>-1</dim>
					<dim>384</dim>
					<dim>40</dim>
					<dim>40</dim>
				</port>
				<port id="1" precision="FP32">
					<dim>384</dim>
					<dim>1</dim>
					<dim>1</dim>
					<dim>3</dim>
					<dim>3</dim>
				</port>
			</input>
			<output>
				<port id="2" names="StatefulPartitionedCall/u_net_1/model_1/block_9_depthwise_BN/FusedBatchNormV3:0" precision="FP32">
					<dim>-1</dim>
					<dim>384</dim>
					<dim>40</dim>
					<dim>40</dim>
				</port>
			</output>
		</layer>
		<layer id="85" name="StatefulPartitionedCall/u_net_1/model_1/block_9_depthwise_relu/Relu6" type="Clamp" version="opset1">
			<data max="6" min="0"/>
			<rt_info>
				<attribute name="fused_names" value="StatefulPartitionedCall/u_net_1/model_1/block_9_depthwise_relu/Relu6" version="0"/>
			</rt_info>
			<input>
				<port id="0" precision="FP32">
					<dim>-1</dim>
					<dim>384</dim>
					<dim>40</dim>
					<dim>40</dim>
				</port>
			</input>
			<output>
				<port id="1" names="StatefulPartitionedCall/u_net_1/model_1/block_9_depthwise_relu/Relu6:0" precision="FP32">
					<dim>-1</dim>
					<dim>384</dim>
					<dim>40</dim>
					<dim>40</dim>
				</port>
			</output>
		</layer>
		<layer id="86" name="StatefulPartitionedCall/u_net_1/model_1/block_9_project_BN/FusedBatchNormV3/mean/Fused_Mul__copy" type="Const" version="opset1">
			<data element_type="f32" offset="821536" shape="64, 384, 1, 1" size="98304"/>
			<rt_info>
				<attribute name="fused_names" value="StatefulPartitionedCall/u_net_1/model_1/block_9_project_BN/FusedBatchNormV3/mean/Fused_Mul__copy" version="0"/>
			</rt_info>
			<output>
				<port id="0" names="StatefulPartitionedCall/u_net_1/model_1/block_9_project/Conv2D/ReadVariableOp:0" precision="FP32">
					<dim>64</dim>
					<dim>384</dim>
					<dim>1</dim>
					<dim>1</dim>
				</port>
			</output>
		</layer>
		<layer id="87" name="StatefulPartitionedCall/u_net_1/model_1/block_9_project/Conv2D" type="Convolution" version="opset1">
			<data auto_pad="same_upper" dilations="1, 1" pads_begin="0, 0" pads_end="0, 0" strides="1, 1"/>
			<rt_info>
				<attribute name="fused_names" value="StatefulPartitionedCall/u_net_1/model_1/block_9_project/Conv2D" version="0"/>
			</rt_info>
			<input>
				<port id="0" precision="FP32">
					<dim>-1</dim>
					<dim>384</dim>
					<dim>40</dim>
					<dim>40</dim>
				</port>
				<port id="1" precision="FP32">
					<dim>64</dim>
					<dim>384</dim>
					<dim>1</dim>
					<dim>1</dim>
				</port>
			</input>
			<output>
				<port id="2" names="StatefulPartitionedCall/u_net_1/model_1/block_9_project_BN/FusedBatchNormV3:0" precision="FP32">
					<dim>-1</dim>
					<dim>64</dim>
					<dim>40</dim>
					<dim>40</dim>
				</port>
			</output>
		</layer>
		<layer id="88" name="StatefulPartitionedCall/u_net_1/model_1/block_9_add/add" type="Add" version="opset1">
			<data auto_broadcast="numpy"/>
			<rt_info>
				<attribute name="fused_names" value="StatefulPartitionedCall/u_net_1/model_1/block_9_add/add" version="0"/>
			</rt_info>
			<input>
				<port id="0" precision="FP32">
					<dim>-1</dim>
					<dim>64</dim>
					<dim>40</dim>
					<dim>40</dim>
				</port>
				<port id="1" precision="FP32">
					<dim>-1</dim>
					<dim>64</dim>
					<dim>40</dim>
					<dim>40</dim>
				</port>
			</input>
			<output>
				<port id="2" names="StatefulPartitionedCall/u_net_1/model_1/block_9_add/add:0" precision="FP32">
					<dim>-1</dim>
					<dim>64</dim>
					<dim>40</dim>
					<dim>40</dim>
				</port>
			</output>
		</layer>
		<layer id="89" name="StatefulPartitionedCall/u_net_1/model_1/block_10_expand_BN/FusedBatchNormV3/mean/Fused_Mul__copy" type="Const" version="opset1">
			<data element_type="f32" offset="919840" shape="384, 64, 1, 1" size="98304"/>
			<rt_info>
				<attribute name="fused_names" value="StatefulPartitionedCall/u_net_1/model_1/block_10_expand_BN/FusedBatchNormV3/mean/Fused_Mul__copy" version="0"/>
			</rt_info>
			<output>
				<port id="0" names="StatefulPartitionedCall/u_net_1/model_1/block_10_expand/Conv2D/ReadVariableOp:0" precision="FP32">
					<dim>384</dim>
					<dim>64</dim>
					<dim>1</dim>
					<dim>1</dim>
				</port>
			</output>
		</layer>
		<layer id="90" name="StatefulPartitionedCall/u_net_1/model_1/block_10_expand/Conv2D" type="Convolution" version="opset1">
			<data auto_pad="same_upper" dilations="1, 1" pads_begin="0, 0" pads_end="0, 0" strides="1, 1"/>
			<rt_info>
				<attribute name="fused_names" value="StatefulPartitionedCall/u_net_1/model_1/block_10_expand/Conv2D" version="0"/>
			</rt_info>
			<input>
				<port id="0" precision="FP32">
					<dim>-1</dim>
					<dim>64</dim>
					<dim>40</dim>
					<dim>40</dim>
				</port>
				<port id="1" precision="FP32">
					<dim>384</dim>
					<dim>64</dim>
					<dim>1</dim>
					<dim>1</dim>
				</port>
			</input>
			<output>
				<port id="2" names="StatefulPartitionedCall/u_net_1/model_1/block_10_expand_BN/FusedBatchNormV3:0" precision="FP32">
					<dim>-1</dim>
					<dim>384</dim>
					<dim>40</dim>
					<dim>40</dim>
				</port>
			</output>
		</layer>
		<layer id="91" name="StatefulPartitionedCall/u_net_1/model_1/block_10_expand_relu/Relu6" type="Clamp" version="opset1">
			<data max="6" min="0"/>
			<rt_info>
				<attribute name="fused_names" value="StatefulPartitionedCall/u_net_1/model_1/block_10_expand_relu/Relu6" version="0"/>
			</rt_info>
			<input>
				<port id="0" precision="FP32">
					<dim>-1</dim>
					<dim>384</dim>
					<dim>40</dim>
					<dim>40</dim>
				</port>
			</input>
			<output>
				<port id="1" names="StatefulPartitionedCall/u_net_1/model_1/block_10_expand_relu/Relu6:0" precision="FP32">
					<dim>-1</dim>
					<dim>384</dim>
					<dim>40</dim>
					<dim>40</dim>
				</port>
			</output>
		</layer>
		<layer id="92" name="StatefulPartitionedCall/u_net_1/model_1/block_10_depthwise_BN/FusedBatchNormV3/mean/Fused_Mul__copy" type="Const" version="opset1">
			<data element_type="f32" offset="1018144" shape="384, 1, 1, 3, 3" size="13824"/>
			<rt_info>
				<attribute name="fused_names" value="StatefulPartitionedCall/u_net_1/model_1/block_10_depthwise_BN/FusedBatchNormV3/mean/Fused_Mul__copy" version="0"/>
			</rt_info>
			<output>
				<port id="0" names="StatefulPartitionedCall/u_net_1/model_1/block_10_depthwise/depthwise/ReadVariableOp:0" precision="FP32">
					<dim>384</dim>
					<dim>1</dim>
					<dim>1</dim>
					<dim>3</dim>
					<dim>3</dim>
				</port>
			</output>
		</layer>
		<layer id="93" name="StatefulPartitionedCall/u_net_1/model_1/block_10_depthwise/depthwise" type="GroupConvolution" version="opset1">
			<data auto_pad="same_upper" dilations="1, 1" pads_begin="0, 0" pads_end="0, 0" strides="1, 1"/>
			<rt_info>
				<attribute name="fused_names" value="StatefulPartitionedCall/u_net_1/model_1/block_10_depthwise/depthwise" version="0"/>
			</rt_info>
			<input>
				<port id="0" precision="FP32">
					<dim>-1</dim>
					<dim>384</dim>
					<dim>40</dim>
					<dim>40</dim>
				</port>
				<port id="1" precision="FP32">
					<dim>384</dim>
					<dim>1</dim>
					<dim>1</dim>
					<dim>3</dim>
					<dim>3</dim>
				</port>
			</input>
			<output>
				<port id="2" names="StatefulPartitionedCall/u_net_1/model_1/block_10_depthwise_BN/FusedBatchNormV3:0" precision="FP32">
					<dim>-1</dim>
					<dim>384</dim>
					<dim>40</dim>
					<dim>40</dim>
				</port>
			</output>
		</layer>
		<layer id="94" name="StatefulPartitionedCall/u_net_1/model_1/block_10_depthwise_relu/Relu6" type="Clamp" version="opset1">
			<data max="6" min="0"/>
			<rt_info>
				<attribute name="fused_names" value="StatefulPartitionedCall/u_net_1/model_1/block_10_depthwise_relu/Relu6" version="0"/>
			</rt_info>
			<input>
				<port id="0" precision="FP32">
					<dim>-1</dim>
					<dim>384</dim>
					<dim>40</dim>
					<dim>40</dim>
				</port>
			</input>
			<output>
				<port id="1" names="StatefulPartitionedCall/u_net_1/model_1/block_10_depthwise_relu/Relu6:0" precision="FP32">
					<dim>-1</dim>
					<dim>384</dim>
					<dim>40</dim>
					<dim>40</dim>
				</port>
			</output>
		</layer>
		<layer id="95" name="StatefulPartitionedCall/u_net_1/model_1/block_10_project_BN/FusedBatchNormV3/mean/Fused_Mul__copy" type="Const" version="opset1">
			<data element_type="f32" offset="1031968" shape="96, 384, 1, 1" size="147456"/>
			<rt_info>
				<attribute name="fused_names" value="StatefulPartitionedCall/u_net_1/model_1/block_10_project_BN/FusedBatchNormV3/mean/Fused_Mul__copy" version="0"/>
			</rt_info>
			<output>
				<port id="0" names="StatefulPartitionedCall/u_net_1/model_1/block_10_project/Conv2D/ReadVariableOp:0" precision="FP32">
					<dim>96</dim>
					<dim>384</dim>
					<dim>1</dim>
					<dim>1</dim>
				</port>
			</output>
		</layer>
		<layer id="96" name="StatefulPartitionedCall/u_net_1/model_1/block_10_project/Conv2D" type="Convolution" version="opset1">
			<data auto_pad="same_upper" dilations="1, 1" pads_begin="0, 0" pads_end="0, 0" strides="1, 1"/>
			<rt_info>
				<attribute name="fused_names" value="StatefulPartitionedCall/u_net_1/model_1/block_10_project/Conv2D" version="0"/>
			</rt_info>
			<input>
				<port id="0" precision="FP32">
					<dim>-1</dim>
					<dim>384</dim>
					<dim>40</dim>
					<dim>40</dim>
				</port>
				<port id="1" precision="FP32">
					<dim>96</dim>
					<dim>384</dim>
					<dim>1</dim>
					<dim>1</dim>
				</port>
			</input>
			<output>
				<port id="2" names="StatefulPartitionedCall/u_net_1/model_1/block_10_project_BN/FusedBatchNormV3:0" precision="FP32">
					<dim>-1</dim>
					<dim>96</dim>
					<dim>40</dim>
					<dim>40</dim>
				</port>
			</output>
		</layer>
		<layer id="97" name="StatefulPartitionedCall/u_net_1/model_1/block_11_expand_BN/FusedBatchNormV3/mean/Fused_Mul__copy" type="Const" version="opset1">
			<data element_type="f32" offset="1179424" shape="576, 96, 1, 1" size="221184"/>
			<rt_info>
				<attribute name="fused_names" value="StatefulPartitionedCall/u_net_1/model_1/block_11_expand_BN/FusedBatchNormV3/mean/Fused_Mul__copy" version="0"/>
			</rt_info>
			<output>
				<port id="0" names="StatefulPartitionedCall/u_net_1/model_1/block_11_expand/Conv2D/ReadVariableOp:0" precision="FP32">
					<dim>576</dim>
					<dim>96</dim>
					<dim>1</dim>
					<dim>1</dim>
				</port>
			</output>
		</layer>
		<layer id="98" name="StatefulPartitionedCall/u_net_1/model_1/block_11_expand/Conv2D" type="Convolution" version="opset1">
			<data auto_pad="same_upper" dilations="1, 1" pads_begin="0, 0" pads_end="0, 0" strides="1, 1"/>
			<rt_info>
				<attribute name="fused_names" value="StatefulPartitionedCall/u_net_1/model_1/block_11_expand/Conv2D" version="0"/>
			</rt_info>
			<input>
				<port id="0" precision="FP32">
					<dim>-1</dim>
					<dim>96</dim>
					<dim>40</dim>
					<dim>40</dim>
				</port>
				<port id="1" precision="FP32">
					<dim>576</dim>
					<dim>96</dim>
					<dim>1</dim>
					<dim>1</dim>
				</port>
			</input>
			<output>
				<port id="2" names="StatefulPartitionedCall/u_net_1/model_1/block_11_expand_BN/FusedBatchNormV3:0" precision="FP32">
					<dim>-1</dim>
					<dim>576</dim>
					<dim>40</dim>
					<dim>40</dim>
				</port>
			</output>
		</layer>
		<layer id="99" name="StatefulPartitionedCall/u_net_1/model_1/block_11_expand_relu/Relu6" type="Clamp" version="opset1">
			<data max="6" min="0"/>
			<rt_info>
				<attribute name="fused_names" value="StatefulPartitionedCall/u_net_1/model_1/block_11_expand_relu/Relu6" version="0"/>
			</rt_info>
			<input>
				<port id="0" precision="FP32">
					<dim>-1</dim>
					<dim>576</dim>
					<dim>40</dim>
					<dim>40</dim>
				</port>
			</input>
			<output>
				<port id="1" names="StatefulPartitionedCall/u_net_1/model_1/block_11_expand_relu/Relu6:0" precision="FP32">
					<dim>-1</dim>
					<dim>576</dim>
					<dim>40</dim>
					<dim>40</dim>
				</port>
			</output>
		</layer>
		<layer id="100" name="StatefulPartitionedCall/u_net_1/model_1/block_11_depthwise_BN/FusedBatchNormV3/mean/Fused_Mul__copy" type="Const" version="opset1">
			<data element_type="f32" offset="1400608" shape="576, 1, 1, 3, 3" size="20736"/>
			<rt_info>
				<attribute name="fused_names" value="StatefulPartitionedCall/u_net_1/model_1/block_11_depthwise_BN/FusedBatchNormV3/mean/Fused_Mul__copy" version="0"/>
			</rt_info>
			<output>
				<port id="0" names="StatefulPartitionedCall/u_net_1/model_1/block_11_depthwise/depthwise/ReadVariableOp:0" precision="FP32">
					<dim>576</dim>
					<dim>1</dim>
					<dim>1</dim>
					<dim>3</dim>
					<dim>3</dim>
				</port>
			</output>
		</layer>
		<layer id="101" name="StatefulPartitionedCall/u_net_1/model_1/block_11_depthwise/depthwise" type="GroupConvolution" version="opset1">
			<data auto_pad="same_upper" dilations="1, 1" pads_begin="0, 0" pads_end="0, 0" strides="1, 1"/>
			<rt_info>
				<attribute name="fused_names" value="StatefulPartitionedCall/u_net_1/model_1/block_11_depthwise/depthwise" version="0"/>
			</rt_info>
			<input>
				<port id="0" precision="FP32">
					<dim>-1</dim>
					<dim>576</dim>
					<dim>40</dim>
					<dim>40</dim>
				</port>
				<port id="1" precision="FP32">
					<dim>576</dim>
					<dim>1</dim>
					<dim>1</dim>
					<dim>3</dim>
					<dim>3</dim>
				</port>
			</input>
			<output>
				<port id="2" names="StatefulPartitionedCall/u_net_1/model_1/block_11_depthwise_BN/FusedBatchNormV3:0" precision="FP32">
					<dim>-1</dim>
					<dim>576</dim>
					<dim>40</dim>
					<dim>40</dim>
				</port>
			</output>
		</layer>
		<layer id="102" name="StatefulPartitionedCall/u_net_1/model_1/block_11_depthwise_relu/Relu6" type="Clamp" version="opset1">
			<data max="6" min="0"/>
			<rt_info>
				<attribute name="fused_names" value="StatefulPartitionedCall/u_net_1/model_1/block_11_depthwise_relu/Relu6" version="0"/>
			</rt_info>
			<input>
				<port id="0" precision="FP32">
					<dim>-1</dim>
					<dim>576</dim>
					<dim>40</dim>
					<dim>40</dim>
				</port>
			</input>
			<output>
				<port id="1" names="StatefulPartitionedCall/u_net_1/model_1/block_11_depthwise_relu/Relu6:0" precision="FP32">
					<dim>-1</dim>
					<dim>576</dim>
					<dim>40</dim>
					<dim>40</dim>
				</port>
			</output>
		</layer>
		<layer id="103" name="StatefulPartitionedCall/u_net_1/model_1/block_11_project_BN/FusedBatchNormV3/mean/Fused_Mul__copy" type="Const" version="opset1">
			<data element_type="f32" offset="1421344" shape="96, 576, 1, 1" size="221184"/>
			<rt_info>
				<attribute name="fused_names" value="StatefulPartitionedCall/u_net_1/model_1/block_11_project_BN/FusedBatchNormV3/mean/Fused_Mul__copy" version="0"/>
			</rt_info>
			<output>
				<port id="0" names="StatefulPartitionedCall/u_net_1/model_1/block_11_project/Conv2D/ReadVariableOp:0" precision="FP32">
					<dim>96</dim>
					<dim>576</dim>
					<dim>1</dim>
					<dim>1</dim>
				</port>
			</output>
		</layer>
		<layer id="104" name="StatefulPartitionedCall/u_net_1/model_1/block_11_project/Conv2D" type="Convolution" version="opset1">
			<data auto_pad="same_upper" dilations="1, 1" pads_begin="0, 0" pads_end="0, 0" strides="1, 1"/>
			<rt_info>
				<attribute name="fused_names" value="StatefulPartitionedCall/u_net_1/model_1/block_11_project/Conv2D" version="0"/>
			</rt_info>
			<input>
				<port id="0" precision="FP32">
					<dim>-1</dim>
					<dim>576</dim>
					<dim>40</dim>
					<dim>40</dim>
				</port>
				<port id="1" precision="FP32">
					<dim>96</dim>
					<dim>576</dim>
					<dim>1</dim>
					<dim>1</dim>
				</port>
			</input>
			<output>
				<port id="2" names="StatefulPartitionedCall/u_net_1/model_1/block_11_project_BN/FusedBatchNormV3:0" precision="FP32">
					<dim>-1</dim>
					<dim>96</dim>
					<dim>40</dim>
					<dim>40</dim>
				</port>
			</output>
		</layer>
		<layer id="105" name="StatefulPartitionedCall/u_net_1/model_1/block_11_add/add" type="Add" version="opset1">
			<data auto_broadcast="numpy"/>
			<rt_info>
				<attribute name="fused_names" value="StatefulPartitionedCall/u_net_1/model_1/block_11_add/add" version="0"/>
			</rt_info>
			<input>
				<port id="0" precision="FP32">
					<dim>-1</dim>
					<dim>96</dim>
					<dim>40</dim>
					<dim>40</dim>
				</port>
				<port id="1" precision="FP32">
					<dim>-1</dim>
					<dim>96</dim>
					<dim>40</dim>
					<dim>40</dim>
				</port>
			</input>
			<output>
				<port id="2" names="StatefulPartitionedCall/u_net_1/model_1/block_11_add/add:0" precision="FP32">
					<dim>-1</dim>
					<dim>96</dim>
					<dim>40</dim>
					<dim>40</dim>
				</port>
			</output>
		</layer>
		<layer id="106" name="StatefulPartitionedCall/u_net_1/model_1/block_12_expand_BN/FusedBatchNormV3/mean/Fused_Mul__copy" type="Const" version="opset1">
			<data element_type="f32" offset="1642528" shape="576, 96, 1, 1" size="221184"/>
			<rt_info>
				<attribute name="fused_names" value="StatefulPartitionedCall/u_net_1/model_1/block_12_expand_BN/FusedBatchNormV3/mean/Fused_Mul__copy" version="0"/>
			</rt_info>
			<output>
				<port id="0" names="StatefulPartitionedCall/u_net_1/model_1/block_12_expand/Conv2D/ReadVariableOp:0" precision="FP32">
					<dim>576</dim>
					<dim>96</dim>
					<dim>1</dim>
					<dim>1</dim>
				</port>
			</output>
		</layer>
		<layer id="107" name="StatefulPartitionedCall/u_net_1/model_1/block_12_expand/Conv2D" type="Convolution" version="opset1">
			<data auto_pad="same_upper" dilations="1, 1" pads_begin="0, 0" pads_end="0, 0" strides="1, 1"/>
			<rt_info>
				<attribute name="fused_names" value="StatefulPartitionedCall/u_net_1/model_1/block_12_expand/Conv2D" version="0"/>
			</rt_info>
			<input>
				<port id="0" precision="FP32">
					<dim>-1</dim>
					<dim>96</dim>
					<dim>40</dim>
					<dim>40</dim>
				</port>
				<port id="1" precision="FP32">
					<dim>576</dim>
					<dim>96</dim>
					<dim>1</dim>
					<dim>1</dim>
				</port>
			</input>
			<output>
				<port id="2" names="StatefulPartitionedCall/u_net_1/model_1/block_12_expand_BN/FusedBatchNormV3:0" precision="FP32">
					<dim>-1</dim>
					<dim>576</dim>
					<dim>40</dim>
					<dim>40</dim>
				</port>
			</output>
		</layer>
		<layer id="108" name="StatefulPartitionedCall/u_net_1/model_1/block_12_expand_relu/Relu6" type="Clamp" version="opset1">
			<data max="6" min="0"/>
			<rt_info>
				<attribute name="fused_names" value="StatefulPartitionedCall/u_net_1/model_1/block_12_expand_relu/Relu6" version="0"/>
			</rt_info>
			<input>
				<port id="0" precision="FP32">
					<dim>-1</dim>
					<dim>576</dim>
					<dim>40</dim>
					<dim>40</dim>
				</port>
			</input>
			<output>
				<port id="1" names="StatefulPartitionedCall/u_net_1/model_1/block_12_expand_relu/Relu6:0" precision="FP32">
					<dim>-1</dim>
					<dim>576</dim>
					<dim>40</dim>
					<dim>40</dim>
				</port>
			</output>
		</layer>
		<layer id="109" name="StatefulPartitionedCall/u_net_1/model_1/block_12_depthwise_BN/FusedBatchNormV3/mean/Fused_Mul__copy" type="Const" version="opset1">
			<data element_type="f32" offset="1863712" shape="576, 1, 1, 3, 3" size="20736"/>
			<rt_info>
				<attribute name="fused_names" value="StatefulPartitionedCall/u_net_1/model_1/block_12_depthwise_BN/FusedBatchNormV3/mean/Fused_Mul__copy" version="0"/>
			</rt_info>
			<output>
				<port id="0" names="StatefulPartitionedCall/u_net_1/model_1/block_12_depthwise/depthwise/ReadVariableOp:0" precision="FP32">
					<dim>576</dim>
					<dim>1</dim>
					<dim>1</dim>
					<dim>3</dim>
					<dim>3</dim>
				</port>
			</output>
		</layer>
		<layer id="110" name="StatefulPartitionedCall/u_net_1/model_1/block_12_depthwise/depthwise" type="GroupConvolution" version="opset1">
			<data auto_pad="same_upper" dilations="1, 1" pads_begin="0, 0" pads_end="0, 0" strides="1, 1"/>
			<rt_info>
				<attribute name="fused_names" value="StatefulPartitionedCall/u_net_1/model_1/block_12_depthwise/depthwise" version="0"/>
			</rt_info>
			<input>
				<port id="0" precision="FP32">
					<dim>-1</dim>
					<dim>576</dim>
					<dim>40</dim>
					<dim>40</dim>
				</port>
				<port id="1" precision="FP32">
					<dim>576</dim>
					<dim>1</dim>
					<dim>1</dim>
					<dim>3</dim>
					<dim>3</dim>
				</port>
			</input>
			<output>
				<port id="2" names="StatefulPartitionedCall/u_net_1/model_1/block_12_depthwise_BN/FusedBatchNormV3:0" precision="FP32">
					<dim>-1</dim>
					<dim>576</dim>
					<dim>40</dim>
					<dim>40</dim>
				</port>
			</output>
		</layer>
		<layer id="111" name="StatefulPartitionedCall/u_net_1/model_1/block_12_depthwise_relu/Relu6" type="Clamp" version="opset1">
			<data max="6" min="0"/>
			<rt_info>
				<attribute name="fused_names" value="StatefulPartitionedCall/u_net_1/model_1/block_12_depthwise_relu/Relu6" version="0"/>
			</rt_info>
			<input>
				<port id="0" precision="FP32">
					<dim>-1</dim>
					<dim>576</dim>
					<dim>40</dim>
					<dim>40</dim>
				</port>
			</input>
			<output>
				<port id="1" names="StatefulPartitionedCall/u_net_1/model_1/block_12_depthwise_relu/Relu6:0" precision="FP32">
					<dim>-1</dim>
					<dim>576</dim>
					<dim>40</dim>
					<dim>40</dim>
				</port>
			</output>
		</layer>
		<layer id="112" name="StatefulPartitionedCall/u_net_1/model_1/block_12_project_BN/FusedBatchNormV3/mean/Fused_Mul__copy" type="Const" version="opset1">
			<data element_type="f32" offset="1884448" shape="96, 576, 1, 1" size="221184"/>
			<rt_info>
				<attribute name="fused_names" value="StatefulPartitionedCall/u_net_1/model_1/block_12_project_BN/FusedBatchNormV3/mean/Fused_Mul__copy" version="0"/>
			</rt_info>
			<output>
				<port id="0" names="StatefulPartitionedCall/u_net_1/model_1/block_12_project/Conv2D/ReadVariableOp:0" precision="FP32">
					<dim>96</dim>
					<dim>576</dim>
					<dim>1</dim>
					<dim>1</dim>
				</port>
			</output>
		</layer>
		<layer id="113" name="StatefulPartitionedCall/u_net_1/model_1/block_12_project/Conv2D" type="Convolution" version="opset1">
			<data auto_pad="same_upper" dilations="1, 1" pads_begin="0, 0" pads_end="0, 0" strides="1, 1"/>
			<rt_info>
				<attribute name="fused_names" value="StatefulPartitionedCall/u_net_1/model_1/block_12_project/Conv2D" version="0"/>
			</rt_info>
			<input>
				<port id="0" precision="FP32">
					<dim>-1</dim>
					<dim>576</dim>
					<dim>40</dim>
					<dim>40</dim>
				</port>
				<port id="1" precision="FP32">
					<dim>96</dim>
					<dim>576</dim>
					<dim>1</dim>
					<dim>1</dim>
				</port>
			</input>
			<output>
				<port id="2" names="StatefulPartitionedCall/u_net_1/model_1/block_12_project_BN/FusedBatchNormV3:0" precision="FP32">
					<dim>-1</dim>
					<dim>96</dim>
					<dim>40</dim>
					<dim>40</dim>
				</port>
			</output>
		</layer>
		<layer id="114" name="StatefulPartitionedCall/u_net_1/model_1/block_12_add/add" type="Add" version="opset1">
			<data auto_broadcast="numpy"/>
			<rt_info>
				<attribute name="fused_names" value="StatefulPartitionedCall/u_net_1/model_1/block_12_add/add" version="0"/>
			</rt_info>
			<input>
				<port id="0" precision="FP32">
					<dim>-1</dim>
					<dim>96</dim>
					<dim>40</dim>
					<dim>40</dim>
				</port>
				<port id="1" precision="FP32">
					<dim>-1</dim>
					<dim>96</dim>
					<dim>40</dim>
					<dim>40</dim>
				</port>
			</input>
			<output>
				<port id="2" names="StatefulPartitionedCall/u_net_1/model_1/block_12_add/add:0" precision="FP32">
					<dim>-1</dim>
					<dim>96</dim>
					<dim>40</dim>
					<dim>40</dim>
				</port>
			</output>
		</layer>
		<layer id="115" name="StatefulPartitionedCall/u_net_1/model_1/block_13_expand_BN/FusedBatchNormV3/mean/Fused_Mul__copy" type="Const" version="opset1">
			<data element_type="f32" offset="2105632" shape="576, 96, 1, 1" size="221184"/>
			<rt_info>
				<attribute name="fused_names" value="StatefulPartitionedCall/u_net_1/model_1/block_13_expand_BN/FusedBatchNormV3/mean/Fused_Mul__copy" version="0"/>
			</rt_info>
			<output>
				<port id="0" names="StatefulPartitionedCall/u_net_1/model_1/block_13_expand/Conv2D/ReadVariableOp:0" precision="FP32">
					<dim>576</dim>
					<dim>96</dim>
					<dim>1</dim>
					<dim>1</dim>
				</port>
			</output>
		</layer>
		<layer id="116" name="StatefulPartitionedCall/u_net_1/model_1/block_13_expand/Conv2D" type="Convolution" version="opset1">
			<data auto_pad="same_upper" dilations="1, 1" pads_begin="0, 0" pads_end="0, 0" strides="1, 1"/>
			<rt_info>
				<attribute name="fused_names" value="StatefulPartitionedCall/u_net_1/model_1/block_13_expand/Conv2D" version="0"/>
			</rt_info>
			<input>
				<port id="0" precision="FP32">
					<dim>-1</dim>
					<dim>96</dim>
					<dim>40</dim>
					<dim>40</dim>
				</port>
				<port id="1" precision="FP32">
					<dim>576</dim>
					<dim>96</dim>
					<dim>1</dim>
					<dim>1</dim>
				</port>
			</input>
			<output>
				<port id="2" names="StatefulPartitionedCall/u_net_1/model_1/block_13_expand_BN/FusedBatchNormV3:0" precision="FP32">
					<dim>-1</dim>
					<dim>576</dim>
					<dim>40</dim>
					<dim>40</dim>
				</port>
			</output>
		</layer>
		<layer id="117" name="StatefulPartitionedCall/u_net_1/model_1/block_13_expand_relu/Relu6" type="Clamp" version="opset1">
			<data max="6" min="0"/>
			<rt_info>
				<attribute name="fused_names" value="StatefulPartitionedCall/u_net_1/model_1/block_13_expand_relu/Relu6" version="0"/>
			</rt_info>
			<input>
				<port id="0" precision="FP32">
					<dim>-1</dim>
					<dim>576</dim>
					<dim>40</dim>
					<dim>40</dim>
				</port>
			</input>
			<output>
				<port id="1" names="StatefulPartitionedCall/u_net_1/model_1/block_13_expand_relu/Relu6:0" precision="FP32">
					<dim>-1</dim>
					<dim>576</dim>
					<dim>40</dim>
					<dim>40</dim>
				</port>
			</output>
		</layer>
		<layer id="118" name="StatefulPartitionedCall/u_net_1/model_1/block_13_depthwise_BN/FusedBatchNormV3/mean/Fused_Mul__copy" type="Const" version="opset1">
			<data element_type="f32" offset="2326816" shape="576, 1, 1, 3, 3" size="20736"/>
			<rt_info>
				<attribute name="fused_names" value="StatefulPartitionedCall/u_net_1/model_1/block_13_depthwise_BN/FusedBatchNormV3/mean/Fused_Mul__copy" version="0"/>
			</rt_info>
			<output>
				<port id="0" names="StatefulPartitionedCall/u_net_1/model_1/block_13_depthwise/depthwise/ReadVariableOp:0" precision="FP32">
					<dim>576</dim>
					<dim>1</dim>
					<dim>1</dim>
					<dim>3</dim>
					<dim>3</dim>
				</port>
			</output>
		</layer>
		<layer id="119" name="StatefulPartitionedCall/u_net_1/model_1/block_13_depthwise/depthwise" type="GroupConvolution" version="opset1">
			<data auto_pad="explicit" dilations="1, 1" pads_begin="0, 0" pads_end="1, 1" strides="2, 2"/>
			<rt_info>
				<attribute name="fused_names" value="StatefulPartitionedCall/u_net_1/model_1/block_13_depthwise/depthwise, StatefulPartitionedCall/u_net_1/model_1/block_13_pad/Pad" version="0"/>
			</rt_info>
			<input>
				<port id="0" precision="FP32">
					<dim>-1</dim>
					<dim>576</dim>
					<dim>40</dim>
					<dim>40</dim>
				</port>
				<port id="1" precision="FP32">
					<dim>576</dim>
					<dim>1</dim>
					<dim>1</dim>
					<dim>3</dim>
					<dim>3</dim>
				</port>
			</input>
			<output>
				<port id="2" names="StatefulPartitionedCall/u_net_1/model_1/block_13_depthwise_BN/FusedBatchNormV3:0" precision="FP32">
					<dim>-1</dim>
					<dim>576</dim>
					<dim>20</dim>
					<dim>20</dim>
				</port>
			</output>
		</layer>
		<layer id="120" name="StatefulPartitionedCall/u_net_1/model_1/block_13_depthwise_relu/Relu6" type="Clamp" version="opset1">
			<data max="6" min="0"/>
			<rt_info>
				<attribute name="fused_names" value="StatefulPartitionedCall/u_net_1/model_1/block_13_depthwise_relu/Relu6" version="0"/>
			</rt_info>
			<input>
				<port id="0" precision="FP32">
					<dim>-1</dim>
					<dim>576</dim>
					<dim>20</dim>
					<dim>20</dim>
				</port>
			</input>
			<output>
				<port id="1" names="StatefulPartitionedCall/u_net_1/model_1/block_13_depthwise_relu/Relu6:0" precision="FP32">
					<dim>-1</dim>
					<dim>576</dim>
					<dim>20</dim>
					<dim>20</dim>
				</port>
			</output>
		</layer>
		<layer id="121" name="StatefulPartitionedCall/u_net_1/model_1/block_13_project_BN/FusedBatchNormV3/mean/Fused_Mul__copy" type="Const" version="opset1">
			<data element_type="f32" offset="2347552" shape="160, 576, 1, 1" size="368640"/>
			<rt_info>
				<attribute name="fused_names" value="StatefulPartitionedCall/u_net_1/model_1/block_13_project_BN/FusedBatchNormV3/mean/Fused_Mul__copy" version="0"/>
			</rt_info>
			<output>
				<port id="0" names="StatefulPartitionedCall/u_net_1/model_1/block_13_project/Conv2D/ReadVariableOp:0" precision="FP32">
					<dim>160</dim>
					<dim>576</dim>
					<dim>1</dim>
					<dim>1</dim>
				</port>
			</output>
		</layer>
		<layer id="122" name="StatefulPartitionedCall/u_net_1/model_1/block_13_project/Conv2D" type="Convolution" version="opset1">
			<data auto_pad="same_upper" dilations="1, 1" pads_begin="0, 0" pads_end="0, 0" strides="1, 1"/>
			<rt_info>
				<attribute name="fused_names" value="StatefulPartitionedCall/u_net_1/model_1/block_13_project/Conv2D" version="0"/>
			</rt_info>
			<input>
				<port id="0" precision="FP32">
					<dim>-1</dim>
					<dim>576</dim>
					<dim>20</dim>
					<dim>20</dim>
				</port>
				<port id="1" precision="FP32">
					<dim>160</dim>
					<dim>576</dim>
					<dim>1</dim>
					<dim>1</dim>
				</port>
			</input>
			<output>
				<port id="2" names="StatefulPartitionedCall/u_net_1/model_1/block_13_project_BN/FusedBatchNormV3:0" precision="FP32">
					<dim>-1</dim>
					<dim>160</dim>
					<dim>20</dim>
					<dim>20</dim>
				</port>
			</output>
		</layer>
		<layer id="123" name="StatefulPartitionedCall/u_net_1/model_1/block_14_expand_BN/FusedBatchNormV3/mean/Fused_Mul__copy" type="Const" version="opset1">
			<data element_type="f32" offset="2716192" shape="960, 160, 1, 1" size="614400"/>
			<rt_info>
				<attribute name="fused_names" value="StatefulPartitionedCall/u_net_1/model_1/block_14_expand_BN/FusedBatchNormV3/mean/Fused_Mul__copy" version="0"/>
			</rt_info>
			<output>
				<port id="0" names="StatefulPartitionedCall/u_net_1/model_1/block_14_expand/Conv2D/ReadVariableOp:0" precision="FP32">
					<dim>960</dim>
					<dim>160</dim>
					<dim>1</dim>
					<dim>1</dim>
				</port>
			</output>
		</layer>
		<layer id="124" name="StatefulPartitionedCall/u_net_1/model_1/block_14_expand/Conv2D" type="Convolution" version="opset1">
			<data auto_pad="same_upper" dilations="1, 1" pads_begin="0, 0" pads_end="0, 0" strides="1, 1"/>
			<rt_info>
				<attribute name="fused_names" value="StatefulPartitionedCall/u_net_1/model_1/block_14_expand/Conv2D" version="0"/>
			</rt_info>
			<input>
				<port id="0" precision="FP32">
					<dim>-1</dim>
					<dim>160</dim>
					<dim>20</dim>
					<dim>20</dim>
				</port>
				<port id="1" precision="FP32">
					<dim>960</dim>
					<dim>160</dim>
					<dim>1</dim>
					<dim>1</dim>
				</port>
			</input>
			<output>
				<port id="2" names="StatefulPartitionedCall/u_net_1/model_1/block_14_expand_BN/FusedBatchNormV3:0" precision="FP32">
					<dim>-1</dim>
					<dim>960</dim>
					<dim>20</dim>
					<dim>20</dim>
				</port>
			</output>
		</layer>
		<layer id="125" name="StatefulPartitionedCall/u_net_1/model_1/block_14_expand_relu/Relu6" type="Clamp" version="opset1">
			<data max="6" min="0"/>
			<rt_info>
				<attribute name="fused_names" value="StatefulPartitionedCall/u_net_1/model_1/block_14_expand_relu/Relu6" version="0"/>
			</rt_info>
			<input>
				<port id="0" precision="FP32">
					<dim>-1</dim>
					<dim>960</dim>
					<dim>20</dim>
					<dim>20</dim>
				</port>
			</input>
			<output>
				<port id="1" names="StatefulPartitionedCall/u_net_1/model_1/block_14_expand_relu/Relu6:0" precision="FP32">
					<dim>-1</dim>
					<dim>960</dim>
					<dim>20</dim>
					<dim>20</dim>
				</port>
			</output>
		</layer>
		<layer id="126" name="StatefulPartitionedCall/u_net_1/model_1/block_14_depthwise_BN/FusedBatchNormV3/mean/Fused_Mul__copy" type="Const" version="opset1">
			<data element_type="f32" offset="3330592" shape="960, 1, 1, 3, 3" size="34560"/>
			<rt_info>
				<attribute name="fused_names" value="StatefulPartitionedCall/u_net_1/model_1/block_14_depthwise_BN/FusedBatchNormV3/mean/Fused_Mul__copy" version="0"/>
			</rt_info>
			<output>
				<port id="0" names="StatefulPartitionedCall/u_net_1/model_1/block_14_depthwise/depthwise/ReadVariableOp:0" precision="FP32">
					<dim>960</dim>
					<dim>1</dim>
					<dim>1</dim>
					<dim>3</dim>
					<dim>3</dim>
				</port>
			</output>
		</layer>
		<layer id="127" name="StatefulPartitionedCall/u_net_1/model_1/block_14_depthwise/depthwise" type="GroupConvolution" version="opset1">
			<data auto_pad="same_upper" dilations="1, 1" pads_begin="0, 0" pads_end="0, 0" strides="1, 1"/>
			<rt_info>
				<attribute name="fused_names" value="StatefulPartitionedCall/u_net_1/model_1/block_14_depthwise/depthwise" version="0"/>
			</rt_info>
			<input>
				<port id="0" precision="FP32">
					<dim>-1</dim>
					<dim>960</dim>
					<dim>20</dim>
					<dim>20</dim>
				</port>
				<port id="1" precision="FP32">
					<dim>960</dim>
					<dim>1</dim>
					<dim>1</dim>
					<dim>3</dim>
					<dim>3</dim>
				</port>
			</input>
			<output>
				<port id="2" names="StatefulPartitionedCall/u_net_1/model_1/block_14_depthwise_BN/FusedBatchNormV3:0" precision="FP32">
					<dim>-1</dim>
					<dim>960</dim>
					<dim>20</dim>
					<dim>20</dim>
				</port>
			</output>
		</layer>
		<layer id="128" name="StatefulPartitionedCall/u_net_1/model_1/block_14_depthwise_relu/Relu6" type="Clamp" version="opset1">
			<data max="6" min="0"/>
			<rt_info>
				<attribute name="fused_names" value="StatefulPartitionedCall/u_net_1/model_1/block_14_depthwise_relu/Relu6" version="0"/>
			</rt_info>
			<input>
				<port id="0" precision="FP32">
					<dim>-1</dim>
					<dim>960</dim>
					<dim>20</dim>
					<dim>20</dim>
				</port>
			</input>
			<output>
				<port id="1" names="StatefulPartitionedCall/u_net_1/model_1/block_14_depthwise_relu/Relu6:0" precision="FP32">
					<dim>-1</dim>
					<dim>960</dim>
					<dim>20</dim>
					<dim>20</dim>
				</port>
			</output>
		</layer>
		<layer id="129" name="StatefulPartitionedCall/u_net_1/model_1/block_14_project_BN/FusedBatchNormV3/mean/Fused_Mul__copy" type="Const" version="opset1">
			<data element_type="f32" offset="3365152" shape="160, 960, 1, 1" size="614400"/>
			<rt_info>
				<attribute name="fused_names" value="StatefulPartitionedCall/u_net_1/model_1/block_14_project_BN/FusedBatchNormV3/mean/Fused_Mul__copy" version="0"/>
			</rt_info>
			<output>
				<port id="0" names="StatefulPartitionedCall/u_net_1/model_1/block_14_project/Conv2D/ReadVariableOp:0" precision="FP32">
					<dim>160</dim>
					<dim>960</dim>
					<dim>1</dim>
					<dim>1</dim>
				</port>
			</output>
		</layer>
		<layer id="130" name="StatefulPartitionedCall/u_net_1/model_1/block_14_project/Conv2D" type="Convolution" version="opset1">
			<data auto_pad="same_upper" dilations="1, 1" pads_begin="0, 0" pads_end="0, 0" strides="1, 1"/>
			<rt_info>
				<attribute name="fused_names" value="StatefulPartitionedCall/u_net_1/model_1/block_14_project/Conv2D" version="0"/>
			</rt_info>
			<input>
				<port id="0" precision="FP32">
					<dim>-1</dim>
					<dim>960</dim>
					<dim>20</dim>
					<dim>20</dim>
				</port>
				<port id="1" precision="FP32">
					<dim>160</dim>
					<dim>960</dim>
					<dim>1</dim>
					<dim>1</dim>
				</port>
			</input>
			<output>
				<port id="2" names="StatefulPartitionedCall/u_net_1/model_1/block_14_project_BN/FusedBatchNormV3:0" precision="FP32">
					<dim>-1</dim>
					<dim>160</dim>
					<dim>20</dim>
					<dim>20</dim>
				</port>
			</output>
		</layer>
		<layer id="131" name="StatefulPartitionedCall/u_net_1/model_1/block_14_add/add" type="Add" version="opset1">
			<data auto_broadcast="numpy"/>
			<rt_info>
				<attribute name="fused_names" value="StatefulPartitionedCall/u_net_1/model_1/block_14_add/add" version="0"/>
			</rt_info>
			<input>
				<port id="0" precision="FP32">
					<dim>-1</dim>
					<dim>160</dim>
					<dim>20</dim>
					<dim>20</dim>
				</port>
				<port id="1" precision="FP32">
					<dim>-1</dim>
					<dim>160</dim>
					<dim>20</dim>
					<dim>20</dim>
				</port>
			</input>
			<output>
				<port id="2" names="StatefulPartitionedCall/u_net_1/model_1/block_14_add/add:0" precision="FP32">
					<dim>-1</dim>
					<dim>160</dim>
					<dim>20</dim>
					<dim>20</dim>
				</port>
			</output>
		</layer>
		<layer id="132" name="StatefulPartitionedCall/u_net_1/model_1/block_15_expand_BN/FusedBatchNormV3/mean/Fused_Mul__copy" type="Const" version="opset1">
			<data element_type="f32" offset="3979552" shape="960, 160, 1, 1" size="614400"/>
			<rt_info>
				<attribute name="fused_names" value="StatefulPartitionedCall/u_net_1/model_1/block_15_expand_BN/FusedBatchNormV3/mean/Fused_Mul__copy" version="0"/>
			</rt_info>
			<output>
				<port id="0" names="StatefulPartitionedCall/u_net_1/model_1/block_15_expand/Conv2D/ReadVariableOp:0" precision="FP32">
					<dim>960</dim>
					<dim>160</dim>
					<dim>1</dim>
					<dim>1</dim>
				</port>
			</output>
		</layer>
		<layer id="133" name="StatefulPartitionedCall/u_net_1/model_1/block_15_expand/Conv2D" type="Convolution" version="opset1">
			<data auto_pad="same_upper" dilations="1, 1" pads_begin="0, 0" pads_end="0, 0" strides="1, 1"/>
			<rt_info>
				<attribute name="fused_names" value="StatefulPartitionedCall/u_net_1/model_1/block_15_expand/Conv2D" version="0"/>
			</rt_info>
			<input>
				<port id="0" precision="FP32">
					<dim>-1</dim>
					<dim>160</dim>
					<dim>20</dim>
					<dim>20</dim>
				</port>
				<port id="1" precision="FP32">
					<dim>960</dim>
					<dim>160</dim>
					<dim>1</dim>
					<dim>1</dim>
				</port>
			</input>
			<output>
				<port id="2" names="StatefulPartitionedCall/u_net_1/model_1/block_15_expand_BN/FusedBatchNormV3:0" precision="FP32">
					<dim>-1</dim>
					<dim>960</dim>
					<dim>20</dim>
					<dim>20</dim>
				</port>
			</output>
		</layer>
		<layer id="134" name="StatefulPartitionedCall/u_net_1/model_1/block_15_expand_relu/Relu6" type="Clamp" version="opset1">
			<data max="6" min="0"/>
			<rt_info>
				<attribute name="fused_names" value="StatefulPartitionedCall/u_net_1/model_1/block_15_expand_relu/Relu6" version="0"/>
			</rt_info>
			<input>
				<port id="0" precision="FP32">
					<dim>-1</dim>
					<dim>960</dim>
					<dim>20</dim>
					<dim>20</dim>
				</port>
			</input>
			<output>
				<port id="1" names="StatefulPartitionedCall/u_net_1/model_1/block_15_expand_relu/Relu6:0" precision="FP32">
					<dim>-1</dim>
					<dim>960</dim>
					<dim>20</dim>
					<dim>20</dim>
				</port>
			</output>
		</layer>
		<layer id="135" name="StatefulPartitionedCall/u_net_1/model_1/block_15_depthwise_BN/FusedBatchNormV3/mean/Fused_Mul__copy" type="Const" version="opset1">
			<data element_type="f32" offset="4593952" shape="960, 1, 1, 3, 3" size="34560"/>
			<rt_info>
				<attribute name="fused_names" value="StatefulPartitionedCall/u_net_1/model_1/block_15_depthwise_BN/FusedBatchNormV3/mean/Fused_Mul__copy" version="0"/>
			</rt_info>
			<output>
				<port id="0" names="StatefulPartitionedCall/u_net_1/model_1/block_15_depthwise/depthwise/ReadVariableOp:0" precision="FP32">
					<dim>960</dim>
					<dim>1</dim>
					<dim>1</dim>
					<dim>3</dim>
					<dim>3</dim>
				</port>
			</output>
		</layer>
		<layer id="136" name="StatefulPartitionedCall/u_net_1/model_1/block_15_depthwise/depthwise" type="GroupConvolution" version="opset1">
			<data auto_pad="same_upper" dilations="1, 1" pads_begin="0, 0" pads_end="0, 0" strides="1, 1"/>
			<rt_info>
				<attribute name="fused_names" value="StatefulPartitionedCall/u_net_1/model_1/block_15_depthwise/depthwise" version="0"/>
			</rt_info>
			<input>
				<port id="0" precision="FP32">
					<dim>-1</dim>
					<dim>960</dim>
					<dim>20</dim>
					<dim>20</dim>
				</port>
				<port id="1" precision="FP32">
					<dim>960</dim>
					<dim>1</dim>
					<dim>1</dim>
					<dim>3</dim>
					<dim>3</dim>
				</port>
			</input>
			<output>
				<port id="2" names="StatefulPartitionedCall/u_net_1/model_1/block_15_depthwise_BN/FusedBatchNormV3:0" precision="FP32">
					<dim>-1</dim>
					<dim>960</dim>
					<dim>20</dim>
					<dim>20</dim>
				</port>
			</output>
		</layer>
		<layer id="137" name="StatefulPartitionedCall/u_net_1/model_1/block_15_depthwise_relu/Relu6" type="Clamp" version="opset1">
			<data max="6" min="0"/>
			<rt_info>
				<attribute name="fused_names" value="StatefulPartitionedCall/u_net_1/model_1/block_15_depthwise_relu/Relu6" version="0"/>
			</rt_info>
			<input>
				<port id="0" precision="FP32">
					<dim>-1</dim>
					<dim>960</dim>
					<dim>20</dim>
					<dim>20</dim>
				</port>
			</input>
			<output>
				<port id="1" names="StatefulPartitionedCall/u_net_1/model_1/block_15_depthwise_relu/Relu6:0" precision="FP32">
					<dim>-1</dim>
					<dim>960</dim>
					<dim>20</dim>
					<dim>20</dim>
				</port>
			</output>
		</layer>
		<layer id="138" name="StatefulPartitionedCall/u_net_1/model_1/block_15_project_BN/FusedBatchNormV3/mean/Fused_Mul__copy" type="Const" version="opset1">
			<data element_type="f32" offset="4628512" shape="160, 960, 1, 1" size="614400"/>
			<rt_info>
				<attribute name="fused_names" value="StatefulPartitionedCall/u_net_1/model_1/block_15_project_BN/FusedBatchNormV3/mean/Fused_Mul__copy" version="0"/>
			</rt_info>
			<output>
				<port id="0" names="StatefulPartitionedCall/u_net_1/model_1/block_15_project/Conv2D/ReadVariableOp:0" precision="FP32">
					<dim>160</dim>
					<dim>960</dim>
					<dim>1</dim>
					<dim>1</dim>
				</port>
			</output>
		</layer>
		<layer id="139" name="StatefulPartitionedCall/u_net_1/model_1/block_15_project/Conv2D" type="Convolution" version="opset1">
			<data auto_pad="same_upper" dilations="1, 1" pads_begin="0, 0" pads_end="0, 0" strides="1, 1"/>
			<rt_info>
				<attribute name="fused_names" value="StatefulPartitionedCall/u_net_1/model_1/block_15_project/Conv2D" version="0"/>
			</rt_info>
			<input>
				<port id="0" precision="FP32">
					<dim>-1</dim>
					<dim>960</dim>
					<dim>20</dim>
					<dim>20</dim>
				</port>
				<port id="1" precision="FP32">
					<dim>160</dim>
					<dim>960</dim>
					<dim>1</dim>
					<dim>1</dim>
				</port>
			</input>
			<output>
				<port id="2" names="StatefulPartitionedCall/u_net_1/model_1/block_15_project_BN/FusedBatchNormV3:0" precision="FP32">
					<dim>-1</dim>
					<dim>160</dim>
					<dim>20</dim>
					<dim>20</dim>
				</port>
			</output>
		</layer>
		<layer id="140" name="StatefulPartitionedCall/u_net_1/model_1/block_15_add/add" type="Add" version="opset1">
			<data auto_broadcast="numpy"/>
			<rt_info>
				<attribute name="fused_names" value="StatefulPartitionedCall/u_net_1/model_1/block_15_add/add" version="0"/>
			</rt_info>
			<input>
				<port id="0" precision="FP32">
					<dim>-1</dim>
					<dim>160</dim>
					<dim>20</dim>
					<dim>20</dim>
				</port>
				<port id="1" precision="FP32">
					<dim>-1</dim>
					<dim>160</dim>
					<dim>20</dim>
					<dim>20</dim>
				</port>
			</input>
			<output>
				<port id="2" names="StatefulPartitionedCall/u_net_1/model_1/block_15_add/add:0" precision="FP32">
					<dim>-1</dim>
					<dim>160</dim>
					<dim>20</dim>
					<dim>20</dim>
				</port>
			</output>
		</layer>
		<layer id="141" name="StatefulPartitionedCall/u_net_1/model_1/block_16_expand_BN/FusedBatchNormV3/mean/Fused_Mul__copy" type="Const" version="opset1">
			<data element_type="f32" offset="5242912" shape="960, 160, 1, 1" size="614400"/>
			<rt_info>
				<attribute name="fused_names" value="StatefulPartitionedCall/u_net_1/model_1/block_16_expand_BN/FusedBatchNormV3/mean/Fused_Mul__copy" version="0"/>
			</rt_info>
			<output>
				<port id="0" names="StatefulPartitionedCall/u_net_1/model_1/block_16_expand/Conv2D/ReadVariableOp:0" precision="FP32">
					<dim>960</dim>
					<dim>160</dim>
					<dim>1</dim>
					<dim>1</dim>
				</port>
			</output>
		</layer>
		<layer id="142" name="StatefulPartitionedCall/u_net_1/model_1/block_16_expand/Conv2D" type="Convolution" version="opset1">
			<data auto_pad="same_upper" dilations="1, 1" pads_begin="0, 0" pads_end="0, 0" strides="1, 1"/>
			<rt_info>
				<attribute name="fused_names" value="StatefulPartitionedCall/u_net_1/model_1/block_16_expand/Conv2D" version="0"/>
			</rt_info>
			<input>
				<port id="0" precision="FP32">
					<dim>-1</dim>
					<dim>160</dim>
					<dim>20</dim>
					<dim>20</dim>
				</port>
				<port id="1" precision="FP32">
					<dim>960</dim>
					<dim>160</dim>
					<dim>1</dim>
					<dim>1</dim>
				</port>
			</input>
			<output>
				<port id="2" names="StatefulPartitionedCall/u_net_1/model_1/block_16_expand_BN/FusedBatchNormV3:0" precision="FP32">
					<dim>-1</dim>
					<dim>960</dim>
					<dim>20</dim>
					<dim>20</dim>
				</port>
			</output>
		</layer>
		<layer id="143" name="StatefulPartitionedCall/u_net_1/model_1/block_16_expand_relu/Relu6" type="Clamp" version="opset1">
			<data max="6" min="0"/>
			<rt_info>
				<attribute name="fused_names" value="StatefulPartitionedCall/u_net_1/model_1/block_16_expand_relu/Relu6" version="0"/>
			</rt_info>
			<input>
				<port id="0" precision="FP32">
					<dim>-1</dim>
					<dim>960</dim>
					<dim>20</dim>
					<dim>20</dim>
				</port>
			</input>
			<output>
				<port id="1" names="StatefulPartitionedCall/u_net_1/model_1/block_16_expand_relu/Relu6:0" precision="FP32">
					<dim>-1</dim>
					<dim>960</dim>
					<dim>20</dim>
					<dim>20</dim>
				</port>
			</output>
		</layer>
		<layer id="144" name="StatefulPartitionedCall/u_net_1/model_1/block_16_depthwise_BN/FusedBatchNormV3/mean/Fused_Mul__copy" type="Const" version="opset1">
			<data element_type="f32" offset="5857312" shape="960, 1, 1, 3, 3" size="34560"/>
			<rt_info>
				<attribute name="fused_names" value="StatefulPartitionedCall/u_net_1/model_1/block_16_depthwise_BN/FusedBatchNormV3/mean/Fused_Mul__copy" version="0"/>
			</rt_info>
			<output>
				<port id="0" names="StatefulPartitionedCall/u_net_1/model_1/block_16_depthwise/depthwise/ReadVariableOp:0" precision="FP32">
					<dim>960</dim>
					<dim>1</dim>
					<dim>1</dim>
					<dim>3</dim>
					<dim>3</dim>
				</port>
			</output>
		</layer>
		<layer id="145" name="StatefulPartitionedCall/u_net_1/model_1/block_16_depthwise/depthwise" type="GroupConvolution" version="opset1">
			<data auto_pad="same_upper" dilations="1, 1" pads_begin="0, 0" pads_end="0, 0" strides="1, 1"/>
			<rt_info>
				<attribute name="fused_names" value="StatefulPartitionedCall/u_net_1/model_1/block_16_depthwise/depthwise" version="0"/>
			</rt_info>
			<input>
				<port id="0" precision="FP32">
					<dim>-1</dim>
					<dim>960</dim>
					<dim>20</dim>
					<dim>20</dim>
				</port>
				<port id="1" precision="FP32">
					<dim>960</dim>
					<dim>1</dim>
					<dim>1</dim>
					<dim>3</dim>
					<dim>3</dim>
				</port>
			</input>
			<output>
				<port id="2" names="StatefulPartitionedCall/u_net_1/model_1/block_16_depthwise_BN/FusedBatchNormV3:0" precision="FP32">
					<dim>-1</dim>
					<dim>960</dim>
					<dim>20</dim>
					<dim>20</dim>
				</port>
			</output>
		</layer>
		<layer id="146" name="StatefulPartitionedCall/u_net_1/model_1/block_16_depthwise_relu/Relu6" type="Clamp" version="opset1">
			<data max="6" min="0"/>
			<rt_info>
				<attribute name="fused_names" value="StatefulPartitionedCall/u_net_1/model_1/block_16_depthwise_relu/Relu6" version="0"/>
			</rt_info>
			<input>
				<port id="0" precision="FP32">
					<dim>-1</dim>
					<dim>960</dim>
					<dim>20</dim>
					<dim>20</dim>
				</port>
			</input>
			<output>
				<port id="1" names="StatefulPartitionedCall/u_net_1/model_1/block_16_depthwise_relu/Relu6:0" precision="FP32">
					<dim>-1</dim>
					<dim>960</dim>
					<dim>20</dim>
					<dim>20</dim>
				</port>
			</output>
		</layer>
		<layer id="147" name="StatefulPartitionedCall/u_net_1/model_1/block_16_project_BN/FusedBatchNormV3/mean/Fused_Mul__copy" type="Const" version="opset1">
			<data element_type="f32" offset="5891872" shape="320, 960, 1, 1" size="1228800"/>
			<rt_info>
				<attribute name="fused_names" value="StatefulPartitionedCall/u_net_1/model_1/block_16_project_BN/FusedBatchNormV3/mean/Fused_Mul__copy" version="0"/>
			</rt_info>
			<output>
				<port id="0" names="StatefulPartitionedCall/u_net_1/model_1/block_16_project/Conv2D/ReadVariableOp:0" precision="FP32">
					<dim>320</dim>
					<dim>960</dim>
					<dim>1</dim>
					<dim>1</dim>
				</port>
			</output>
		</layer>
		<layer id="148" name="StatefulPartitionedCall/u_net_1/model_1/block_16_project/Conv2D" type="Convolution" version="opset1">
			<data auto_pad="same_upper" dilations="1, 1" pads_begin="0, 0" pads_end="0, 0" strides="1, 1"/>
			<rt_info>
				<attribute name="fused_names" value="StatefulPartitionedCall/u_net_1/model_1/block_16_project/Conv2D" version="0"/>
			</rt_info>
			<input>
				<port id="0" precision="FP32">
					<dim>-1</dim>
					<dim>960</dim>
					<dim>20</dim>
					<dim>20</dim>
				</port>
				<port id="1" precision="FP32">
					<dim>320</dim>
					<dim>960</dim>
					<dim>1</dim>
					<dim>1</dim>
				</port>
			</input>
			<output>
				<port id="2" names="StatefulPartitionedCall/u_net_1/model_1/block_16_project_BN/FusedBatchNormV3:0" precision="FP32">
					<dim>-1</dim>
					<dim>320</dim>
					<dim>20</dim>
					<dim>20</dim>
				</port>
			</output>
		</layer>
		<layer id="149" name="StatefulPartitionedCall/u_net_1/model_1/Conv_1_bn/FusedBatchNormV3/mean/Fused_Mul__copy" type="Const" version="opset1">
			<data element_type="f32" offset="7120672" shape="1280, 320, 1, 1" size="1638400"/>
			<rt_info>
				<attribute name="fused_names" value="StatefulPartitionedCall/u_net_1/model_1/Conv_1_bn/FusedBatchNormV3/mean/Fused_Mul__copy" version="0"/>
			</rt_info>
			<output>
				<port id="0" names="StatefulPartitionedCall/u_net_1/model_1/Conv_1/Conv2D/ReadVariableOp:0" precision="FP32">
					<dim>1280</dim>
					<dim>320</dim>
					<dim>1</dim>
					<dim>1</dim>
				</port>
			</output>
		</layer>
		<layer id="150" name="StatefulPartitionedCall/u_net_1/model_1/Conv_1/Conv2D" type="Convolution" version="opset1">
			<data auto_pad="valid" dilations="1, 1" pads_begin="0, 0" pads_end="0, 0" strides="1, 1"/>
			<rt_info>
				<attribute name="fused_names" value="StatefulPartitionedCall/u_net_1/model_1/Conv_1/Conv2D" version="0"/>
			</rt_info>
			<input>
				<port id="0" precision="FP32">
					<dim>-1</dim>
					<dim>320</dim>
					<dim>20</dim>
					<dim>20</dim>
				</port>
				<port id="1" precision="FP32">
					<dim>1280</dim>
					<dim>320</dim>
					<dim>1</dim>
					<dim>1</dim>
				</port>
			</input>
			<output>
				<port id="2" names="StatefulPartitionedCall/u_net_1/model_1/Conv_1_bn/FusedBatchNormV3:0" precision="FP32">
					<dim>-1</dim>
					<dim>1280</dim>
					<dim>20</dim>
					<dim>20</dim>
				</port>
			</output>
		</layer>
		<layer id="151" name="StatefulPartitionedCall/u_net_1/model_1/out_relu/Relu6" type="Clamp" version="opset1">
			<data max="6" min="0"/>
			<rt_info>
				<attribute name="fused_names" value="StatefulPartitionedCall/u_net_1/model_1/out_relu/Relu6" version="0"/>
			</rt_info>
			<input>
				<port id="0" precision="FP32">
					<dim>-1</dim>
					<dim>1280</dim>
					<dim>20</dim>
					<dim>20</dim>
				</port>
			</input>
			<output>
				<port id="1" names="StatefulPartitionedCall/u_net_1/model_1/out_relu/Relu6:0" precision="FP32">
					<dim>-1</dim>
					<dim>1280</dim>
					<dim>20</dim>
					<dim>20</dim>
				</port>
			</output>
		</layer>
		<layer id="152" name="StatefulPartitionedCall/u_net_1/upsample_x2__block_5/up_sampling2d_5/mul" type="Const" version="opset1">
			<data element_type="i64" offset="8759072" shape="2" size="16"/>
			<rt_info>
				<attribute name="fused_names" value="StatefulPartitionedCall/u_net_1/upsample_x2__block_5/up_sampling2d_5/mul" version="0"/>
			</rt_info>
			<output>
				<port id="0" names="StatefulPartitionedCall/u_net_1/upsample_x2__block_5/up_sampling2d_5/mul:0" precision="I64">
					<dim>2</dim>
				</port>
			</output>
		</layer>
		<layer id="153" name="2586" type="Const" version="opset1">
			<data element_type="f32" offset="8759088" shape="2" size="8"/>
			<rt_info>
				<attribute name="fused_names" value="2586" version="0"/>
			</rt_info>
			<output>
				<port id="0" precision="FP32">
					<dim>2</dim>
				</port>
			</output>
		</layer>
		<layer id="154" name="StatefulPartitionedCall/u_net_1/upsample_x2__block_5/up_sampling2d_5/resize/ResizeBilinear/shapeof" type="ShapeOf" version="opset3">
			<data output_type="i64"/>
			<rt_info>
				<attribute name="fused_names" value="StatefulPartitionedCall/u_net_1/upsample_x2__block_5/up_sampling2d_5/resize/ResizeBilinear/shapeof" version="0"/>
			</rt_info>
			<input>
				<port id="0" precision="FP32">
					<dim>-1</dim>
					<dim>1280</dim>
					<dim>20</dim>
					<dim>20</dim>
				</port>
			</input>
			<output>
				<port id="1" precision="I64">
					<dim>4</dim>
				</port>
			</output>
		</layer>
		<layer id="155" name="StatefulPartitionedCall/u_net_1/upsample_x2__block_5/up_sampling2d_5/resize/ResizeBilinear/shapeof/GatherNCHWtoNHWC_input_port_1/value4038250538" type="Const" version="opset1">
			<data element_type="i32" offset="8759096" shape="4" size="16"/>
			<rt_info>
				<attribute name="fused_names" value="StatefulPartitionedCall/u_net_1/upsample_x2__block_5/up_sampling2d_5/resize/ResizeBilinear/shapeof/GatherNCHWtoNHWC_input_port_1/value4038250538" version="0"/>
			</rt_info>
			<output>
				<port id="0" precision="I32">
					<dim>4</dim>
				</port>
			</output>
		</layer>
		<layer id="156" name="StatefulPartitionedCall/u_net_1/upsample_x2__block_5/up_sampling2d_5/resize/ResizeBilinear/shapeof/GatherNCHWtoNHWC_input_port_2/value4038450337" type="Const" version="opset1">
			<data element_type="i64" offset="8759112" shape="" size="8"/>
			<rt_info>
				<attribute name="fused_names" value="StatefulPartitionedCall/u_net_1/upsample_x2__block_5/up_sampling2d_5/resize/ResizeBilinear/shapeof/GatherNCHWtoNHWC_input_port_2/value4038450337" version="0"/>
			</rt_info>
			<output>
				<port id="0" precision="I64"/>
			</output>
		</layer>
		<layer id="157" name="StatefulPartitionedCall/u_net_1/upsample_x2__block_5/up_sampling2d_5/resize/ResizeBilinear/shapeof/GatherNCHWtoNHWC" type="Gather" version="opset8">
			<data batch_dims="0"/>
			<rt_info>
				<attribute name="fused_names" value="StatefulPartitionedCall/u_net_1/upsample_x2__block_5/up_sampling2d_5/resize/ResizeBilinear/shapeof/GatherNCHWtoNHWC" version="0"/>
			</rt_info>
			<input>
				<port id="0" precision="I64">
					<dim>4</dim>
				</port>
				<port id="1" precision="I32">
					<dim>4</dim>
				</port>
				<port id="2" precision="I64"/>
			</input>
			<output>
				<port id="3" precision="I64">
					<dim>4</dim>
				</port>
			</output>
		</layer>
		<layer id="158" name="StatefulPartitionedCall/u_net_1/upsample_x2__block_5/up_sampling2d_5/resize/ResizeBilinear/StridedSlice_input_port_1/value" type="Const" version="opset1">
			<data element_type="i64" offset="8759120" shape="1" size="8"/>
			<rt_info>
				<attribute name="fused_names" value="StatefulPartitionedCall/u_net_1/upsample_x2__block_5/up_sampling2d_5/resize/ResizeBilinear/StridedSlice_input_port_1/value" version="0"/>
			</rt_info>
			<output>
				<port id="0" precision="I64">
					<dim>1</dim>
				</port>
			</output>
		</layer>
		<layer id="159" name="StatefulPartitionedCall/u_net_1/upsample_x2__block_5/up_sampling2d_5/resize/ResizeBilinear/StridedSlice_input_port_2/value" type="Const" version="opset1">
			<data element_type="i64" offset="8759128" shape="1" size="8"/>
			<rt_info>
				<attribute name="fused_names" value="StatefulPartitionedCall/u_net_1/upsample_x2__block_5/up_sampling2d_5/resize/ResizeBilinear/StridedSlice_input_port_2/value" version="0"/>
			</rt_info>
			<output>
				<port id="0" precision="I64">
					<dim>1</dim>
				</port>
			</output>
		</layer>
		<layer id="160" name="StatefulPartitionedCall/u_net_1/upsample_x2__block_5/up_sampling2d_5/resize/ResizeBilinear/StridedSlice_input_port_3/value" type="Const" version="opset1">
			<data element_type="i64" offset="8759120" shape="1" size="8"/>
			<rt_info>
				<attribute name="fused_names" value="StatefulPartitionedCall/u_net_1/upsample_x2__block_5/up_sampling2d_5/resize/ResizeBilinear/StridedSlice_input_port_3/value" version="0"/>
			</rt_info>
			<output>
				<port id="0" precision="I64">
					<dim>1</dim>
				</port>
			</output>
		</layer>
		<layer id="161" name="StatefulPartitionedCall/u_net_1/upsample_x2__block_5/up_sampling2d_5/resize/ResizeBilinear/StridedSlice" type="StridedSlice" version="opset1">
			<data begin_mask="0" ellipsis_mask="0" end_mask="0" new_axis_mask="0" shrink_axis_mask="0"/>
			<rt_info>
				<attribute name="fused_names" value="StatefulPartitionedCall/u_net_1/upsample_x2__block_5/up_sampling2d_5/resize/ResizeBilinear/StridedSlice" version="0"/>
			</rt_info>
			<input>
				<port id="0" precision="I64">
					<dim>4</dim>
				</port>
				<port id="1" precision="I64">
					<dim>1</dim>
				</port>
				<port id="2" precision="I64">
					<dim>1</dim>
				</port>
				<port id="3" precision="I64">
					<dim>1</dim>
				</port>
			</input>
			<output>
				<port id="4" precision="I64">
					<dim>2</dim>
				</port>
			</output>
		</layer>
		<layer id="162" name="2585" type="Convert" version="opset1">
			<data destination_type="f32"/>
			<rt_info>
				<attribute name="fused_names" value="2585" version="0"/>
			</rt_info>
			<input>
				<port id="0" precision="I64">
					<dim>2</dim>
				</port>
			</input>
			<output>
				<port id="1" precision="FP32">
					<dim>2</dim>
				</port>
			</output>
		</layer>
		<layer id="163" name="StatefulPartitionedCall/u_net_1/upsample_x2__block_5/up_sampling2d_5/resize/ResizeBilinear/Div" type="Divide" version="opset1">
			<data auto_broadcast="numpy" m_pythondiv="true"/>
			<rt_info>
				<attribute name="fused_names" value="StatefulPartitionedCall/u_net_1/upsample_x2__block_5/up_sampling2d_5/resize/ResizeBilinear/Div" version="0"/>
			</rt_info>
			<input>
				<port id="0" precision="FP32">
					<dim>2</dim>
				</port>
				<port id="1" precision="FP32">
					<dim>2</dim>
				</port>
			</input>
			<output>
				<port id="2" precision="FP32">
					<dim>2</dim>
				</port>
			</output>
		</layer>
		<layer id="164" name="4137450178" type="Const" version="opset1">
			<data element_type="i64" offset="8759136" shape="2" size="16"/>
			<rt_info>
				<attribute name="fused_names" value="4137450178" version="0"/>
			</rt_info>
			<output>
				<port id="0" precision="I64">
					<dim>2</dim>
				</port>
			</output>
		</layer>
		<layer id="165" name="StatefulPartitionedCall/u_net_1/upsample_x2__block_5/up_sampling2d_5/resize/ResizeBilinear" type="Interpolate" version="opset4">
			<data antialias="false" coordinate_transformation_mode="half_pixel" cube_coeff="-0.75" mode="linear_onnx" nearest_mode="round_prefer_floor" pads_begin="0, 0, 0, 0" pads_end="0, 0, 0, 0" shape_calculation_mode="sizes"/>
			<rt_info>
				<attribute name="fused_names" value="StatefulPartitionedCall/u_net_1/upsample_x2__block_5/up_sampling2d_5/resize/ResizeBilinear" version="0"/>
			</rt_info>
			<input>
				<port id="0" precision="FP32">
					<dim>-1</dim>
					<dim>1280</dim>
					<dim>20</dim>
					<dim>20</dim>
				</port>
				<port id="1" precision="I64">
					<dim>2</dim>
				</port>
				<port id="2" precision="FP32">
					<dim>2</dim>
				</port>
				<port id="3" precision="I64">
					<dim>2</dim>
				</port>
			</input>
			<output>
				<port id="4" names="StatefulPartitionedCall/u_net_1/upsample_x2__block_5/up_sampling2d_5/resize/ResizeBilinear:0" precision="FP32">
					<dim>-1</dim>
					<dim>1280</dim>
					<dim>40</dim>
					<dim>40</dim>
				</port>
			</output>
		</layer>
		<layer id="166" name="StatefulPartitionedCall/u_net_1/upsample_x2__block_5/conv2d_6/Conv2D/ReadVariableOp" type="Const" version="opset1">
			<data element_type="f32" offset="8759152" shape="512, 1280, 2, 2" size="10485760"/>
			<rt_info>
				<attribute name="fused_names" value="StatefulPartitionedCall/u_net_1/upsample_x2__block_5/conv2d_6/Conv2D/ReadVariableOp" version="0"/>
			</rt_info>
			<output>
				<port id="0" names="StatefulPartitionedCall/u_net_1/upsample_x2__block_5/conv2d_6/Conv2D/ReadVariableOp:0" precision="FP32">
					<dim>512</dim>
					<dim>1280</dim>
					<dim>2</dim>
					<dim>2</dim>
				</port>
			</output>
		</layer>
		<layer id="167" name="StatefulPartitionedCall/u_net_1/upsample_x2__block_5/conv2d_6/Conv2D" type="Convolution" version="opset1">
			<data auto_pad="same_upper" dilations="1, 1" pads_begin="0, 0" pads_end="0, 0" strides="1, 1"/>
			<rt_info>
				<attribute name="fused_names" value="StatefulPartitionedCall/u_net_1/upsample_x2__block_5/conv2d_6/BiasAdd/Add, StatefulPartitionedCall/u_net_1/upsample_x2__block_5/conv2d_6/Conv2D" version="0"/>
			</rt_info>
			<input>
				<port id="0" precision="FP32">
					<dim>-1</dim>
					<dim>1280</dim>
					<dim>40</dim>
					<dim>40</dim>
				</port>
				<port id="1" precision="FP32">
					<dim>512</dim>
					<dim>1280</dim>
					<dim>2</dim>
					<dim>2</dim>
				</port>
			</input>
			<output>
				<port id="2" names="StatefulPartitionedCall/u_net_1/upsample_x2__block_5/conv2d_6/BiasAdd:0,StatefulPartitionedCall/u_net_1/upsample_x2__block_5/conv2d_6/Conv2D:0" precision="FP32">
					<dim>-1</dim>
					<dim>512</dim>
					<dim>40</dim>
					<dim>40</dim>
				</port>
			</output>
		</layer>
		<layer id="168" name="StatefulPartitionedCall/u_net_1/model_1/bn_Conv1/FusedBatchNormV3_1/mean/Fused_Mul__copy" type="Const" version="opset1">
			<data element_type="f32" offset="32" shape="32, 3, 3, 3" size="3456"/>
			<rt_info>
				<attribute name="fused_names" value="StatefulPartitionedCall/u_net_1/model_1/bn_Conv1/FusedBatchNormV3_1/mean/Fused_Mul__copy" version="0"/>
			</rt_info>
			<output>
				<port id="0" names="StatefulPartitionedCall/u_net_1/model_1/Conv1/Conv2D_1/ReadVariableOp:0" precision="FP32">
					<dim>32</dim>
					<dim>3</dim>
					<dim>3</dim>
					<dim>3</dim>
				</port>
			</output>
		</layer>
		<layer id="169" name="StatefulPartitionedCall/u_net_1/model_1/Conv1/Conv2D_1" type="Convolution" version="opset1">
			<data auto_pad="same_upper" dilations="1, 1" pads_begin="0, 0" pads_end="0, 0" strides="2, 2"/>
			<rt_info>
				<attribute name="fused_names" value="StatefulPartitionedCall/u_net_1/model_1/Conv1/Conv2D_1" version="0"/>
			</rt_info>
			<input>
				<port id="0" precision="FP32">
					<dim>-1</dim>
					<dim>3</dim>
					<dim>640</dim>
					<dim>640</dim>
				</port>
				<port id="1" precision="FP32">
					<dim>32</dim>
					<dim>3</dim>
					<dim>3</dim>
					<dim>3</dim>
				</port>
			</input>
			<output>
				<port id="2" names="StatefulPartitionedCall/u_net_1/model_1/bn_Conv1/FusedBatchNormV3_1:0" precision="FP32">
					<dim>-1</dim>
					<dim>32</dim>
					<dim>320</dim>
					<dim>320</dim>
				</port>
			</output>
		</layer>
		<layer id="170" name="StatefulPartitionedCall/u_net_1/model_1/Conv1_relu/Relu6_1" type="Clamp" version="opset1">
			<data max="6" min="0"/>
			<rt_info>
				<attribute name="fused_names" value="StatefulPartitionedCall/u_net_1/model_1/Conv1_relu/Relu6_1" version="0"/>
			</rt_info>
			<input>
				<port id="0" precision="FP32">
					<dim>-1</dim>
					<dim>32</dim>
					<dim>320</dim>
					<dim>320</dim>
				</port>
			</input>
			<output>
				<port id="1" names="StatefulPartitionedCall/u_net_1/model_1/Conv1_relu/Relu6_1:0" precision="FP32">
					<dim>-1</dim>
					<dim>32</dim>
					<dim>320</dim>
					<dim>320</dim>
				</port>
			</output>
		</layer>
		<layer id="171" name="StatefulPartitionedCall/u_net_1/model_1/expanded_conv_depthwise_BN/FusedBatchNormV3_1/mean/Fused_Mul__copy" type="Const" version="opset1">
			<data element_type="f32" offset="3488" shape="32, 1, 1, 3, 3" size="1152"/>
			<rt_info>
				<attribute name="fused_names" value="StatefulPartitionedCall/u_net_1/model_1/expanded_conv_depthwise_BN/FusedBatchNormV3_1/mean/Fused_Mul__copy" version="0"/>
			</rt_info>
			<output>
				<port id="0" names="StatefulPartitionedCall/u_net_1/model_1/expanded_conv_depthwise/depthwise_1/ReadVariableOp:0" precision="FP32">
					<dim>32</dim>
					<dim>1</dim>
					<dim>1</dim>
					<dim>3</dim>
					<dim>3</dim>
				</port>
			</output>
		</layer>
		<layer id="172" name="StatefulPartitionedCall/u_net_1/model_1/expanded_conv_depthwise/depthwise_1" type="GroupConvolution" version="opset1">
			<data auto_pad="same_upper" dilations="1, 1" pads_begin="0, 0" pads_end="0, 0" strides="1, 1"/>
			<rt_info>
				<attribute name="fused_names" value="StatefulPartitionedCall/u_net_1/model_1/expanded_conv_depthwise/depthwise_1" version="0"/>
			</rt_info>
			<input>
				<port id="0" precision="FP32">
					<dim>-1</dim>
					<dim>32</dim>
					<dim>320</dim>
					<dim>320</dim>
				</port>
				<port id="1" precision="FP32">
					<dim>32</dim>
					<dim>1</dim>
					<dim>1</dim>
					<dim>3</dim>
					<dim>3</dim>
				</port>
			</input>
			<output>
				<port id="2" names="StatefulPartitionedCall/u_net_1/model_1/expanded_conv_depthwise_BN/FusedBatchNormV3_1:0" precision="FP32">
					<dim>-1</dim>
					<dim>32</dim>
					<dim>320</dim>
					<dim>320</dim>
				</port>
			</output>
		</layer>
		<layer id="173" name="StatefulPartitionedCall/u_net_1/model_1/expanded_conv_depthwise_relu/Relu6_1" type="Clamp" version="opset1">
			<data max="6" min="0"/>
			<rt_info>
				<attribute name="fused_names" value="StatefulPartitionedCall/u_net_1/model_1/expanded_conv_depthwise_relu/Relu6_1" version="0"/>
			</rt_info>
			<input>
				<port id="0" precision="FP32">
					<dim>-1</dim>
					<dim>32</dim>
					<dim>320</dim>
					<dim>320</dim>
				</port>
			</input>
			<output>
				<port id="1" names="StatefulPartitionedCall/u_net_1/model_1/expanded_conv_depthwise_relu/Relu6_1:0" precision="FP32">
					<dim>-1</dim>
					<dim>32</dim>
					<dim>320</dim>
					<dim>320</dim>
				</port>
			</output>
		</layer>
		<layer id="174" name="StatefulPartitionedCall/u_net_1/model_1/expanded_conv_project_BN/FusedBatchNormV3_1/mean/Fused_Mul__copy" type="Const" version="opset1">
			<data element_type="f32" offset="4640" shape="16, 32, 1, 1" size="2048"/>
			<rt_info>
				<attribute name="fused_names" value="StatefulPartitionedCall/u_net_1/model_1/expanded_conv_project_BN/FusedBatchNormV3_1/mean/Fused_Mul__copy" version="0"/>
			</rt_info>
			<output>
				<port id="0" names="StatefulPartitionedCall/u_net_1/model_1/expanded_conv_project/Conv2D_1/ReadVariableOp:0" precision="FP32">
					<dim>16</dim>
					<dim>32</dim>
					<dim>1</dim>
					<dim>1</dim>
				</port>
			</output>
		</layer>
		<layer id="175" name="StatefulPartitionedCall/u_net_1/model_1/expanded_conv_project/Conv2D_1" type="Convolution" version="opset1">
			<data auto_pad="same_upper" dilations="1, 1" pads_begin="0, 0" pads_end="0, 0" strides="1, 1"/>
			<rt_info>
				<attribute name="fused_names" value="StatefulPartitionedCall/u_net_1/model_1/expanded_conv_project/Conv2D_1" version="0"/>
			</rt_info>
			<input>
				<port id="0" precision="FP32">
					<dim>-1</dim>
					<dim>32</dim>
					<dim>320</dim>
					<dim>320</dim>
				</port>
				<port id="1" precision="FP32">
					<dim>16</dim>
					<dim>32</dim>
					<dim>1</dim>
					<dim>1</dim>
				</port>
			</input>
			<output>
				<port id="2" names="StatefulPartitionedCall/u_net_1/model_1/expanded_conv_project_BN/FusedBatchNormV3_1:0" precision="FP32">
					<dim>-1</dim>
					<dim>16</dim>
					<dim>320</dim>
					<dim>320</dim>
				</port>
			</output>
		</layer>
		<layer id="176" name="StatefulPartitionedCall/u_net_1/model_1/block_1_expand_BN/FusedBatchNormV3_1/mean/Fused_Mul__copy" type="Const" version="opset1">
			<data element_type="f32" offset="6688" shape="96, 16, 1, 1" size="6144"/>
			<rt_info>
				<attribute name="fused_names" value="StatefulPartitionedCall/u_net_1/model_1/block_1_expand_BN/FusedBatchNormV3_1/mean/Fused_Mul__copy" version="0"/>
			</rt_info>
			<output>
				<port id="0" names="StatefulPartitionedCall/u_net_1/model_1/block_1_expand/Conv2D_1/ReadVariableOp:0" precision="FP32">
					<dim>96</dim>
					<dim>16</dim>
					<dim>1</dim>
					<dim>1</dim>
				</port>
			</output>
		</layer>
		<layer id="177" name="StatefulPartitionedCall/u_net_1/model_1/block_1_expand/Conv2D_1" type="Convolution" version="opset1">
			<data auto_pad="same_upper" dilations="1, 1" pads_begin="0, 0" pads_end="0, 0" strides="1, 1"/>
			<rt_info>
				<attribute name="fused_names" value="StatefulPartitionedCall/u_net_1/model_1/block_1_expand/Conv2D_1" version="0"/>
			</rt_info>
			<input>
				<port id="0" precision="FP32">
					<dim>-1</dim>
					<dim>16</dim>
					<dim>320</dim>
					<dim>320</dim>
				</port>
				<port id="1" precision="FP32">
					<dim>96</dim>
					<dim>16</dim>
					<dim>1</dim>
					<dim>1</dim>
				</port>
			</input>
			<output>
				<port id="2" names="StatefulPartitionedCall/u_net_1/model_1/block_1_expand_BN/FusedBatchNormV3_1:0" precision="FP32">
					<dim>-1</dim>
					<dim>96</dim>
					<dim>320</dim>
					<dim>320</dim>
				</port>
			</output>
		</layer>
		<layer id="178" name="StatefulPartitionedCall/u_net_1/model_1/block_1_expand_relu/Relu6_1" type="Clamp" version="opset1">
			<data max="6" min="0"/>
			<rt_info>
				<attribute name="fused_names" value="StatefulPartitionedCall/u_net_1/model_1/block_1_expand_relu/Relu6_1" version="0"/>
			</rt_info>
			<input>
				<port id="0" precision="FP32">
					<dim>-1</dim>
					<dim>96</dim>
					<dim>320</dim>
					<dim>320</dim>
				</port>
			</input>
			<output>
				<port id="1" names="StatefulPartitionedCall/u_net_1/model_1/block_1_expand_relu/Relu6_1:0" precision="FP32">
					<dim>-1</dim>
					<dim>96</dim>
					<dim>320</dim>
					<dim>320</dim>
				</port>
			</output>
		</layer>
		<layer id="179" name="StatefulPartitionedCall/u_net_1/model_1/block_1_depthwise_BN/FusedBatchNormV3_1/mean/Fused_Mul__copy" type="Const" version="opset1">
			<data element_type="f32" offset="12832" shape="96, 1, 1, 3, 3" size="3456"/>
			<rt_info>
				<attribute name="fused_names" value="StatefulPartitionedCall/u_net_1/model_1/block_1_depthwise_BN/FusedBatchNormV3_1/mean/Fused_Mul__copy" version="0"/>
			</rt_info>
			<output>
				<port id="0" names="StatefulPartitionedCall/u_net_1/model_1/block_1_depthwise/depthwise_1/ReadVariableOp:0" precision="FP32">
					<dim>96</dim>
					<dim>1</dim>
					<dim>1</dim>
					<dim>3</dim>
					<dim>3</dim>
				</port>
			</output>
		</layer>
		<layer id="180" name="StatefulPartitionedCall/u_net_1/model_1/block_1_depthwise/depthwise_1" type="GroupConvolution" version="opset1">
			<data auto_pad="explicit" dilations="1, 1" pads_begin="0, 0" pads_end="1, 1" strides="2, 2"/>
			<rt_info>
				<attribute name="fused_names" value="StatefulPartitionedCall/u_net_1/model_1/block_1_depthwise/depthwise_1, StatefulPartitionedCall/u_net_1/model_1/block_1_pad/Pad_1" version="0"/>
			</rt_info>
			<input>
				<port id="0" precision="FP32">
					<dim>-1</dim>
					<dim>96</dim>
					<dim>320</dim>
					<dim>320</dim>
				</port>
				<port id="1" precision="FP32">
					<dim>96</dim>
					<dim>1</dim>
					<dim>1</dim>
					<dim>3</dim>
					<dim>3</dim>
				</port>
			</input>
			<output>
				<port id="2" names="StatefulPartitionedCall/u_net_1/model_1/block_1_depthwise_BN/FusedBatchNormV3_1:0" precision="FP32">
					<dim>-1</dim>
					<dim>96</dim>
					<dim>160</dim>
					<dim>160</dim>
				</port>
			</output>
		</layer>
		<layer id="181" name="StatefulPartitionedCall/u_net_1/model_1/block_1_depthwise_relu/Relu6_1" type="Clamp" version="opset1">
			<data max="6" min="0"/>
			<rt_info>
				<attribute name="fused_names" value="StatefulPartitionedCall/u_net_1/model_1/block_1_depthwise_relu/Relu6_1" version="0"/>
			</rt_info>
			<input>
				<port id="0" precision="FP32">
					<dim>-1</dim>
					<dim>96</dim>
					<dim>160</dim>
					<dim>160</dim>
				</port>
			</input>
			<output>
				<port id="1" names="StatefulPartitionedCall/u_net_1/model_1/block_1_depthwise_relu/Relu6_1:0" precision="FP32">
					<dim>-1</dim>
					<dim>96</dim>
					<dim>160</dim>
					<dim>160</dim>
				</port>
			</output>
		</layer>
		<layer id="182" name="StatefulPartitionedCall/u_net_1/model_1/block_1_project_BN/FusedBatchNormV3_1/mean/Fused_Mul__copy" type="Const" version="opset1">
			<data element_type="f32" offset="16288" shape="24, 96, 1, 1" size="9216"/>
			<rt_info>
				<attribute name="fused_names" value="StatefulPartitionedCall/u_net_1/model_1/block_1_project_BN/FusedBatchNormV3_1/mean/Fused_Mul__copy" version="0"/>
			</rt_info>
			<output>
				<port id="0" names="StatefulPartitionedCall/u_net_1/model_1/block_1_project/Conv2D_1/ReadVariableOp:0" precision="FP32">
					<dim>24</dim>
					<dim>96</dim>
					<dim>1</dim>
					<dim>1</dim>
				</port>
			</output>
		</layer>
		<layer id="183" name="StatefulPartitionedCall/u_net_1/model_1/block_1_project/Conv2D_1" type="Convolution" version="opset1">
			<data auto_pad="same_upper" dilations="1, 1" pads_begin="0, 0" pads_end="0, 0" strides="1, 1"/>
			<rt_info>
				<attribute name="fused_names" value="StatefulPartitionedCall/u_net_1/model_1/block_1_project/Conv2D_1" version="0"/>
			</rt_info>
			<input>
				<port id="0" precision="FP32">
					<dim>-1</dim>
					<dim>96</dim>
					<dim>160</dim>
					<dim>160</dim>
				</port>
				<port id="1" precision="FP32">
					<dim>24</dim>
					<dim>96</dim>
					<dim>1</dim>
					<dim>1</dim>
				</port>
			</input>
			<output>
				<port id="2" names="StatefulPartitionedCall/u_net_1/model_1/block_1_project_BN/FusedBatchNormV3_1:0" precision="FP32">
					<dim>-1</dim>
					<dim>24</dim>
					<dim>160</dim>
					<dim>160</dim>
				</port>
			</output>
		</layer>
		<layer id="184" name="StatefulPartitionedCall/u_net_1/model_1/block_2_expand_BN/FusedBatchNormV3_1/mean/Fused_Mul__copy" type="Const" version="opset1">
			<data element_type="f32" offset="25504" shape="144, 24, 1, 1" size="13824"/>
			<rt_info>
				<attribute name="fused_names" value="StatefulPartitionedCall/u_net_1/model_1/block_2_expand_BN/FusedBatchNormV3_1/mean/Fused_Mul__copy" version="0"/>
			</rt_info>
			<output>
				<port id="0" names="StatefulPartitionedCall/u_net_1/model_1/block_2_expand/Conv2D_1/ReadVariableOp:0" precision="FP32">
					<dim>144</dim>
					<dim>24</dim>
					<dim>1</dim>
					<dim>1</dim>
				</port>
			</output>
		</layer>
		<layer id="185" name="StatefulPartitionedCall/u_net_1/model_1/block_2_expand/Conv2D_1" type="Convolution" version="opset1">
			<data auto_pad="same_upper" dilations="1, 1" pads_begin="0, 0" pads_end="0, 0" strides="1, 1"/>
			<rt_info>
				<attribute name="fused_names" value="StatefulPartitionedCall/u_net_1/model_1/block_2_expand/Conv2D_1" version="0"/>
			</rt_info>
			<input>
				<port id="0" precision="FP32">
					<dim>-1</dim>
					<dim>24</dim>
					<dim>160</dim>
					<dim>160</dim>
				</port>
				<port id="1" precision="FP32">
					<dim>144</dim>
					<dim>24</dim>
					<dim>1</dim>
					<dim>1</dim>
				</port>
			</input>
			<output>
				<port id="2" names="StatefulPartitionedCall/u_net_1/model_1/block_2_expand_BN/FusedBatchNormV3_1:0" precision="FP32">
					<dim>-1</dim>
					<dim>144</dim>
					<dim>160</dim>
					<dim>160</dim>
				</port>
			</output>
		</layer>
		<layer id="186" name="StatefulPartitionedCall/u_net_1/model_1/block_2_expand_relu/Relu6_1" type="Clamp" version="opset1">
			<data max="6" min="0"/>
			<rt_info>
				<attribute name="fused_names" value="StatefulPartitionedCall/u_net_1/model_1/block_2_expand_relu/Relu6_1" version="0"/>
			</rt_info>
			<input>
				<port id="0" precision="FP32">
					<dim>-1</dim>
					<dim>144</dim>
					<dim>160</dim>
					<dim>160</dim>
				</port>
			</input>
			<output>
				<port id="1" names="StatefulPartitionedCall/u_net_1/model_1/block_2_expand_relu/Relu6_1:0" precision="FP32">
					<dim>-1</dim>
					<dim>144</dim>
					<dim>160</dim>
					<dim>160</dim>
				</port>
			</output>
		</layer>
		<layer id="187" name="StatefulPartitionedCall/u_net_1/model_1/block_2_depthwise_BN/FusedBatchNormV3_1/mean/Fused_Mul__copy" type="Const" version="opset1">
			<data element_type="f32" offset="39328" shape="144, 1, 1, 3, 3" size="5184"/>
			<rt_info>
				<attribute name="fused_names" value="StatefulPartitionedCall/u_net_1/model_1/block_2_depthwise_BN/FusedBatchNormV3_1/mean/Fused_Mul__copy" version="0"/>
			</rt_info>
			<output>
				<port id="0" names="StatefulPartitionedCall/u_net_1/model_1/block_2_depthwise/depthwise_1/ReadVariableOp:0" precision="FP32">
					<dim>144</dim>
					<dim>1</dim>
					<dim>1</dim>
					<dim>3</dim>
					<dim>3</dim>
				</port>
			</output>
		</layer>
		<layer id="188" name="StatefulPartitionedCall/u_net_1/model_1/block_2_depthwise/depthwise_1" type="GroupConvolution" version="opset1">
			<data auto_pad="same_upper" dilations="1, 1" pads_begin="0, 0" pads_end="0, 0" strides="1, 1"/>
			<rt_info>
				<attribute name="fused_names" value="StatefulPartitionedCall/u_net_1/model_1/block_2_depthwise/depthwise_1" version="0"/>
			</rt_info>
			<input>
				<port id="0" precision="FP32">
					<dim>-1</dim>
					<dim>144</dim>
					<dim>160</dim>
					<dim>160</dim>
				</port>
				<port id="1" precision="FP32">
					<dim>144</dim>
					<dim>1</dim>
					<dim>1</dim>
					<dim>3</dim>
					<dim>3</dim>
				</port>
			</input>
			<output>
				<port id="2" names="StatefulPartitionedCall/u_net_1/model_1/block_2_depthwise_BN/FusedBatchNormV3_1:0" precision="FP32">
					<dim>-1</dim>
					<dim>144</dim>
					<dim>160</dim>
					<dim>160</dim>
				</port>
			</output>
		</layer>
		<layer id="189" name="StatefulPartitionedCall/u_net_1/model_1/block_2_depthwise_relu/Relu6_1" type="Clamp" version="opset1">
			<data max="6" min="0"/>
			<rt_info>
				<attribute name="fused_names" value="StatefulPartitionedCall/u_net_1/model_1/block_2_depthwise_relu/Relu6_1" version="0"/>
			</rt_info>
			<input>
				<port id="0" precision="FP32">
					<dim>-1</dim>
					<dim>144</dim>
					<dim>160</dim>
					<dim>160</dim>
				</port>
			</input>
			<output>
				<port id="1" names="StatefulPartitionedCall/u_net_1/model_1/block_2_depthwise_relu/Relu6_1:0" precision="FP32">
					<dim>-1</dim>
					<dim>144</dim>
					<dim>160</dim>
					<dim>160</dim>
				</port>
			</output>
		</layer>
		<layer id="190" name="StatefulPartitionedCall/u_net_1/model_1/block_2_project_BN/FusedBatchNormV3_1/mean/Fused_Mul__copy" type="Const" version="opset1">
			<data element_type="f32" offset="44512" shape="24, 144, 1, 1" size="13824"/>
			<rt_info>
				<attribute name="fused_names" value="StatefulPartitionedCall/u_net_1/model_1/block_2_project_BN/FusedBatchNormV3_1/mean/Fused_Mul__copy" version="0"/>
			</rt_info>
			<output>
				<port id="0" names="StatefulPartitionedCall/u_net_1/model_1/block_2_project/Conv2D_1/ReadVariableOp:0" precision="FP32">
					<dim>24</dim>
					<dim>144</dim>
					<dim>1</dim>
					<dim>1</dim>
				</port>
			</output>
		</layer>
		<layer id="191" name="StatefulPartitionedCall/u_net_1/model_1/block_2_project/Conv2D_1" type="Convolution" version="opset1">
			<data auto_pad="same_upper" dilations="1, 1" pads_begin="0, 0" pads_end="0, 0" strides="1, 1"/>
			<rt_info>
				<attribute name="fused_names" value="StatefulPartitionedCall/u_net_1/model_1/block_2_project/Conv2D_1" version="0"/>
			</rt_info>
			<input>
				<port id="0" precision="FP32">
					<dim>-1</dim>
					<dim>144</dim>
					<dim>160</dim>
					<dim>160</dim>
				</port>
				<port id="1" precision="FP32">
					<dim>24</dim>
					<dim>144</dim>
					<dim>1</dim>
					<dim>1</dim>
				</port>
			</input>
			<output>
				<port id="2" names="StatefulPartitionedCall/u_net_1/model_1/block_2_project_BN/FusedBatchNormV3_1:0" precision="FP32">
					<dim>-1</dim>
					<dim>24</dim>
					<dim>160</dim>
					<dim>160</dim>
				</port>
			</output>
		</layer>
		<layer id="192" name="StatefulPartitionedCall/u_net_1/model_1/block_2_add/add_1" type="Add" version="opset1">
			<data auto_broadcast="numpy"/>
			<rt_info>
				<attribute name="fused_names" value="StatefulPartitionedCall/u_net_1/model_1/block_2_add/add_1" version="0"/>
			</rt_info>
			<input>
				<port id="0" precision="FP32">
					<dim>-1</dim>
					<dim>24</dim>
					<dim>160</dim>
					<dim>160</dim>
				</port>
				<port id="1" precision="FP32">
					<dim>-1</dim>
					<dim>24</dim>
					<dim>160</dim>
					<dim>160</dim>
				</port>
			</input>
			<output>
				<port id="2" names="StatefulPartitionedCall/u_net_1/model_1/block_2_add/add_1:0" precision="FP32">
					<dim>-1</dim>
					<dim>24</dim>
					<dim>160</dim>
					<dim>160</dim>
				</port>
			</output>
		</layer>
		<layer id="193" name="StatefulPartitionedCall/u_net_1/model_1/block_3_expand_BN/FusedBatchNormV3_1/mean/Fused_Mul__copy" type="Const" version="opset1">
			<data element_type="f32" offset="58336" shape="144, 24, 1, 1" size="13824"/>
			<rt_info>
				<attribute name="fused_names" value="StatefulPartitionedCall/u_net_1/model_1/block_3_expand_BN/FusedBatchNormV3_1/mean/Fused_Mul__copy" version="0"/>
			</rt_info>
			<output>
				<port id="0" names="StatefulPartitionedCall/u_net_1/model_1/block_3_expand/Conv2D_1/ReadVariableOp:0" precision="FP32">
					<dim>144</dim>
					<dim>24</dim>
					<dim>1</dim>
					<dim>1</dim>
				</port>
			</output>
		</layer>
		<layer id="194" name="StatefulPartitionedCall/u_net_1/model_1/block_3_expand/Conv2D_1" type="Convolution" version="opset1">
			<data auto_pad="same_upper" dilations="1, 1" pads_begin="0, 0" pads_end="0, 0" strides="1, 1"/>
			<rt_info>
				<attribute name="fused_names" value="StatefulPartitionedCall/u_net_1/model_1/block_3_expand/Conv2D_1" version="0"/>
			</rt_info>
			<input>
				<port id="0" precision="FP32">
					<dim>-1</dim>
					<dim>24</dim>
					<dim>160</dim>
					<dim>160</dim>
				</port>
				<port id="1" precision="FP32">
					<dim>144</dim>
					<dim>24</dim>
					<dim>1</dim>
					<dim>1</dim>
				</port>
			</input>
			<output>
				<port id="2" names="StatefulPartitionedCall/u_net_1/model_1/block_3_expand_BN/FusedBatchNormV3_1:0" precision="FP32">
					<dim>-1</dim>
					<dim>144</dim>
					<dim>160</dim>
					<dim>160</dim>
				</port>
			</output>
		</layer>
		<layer id="195" name="StatefulPartitionedCall/u_net_1/model_1/block_3_expand_relu/Relu6_1" type="Clamp" version="opset1">
			<data max="6" min="0"/>
			<rt_info>
				<attribute name="fused_names" value="StatefulPartitionedCall/u_net_1/model_1/block_3_expand_relu/Relu6_1" version="0"/>
			</rt_info>
			<input>
				<port id="0" precision="FP32">
					<dim>-1</dim>
					<dim>144</dim>
					<dim>160</dim>
					<dim>160</dim>
				</port>
			</input>
			<output>
				<port id="1" names="StatefulPartitionedCall/u_net_1/model_1/block_3_expand_relu/Relu6_1:0" precision="FP32">
					<dim>-1</dim>
					<dim>144</dim>
					<dim>160</dim>
					<dim>160</dim>
				</port>
			</output>
		</layer>
		<layer id="196" name="StatefulPartitionedCall/u_net_1/model_1/block_3_depthwise_BN/FusedBatchNormV3_1/mean/Fused_Mul__copy" type="Const" version="opset1">
			<data element_type="f32" offset="72160" shape="144, 1, 1, 3, 3" size="5184"/>
			<rt_info>
				<attribute name="fused_names" value="StatefulPartitionedCall/u_net_1/model_1/block_3_depthwise_BN/FusedBatchNormV3_1/mean/Fused_Mul__copy" version="0"/>
			</rt_info>
			<output>
				<port id="0" names="StatefulPartitionedCall/u_net_1/model_1/block_3_depthwise/depthwise_1/ReadVariableOp:0" precision="FP32">
					<dim>144</dim>
					<dim>1</dim>
					<dim>1</dim>
					<dim>3</dim>
					<dim>3</dim>
				</port>
			</output>
		</layer>
		<layer id="197" name="StatefulPartitionedCall/u_net_1/model_1/block_3_depthwise/depthwise_1" type="GroupConvolution" version="opset1">
			<data auto_pad="explicit" dilations="1, 1" pads_begin="0, 0" pads_end="1, 1" strides="2, 2"/>
			<rt_info>
				<attribute name="fused_names" value="StatefulPartitionedCall/u_net_1/model_1/block_3_depthwise/depthwise_1, StatefulPartitionedCall/u_net_1/model_1/block_3_pad/Pad_1" version="0"/>
			</rt_info>
			<input>
				<port id="0" precision="FP32">
					<dim>-1</dim>
					<dim>144</dim>
					<dim>160</dim>
					<dim>160</dim>
				</port>
				<port id="1" precision="FP32">
					<dim>144</dim>
					<dim>1</dim>
					<dim>1</dim>
					<dim>3</dim>
					<dim>3</dim>
				</port>
			</input>
			<output>
				<port id="2" names="StatefulPartitionedCall/u_net_1/model_1/block_3_depthwise_BN/FusedBatchNormV3_1:0" precision="FP32">
					<dim>-1</dim>
					<dim>144</dim>
					<dim>80</dim>
					<dim>80</dim>
				</port>
			</output>
		</layer>
		<layer id="198" name="StatefulPartitionedCall/u_net_1/model_1/block_3_depthwise_relu/Relu6_1" type="Clamp" version="opset1">
			<data max="6" min="0"/>
			<rt_info>
				<attribute name="fused_names" value="StatefulPartitionedCall/u_net_1/model_1/block_3_depthwise_relu/Relu6_1" version="0"/>
			</rt_info>
			<input>
				<port id="0" precision="FP32">
					<dim>-1</dim>
					<dim>144</dim>
					<dim>80</dim>
					<dim>80</dim>
				</port>
			</input>
			<output>
				<port id="1" names="StatefulPartitionedCall/u_net_1/model_1/block_3_depthwise_relu/Relu6_1:0" precision="FP32">
					<dim>-1</dim>
					<dim>144</dim>
					<dim>80</dim>
					<dim>80</dim>
				</port>
			</output>
		</layer>
		<layer id="199" name="StatefulPartitionedCall/u_net_1/model_1/block_3_project_BN/FusedBatchNormV3_1/mean/Fused_Mul__copy" type="Const" version="opset1">
			<data element_type="f32" offset="77344" shape="32, 144, 1, 1" size="18432"/>
			<rt_info>
				<attribute name="fused_names" value="StatefulPartitionedCall/u_net_1/model_1/block_3_project_BN/FusedBatchNormV3_1/mean/Fused_Mul__copy" version="0"/>
			</rt_info>
			<output>
				<port id="0" names="StatefulPartitionedCall/u_net_1/model_1/block_3_project/Conv2D_1/ReadVariableOp:0" precision="FP32">
					<dim>32</dim>
					<dim>144</dim>
					<dim>1</dim>
					<dim>1</dim>
				</port>
			</output>
		</layer>
		<layer id="200" name="StatefulPartitionedCall/u_net_1/model_1/block_3_project/Conv2D_1" type="Convolution" version="opset1">
			<data auto_pad="same_upper" dilations="1, 1" pads_begin="0, 0" pads_end="0, 0" strides="1, 1"/>
			<rt_info>
				<attribute name="fused_names" value="StatefulPartitionedCall/u_net_1/model_1/block_3_project/Conv2D_1" version="0"/>
			</rt_info>
			<input>
				<port id="0" precision="FP32">
					<dim>-1</dim>
					<dim>144</dim>
					<dim>80</dim>
					<dim>80</dim>
				</port>
				<port id="1" precision="FP32">
					<dim>32</dim>
					<dim>144</dim>
					<dim>1</dim>
					<dim>1</dim>
				</port>
			</input>
			<output>
…
					<dim>-1</dim>
					<dim>128</dim>
					<dim>640</dim>
					<dim>640</dim>
				</port>
			</output>
		</layer>
		<layer id="470" name="StatefulPartitionedCall/u_net_1/convolution_bn_activation_12/activation_13/Relu" type="ReLU" version="opset1">
			<rt_info>
				<attribute name="fused_names" value="StatefulPartitionedCall/u_net_1/convolution_bn_activation_12/activation_13/Relu" version="0"/>
			</rt_info>
			<input>
				<port id="0" precision="FP32">
					<dim>-1</dim>
					<dim>128</dim>
					<dim>640</dim>
					<dim>640</dim>
				</port>
			</input>
			<output>
				<port id="1" names="StatefulPartitionedCall/u_net_1/convolution_bn_activation_12/activation_13/Relu:0" precision="FP32">
					<dim>-1</dim>
					<dim>128</dim>
					<dim>640</dim>
					<dim>640</dim>
				</port>
			</output>
		</layer>
		<layer id="471" name="StatefulPartitionedCall/u_net_1/convolution_bn_activation_13/batch_normalization_1/FusedBatchNormV3/mean/Fused_Mul__copy" type="Const" version="opset1">
			<data element_type="f32" offset="60382672" shape="128, 128, 3, 3" size="589824"/>
			<rt_info>
				<attribute name="fused_names" value="StatefulPartitionedCall/u_net_1/convolution_bn_activation_13/batch_normalization_1/FusedBatchNormV3/mean/Fused_Mul__copy" version="0"/>
			</rt_info>
			<output>
				<port id="0" names="StatefulPartitionedCall/u_net_1/convolution_bn_activation_13/conv2d_1/Conv2D/ReadVariableOp:0" precision="FP32">
					<dim>128</dim>
					<dim>128</dim>
					<dim>3</dim>
					<dim>3</dim>
				</port>
			</output>
		</layer>
		<layer id="472" name="StatefulPartitionedCall/u_net_1/convolution_bn_activation_13/conv2d_1/Conv2D" type="Convolution" version="opset1">
			<data auto_pad="same_upper" dilations="1, 1" pads_begin="0, 0" pads_end="0, 0" strides="1, 1"/>
			<rt_info>
				<attribute name="fused_names" value="StatefulPartitionedCall/u_net_1/convolution_bn_activation_13/conv2d_1/Conv2D" version="0"/>
			</rt_info>
			<input>
				<port id="0" precision="FP32">
					<dim>-1</dim>
					<dim>128</dim>
					<dim>640</dim>
					<dim>640</dim>
				</port>
				<port id="1" precision="FP32">
					<dim>128</dim>
					<dim>128</dim>
					<dim>3</dim>
					<dim>3</dim>
				</port>
			</input>
			<output>
				<port id="2" names="StatefulPartitionedCall/u_net_1/convolution_bn_activation_13/batch_normalization_1/FusedBatchNormV3:0" precision="FP32">
					<dim>-1</dim>
					<dim>128</dim>
					<dim>640</dim>
					<dim>640</dim>
				</port>
			</output>
		</layer>
		<layer id="473" name="StatefulPartitionedCall/u_net_1/convolution_bn_activation_13/activation_14/Relu" type="ReLU" version="opset1">
			<rt_info>
				<attribute name="fused_names" value="StatefulPartitionedCall/u_net_1/convolution_bn_activation_13/activation_14/Relu" version="0"/>
			</rt_info>
			<input>
				<port id="0" precision="FP32">
					<dim>-1</dim>
					<dim>128</dim>
					<dim>640</dim>
					<dim>640</dim>
				</port>
			</input>
			<output>
				<port id="1" names="StatefulPartitionedCall/u_net_1/convolution_bn_activation_13/activation_14/Relu:0" precision="FP32">
					<dim>-1</dim>
					<dim>128</dim>
					<dim>640</dim>
					<dim>640</dim>
				</port>
			</output>
		</layer>
		<layer id="474" name="StatefulPartitionedCall/u_net_1/upsample_x2__block_9/concatenate_9/concat" type="Concat" version="opset1">
			<data axis="1"/>
			<rt_info>
				<attribute name="fused_names" value="StatefulPartitionedCall/u_net_1/upsample_x2__block_9/concatenate_9/concat" version="0"/>
			</rt_info>
			<input>
				<port id="0" precision="FP32">
					<dim>-1</dim>
					<dim>32</dim>
					<dim>640</dim>
					<dim>640</dim>
				</port>
				<port id="1" precision="FP32">
					<dim>-1</dim>
					<dim>128</dim>
					<dim>640</dim>
					<dim>640</dim>
				</port>
			</input>
			<output>
				<port id="2" names="StatefulPartitionedCall/u_net_1/upsample_x2__block_9/concatenate_9/concat:0" precision="FP32">
					<dim>-1</dim>
					<dim>160</dim>
					<dim>640</dim>
					<dim>640</dim>
				</port>
			</output>
		</layer>
		<layer id="475" name="StatefulPartitionedCall/u_net_1/upsample_x2__block_9/convolution_bn_activation_22/batch_normalization_10/FusedBatchNormV3/mean/Fused_Mul__copy" type="Const" version="opset1">
			<data element_type="f32" offset="60972496" shape="32, 160, 3, 3" size="184320"/>
			<rt_info>
				<attribute name="fused_names" value="StatefulPartitionedCall/u_net_1/upsample_x2__block_9/convolution_bn_activation_22/batch_normalization_10/FusedBatchNormV3/mean/Fused_Mul__copy" version="0"/>
			</rt_info>
			<output>
				<port id="0" names="StatefulPartitionedCall/u_net_1/upsample_x2__block_9/convolution_bn_activation_22/conv2d_10/Conv2D/ReadVariableOp:0" precision="FP32">
					<dim>32</dim>
					<dim>160</dim>
					<dim>3</dim>
					<dim>3</dim>
				</port>
			</output>
		</layer>
		<layer id="476" name="StatefulPartitionedCall/u_net_1/upsample_x2__block_9/convolution_bn_activation_22/conv2d_10/Conv2D" type="Convolution" version="opset1">
			<data auto_pad="same_upper" dilations="1, 1" pads_begin="0, 0" pads_end="0, 0" strides="1, 1"/>
			<rt_info>
				<attribute name="fused_names" value="StatefulPartitionedCall/u_net_1/upsample_x2__block_9/convolution_bn_activation_22/conv2d_10/Conv2D" version="0"/>
			</rt_info>
			<input>
				<port id="0" precision="FP32">
					<dim>-1</dim>
					<dim>160</dim>
					<dim>640</dim>
					<dim>640</dim>
				</port>
				<port id="1" precision="FP32">
					<dim>32</dim>
					<dim>160</dim>
					<dim>3</dim>
					<dim>3</dim>
				</port>
			</input>
			<output>
				<port id="2" names="StatefulPartitionedCall/u_net_1/upsample_x2__block_9/convolution_bn_activation_22/batch_normalization_10/FusedBatchNormV3:0" precision="FP32">
					<dim>-1</dim>
					<dim>32</dim>
					<dim>640</dim>
					<dim>640</dim>
				</port>
			</output>
		</layer>
		<layer id="477" name="StatefulPartitionedCall/u_net_1/upsample_x2__block_9/convolution_bn_activation_22/activation_23/Relu" type="ReLU" version="opset1">
			<rt_info>
				<attribute name="fused_names" value="StatefulPartitionedCall/u_net_1/upsample_x2__block_9/convolution_bn_activation_22/activation_23/Relu" version="0"/>
			</rt_info>
			<input>
				<port id="0" precision="FP32">
					<dim>-1</dim>
					<dim>32</dim>
					<dim>640</dim>
					<dim>640</dim>
				</port>
			</input>
			<output>
				<port id="1" names="StatefulPartitionedCall/u_net_1/upsample_x2__block_9/convolution_bn_activation_22/activation_23/Relu:0" precision="FP32">
					<dim>-1</dim>
					<dim>32</dim>
					<dim>640</dim>
					<dim>640</dim>
				</port>
			</output>
		</layer>
		<layer id="478" name="StatefulPartitionedCall/u_net_1/upsample_x2__block_9/convolution_bn_activation_23/batch_normalization_11/FusedBatchNormV3/mean/Fused_Mul__copy" type="Const" version="opset1">
			<data element_type="f32" offset="61156816" shape="32, 32, 3, 3" size="36864"/>
			<rt_info>
				<attribute name="fused_names" value="StatefulPartitionedCall/u_net_1/upsample_x2__block_9/convolution_bn_activation_23/batch_normalization_11/FusedBatchNormV3/mean/Fused_Mul__copy" version="0"/>
			</rt_info>
			<output>
				<port id="0" names="StatefulPartitionedCall/u_net_1/upsample_x2__block_9/convolution_bn_activation_23/conv2d_11/Conv2D/ReadVariableOp:0" precision="FP32">
					<dim>32</dim>
					<dim>32</dim>
					<dim>3</dim>
					<dim>3</dim>
				</port>
			</output>
		</layer>
		<layer id="479" name="StatefulPartitionedCall/u_net_1/upsample_x2__block_9/convolution_bn_activation_23/conv2d_11/Conv2D" type="Convolution" version="opset1">
			<data auto_pad="same_upper" dilations="1, 1" pads_begin="0, 0" pads_end="0, 0" strides="1, 1"/>
			<rt_info>
				<attribute name="fused_names" value="StatefulPartitionedCall/u_net_1/upsample_x2__block_9/convolution_bn_activation_23/conv2d_11/Conv2D" version="0"/>
			</rt_info>
			<input>
				<port id="0" precision="FP32">
					<dim>-1</dim>
					<dim>32</dim>
					<dim>640</dim>
					<dim>640</dim>
				</port>
				<port id="1" precision="FP32">
					<dim>32</dim>
					<dim>32</dim>
					<dim>3</dim>
					<dim>3</dim>
				</port>
			</input>
			<output>
				<port id="2" names="StatefulPartitionedCall/u_net_1/upsample_x2__block_9/convolution_bn_activation_23/batch_normalization_11/FusedBatchNormV3:0" precision="FP32">
					<dim>-1</dim>
					<dim>32</dim>
					<dim>640</dim>
					<dim>640</dim>
				</port>
			</output>
		</layer>
		<layer id="480" name="StatefulPartitionedCall/u_net_1/upsample_x2__block_9/convolution_bn_activation_23/activation_24/Relu" type="ReLU" version="opset1">
			<rt_info>
				<attribute name="fused_names" value="StatefulPartitionedCall/u_net_1/upsample_x2__block_9/convolution_bn_activation_23/activation_24/Relu" version="0"/>
			</rt_info>
			<input>
				<port id="0" precision="FP32">
					<dim>-1</dim>
					<dim>32</dim>
					<dim>640</dim>
					<dim>640</dim>
				</port>
			</input>
			<output>
				<port id="1" names="StatefulPartitionedCall/u_net_1/upsample_x2__block_9/convolution_bn_activation_23/activation_24/Relu:0" precision="FP32">
					<dim>-1</dim>
					<dim>32</dim>
					<dim>640</dim>
					<dim>640</dim>
				</port>
			</output>
		</layer>
		<layer id="481" name="StatefulPartitionedCall/u_net_1/conv2d_11/Conv2D/ReadVariableOp" type="Const" version="opset1">
			<data element_type="f32" offset="61193680" shape="4, 32, 3, 3" size="4608"/>
			<rt_info>
				<attribute name="fused_names" value="StatefulPartitionedCall/u_net_1/conv2d_11/Conv2D/ReadVariableOp" version="0"/>
			</rt_info>
			<output>
				<port id="0" names="StatefulPartitionedCall/u_net_1/conv2d_11/Conv2D/ReadVariableOp:0" precision="FP32">
					<dim>4</dim>
					<dim>32</dim>
					<dim>3</dim>
					<dim>3</dim>
				</port>
			</output>
		</layer>
		<layer id="482" name="StatefulPartitionedCall/u_net_1/conv2d_11/Conv2D" type="Convolution" version="opset1">
			<data auto_pad="same_upper" dilations="1, 1" pads_begin="0, 0" pads_end="0, 0" strides="1, 1"/>
			<rt_info>
				<attribute name="fused_names" value="StatefulPartitionedCall/u_net_1/conv2d_11/BiasAdd/Add, StatefulPartitionedCall/u_net_1/conv2d_11/Conv2D" version="0"/>
			</rt_info>
			<input>
				<port id="0" precision="FP32">
					<dim>-1</dim>
					<dim>32</dim>
					<dim>640</dim>
					<dim>640</dim>
				</port>
				<port id="1" precision="FP32">
					<dim>4</dim>
					<dim>32</dim>
					<dim>3</dim>
					<dim>3</dim>
				</port>
			</input>
			<output>
				<port id="2" names="StatefulPartitionedCall/u_net_1/conv2d_11/BiasAdd:0,StatefulPartitionedCall/u_net_1/conv2d_11/Conv2D:0" precision="FP32">
					<dim>-1</dim>
					<dim>4</dim>
					<dim>640</dim>
					<dim>640</dim>
				</port>
			</output>
		</layer>
		<layer id="483" name="StatefulPartitionedCall/u_net_1/activation_25/Softmax/prev" type="SoftMax" version="opset8">
			<data axis="1"/>
			<rt_info>
				<attribute name="fused_names" value="StatefulPartitionedCall/u_net_1/activation_25/Softmax/prev" version="0"/>
			</rt_info>
			<input>
				<port id="0" precision="FP32">
					<dim>-1</dim>
					<dim>4</dim>
					<dim>640</dim>
					<dim>640</dim>
				</port>
			</input>
			<output>
				<port id="1" precision="FP32">
					<dim>-1</dim>
					<dim>4</dim>
					<dim>640</dim>
					<dim>640</dim>
				</port>
			</output>
		</layer>
		<layer id="484" name="40775/value4077750592" type="Const" version="opset1">
			<data element_type="i64" offset="61198288" shape="4" size="32"/>
			<rt_info>
				<attribute name="fused_names" value="40775/value4077750592" version="0"/>
			</rt_info>
			<output>
				<port id="0" precision="I64">
					<dim>4</dim>
				</port>
			</output>
		</layer>
		<layer id="485" name="StatefulPartitionedCall/u_net_1/activation_25/Softmax" type="Transpose" version="opset1">
			<rt_info>
				<attribute name="fused_names" value="StatefulPartitionedCall/u_net_1/activation_25/Softmax" version="0"/>
			</rt_info>
			<input>
				<port id="0" precision="FP32">
					<dim>-1</dim>
					<dim>4</dim>
					<dim>640</dim>
					<dim>640</dim>
				</port>
				<port id="1" precision="I64">
					<dim>4</dim>
				</port>
			</input>
			<output>
				<port id="2" names="Func/StatefulPartitionedCall/output/_345:0,Identity:0,StatefulPartitionedCall/Identity:0,StatefulPartitionedCall/u_net_1/activation_25/Softmax:0" precision="FP32">
					<dim>-1</dim>
					<dim>640</dim>
					<dim>640</dim>
					<dim>4</dim>
				</port>
			</output>
		</layer>
		<layer id="486" name="Func/StatefulPartitionedCall/output/_345:0" type="Result" version="opset1">
			<rt_info>
				<attribute name="fused_names" value="Func/StatefulPartitionedCall/output/_345:0" version="0"/>
				<attribute name="old_api_map_order" value="0, 3, 1, 2" version="0"/>
			</rt_info>
			<input>
				<port id="0" precision="FP32">
					<dim>-1</dim>
					<dim>640</dim>
					<dim>640</dim>
					<dim>4</dim>
				</port>
			</input>
		</layer>
	</layers>
	<edges>
		<edge from-layer="0" from-port="0" to-layer="2" to-port="0"/>
		<edge from-layer="1" from-port="0" to-layer="2" to-port="1"/>
		<edge from-layer="2" from-port="2" to-layer="4" to-port="0"/>
		<edge from-layer="2" from-port="2" to-layer="307" to-port="0"/>
		<edge from-layer="2" from-port="2" to-layer="384" to-port="0"/>
		<edge from-layer="2" from-port="2" to-layer="435" to-port="0"/>
		<edge from-layer="2" from-port="2" to-layer="169" to-port="0"/>
		<edge from-layer="2" from-port="2" to-layer="469" to-port="0"/>
		<edge from-layer="3" from-port="0" to-layer="4" to-port="1"/>
		<edge from-layer="4" from-port="2" to-layer="5" to-port="0"/>
		<edge from-layer="5" from-port="1" to-layer="7" to-port="0"/>
		<edge from-layer="6" from-port="0" to-layer="7" to-port="1"/>
		<edge from-layer="7" from-port="2" to-layer="8" to-port="0"/>
		<edge from-layer="8" from-port="1" to-layer="10" to-port="0"/>
		<edge from-layer="9" from-port="0" to-layer="10" to-port="1"/>
		<edge from-layer="10" from-port="2" to-layer="12" to-port="0"/>
		<edge from-layer="11" from-port="0" to-layer="12" to-port="1"/>
		<edge from-layer="12" from-port="2" to-layer="13" to-port="0"/>
		<edge from-layer="13" from-port="1" to-layer="15" to-port="0"/>
		<edge from-layer="14" from-port="0" to-layer="15" to-port="1"/>
		<edge from-layer="15" from-port="2" to-layer="16" to-port="0"/>
		<edge from-layer="16" from-port="1" to-layer="18" to-port="0"/>
		<edge from-layer="17" from-port="0" to-layer="18" to-port="1"/>
		<edge from-layer="18" from-port="2" to-layer="27" to-port="0"/>
		<edge from-layer="18" from-port="2" to-layer="20" to-port="0"/>
		<edge from-layer="19" from-port="0" to-layer="20" to-port="1"/>
		<edge from-layer="20" from-port="2" to-layer="21" to-port="0"/>
		<edge from-layer="21" from-port="1" to-layer="23" to-port="0"/>
		<edge from-layer="22" from-port="0" to-layer="23" to-port="1"/>
		<edge from-layer="23" from-port="2" to-layer="24" to-port="0"/>
		<edge from-layer="24" from-port="1" to-layer="26" to-port="0"/>
		<edge from-layer="25" from-port="0" to-layer="26" to-port="1"/>
		<edge from-layer="26" from-port="2" to-layer="27" to-port="1"/>
		<edge from-layer="27" from-port="2" to-layer="29" to-port="0"/>
		<edge from-layer="28" from-port="0" to-layer="29" to-port="1"/>
		<edge from-layer="29" from-port="2" to-layer="30" to-port="0"/>
		<edge from-layer="30" from-port="1" to-layer="32" to-port="0"/>
		<edge from-layer="31" from-port="0" to-layer="32" to-port="1"/>
		<edge from-layer="32" from-port="2" to-layer="33" to-port="0"/>
		<edge from-layer="33" from-port="1" to-layer="35" to-port="0"/>
		<edge from-layer="34" from-port="0" to-layer="35" to-port="1"/>
		<edge from-layer="35" from-port="2" to-layer="37" to-port="0"/>
		<edge from-layer="35" from-port="2" to-layer="44" to-port="0"/>
		<edge from-layer="36" from-port="0" to-layer="37" to-port="1"/>
		<edge from-layer="37" from-port="2" to-layer="38" to-port="0"/>
		<edge from-layer="38" from-port="1" to-layer="40" to-port="0"/>
		<edge from-layer="39" from-port="0" to-layer="40" to-port="1"/>
		<edge from-layer="40" from-port="2" to-layer="41" to-port="0"/>
		<edge from-layer="41" from-port="1" to-layer="43" to-port="0"/>
		<edge from-layer="42" from-port="0" to-layer="43" to-port="1"/>
		<edge from-layer="43" from-port="2" to-layer="44" to-port="1"/>
		<edge from-layer="44" from-port="2" to-layer="46" to-port="0"/>
		<edge from-layer="44" from-port="2" to-layer="53" to-port="0"/>
		<edge from-layer="45" from-port="0" to-layer="46" to-port="1"/>
		<edge from-layer="46" from-port="2" to-layer="47" to-port="0"/>
		<edge from-layer="47" from-port="1" to-layer="49" to-port="0"/>
		<edge from-layer="48" from-port="0" to-layer="49" to-port="1"/>
		<edge from-layer="49" from-port="2" to-layer="50" to-port="0"/>
		<edge from-layer="50" from-port="1" to-layer="52" to-port="0"/>
		<edge from-layer="51" from-port="0" to-layer="52" to-port="1"/>
		<edge from-layer="52" from-port="2" to-layer="53" to-port="1"/>
		<edge from-layer="53" from-port="2" to-layer="55" to-port="0"/>
		<edge from-layer="54" from-port="0" to-layer="55" to-port="1"/>
		<edge from-layer="55" from-port="2" to-layer="56" to-port="0"/>
		<edge from-layer="56" from-port="1" to-layer="58" to-port="0"/>
		<edge from-layer="57" from-port="0" to-layer="58" to-port="1"/>
		<edge from-layer="58" from-port="2" to-layer="59" to-port="0"/>
		<edge from-layer="59" from-port="1" to-layer="61" to-port="0"/>
		<edge from-layer="60" from-port="0" to-layer="61" to-port="1"/>
		<edge from-layer="61" from-port="2" to-layer="63" to-port="0"/>
		<edge from-layer="61" from-port="2" to-layer="70" to-port="0"/>
		<edge from-layer="62" from-port="0" to-layer="63" to-port="1"/>
		<edge from-layer="63" from-port="2" to-layer="64" to-port="0"/>
		<edge from-layer="64" from-port="1" to-layer="66" to-port="0"/>
		<edge from-layer="65" from-port="0" to-layer="66" to-port="1"/>
		<edge from-layer="66" from-port="2" to-layer="67" to-port="0"/>
		<edge from-layer="67" from-port="1" to-layer="69" to-port="0"/>
		<edge from-layer="68" from-port="0" to-layer="69" to-port="1"/>
		<edge from-layer="69" from-port="2" to-layer="70" to-port="1"/>
		<edge from-layer="70" from-port="2" to-layer="79" to-port="0"/>
		<edge from-layer="70" from-port="2" to-layer="72" to-port="0"/>
		<edge from-layer="71" from-port="0" to-layer="72" to-port="1"/>
		<edge from-layer="72" from-port="2" to-layer="73" to-port="0"/>
		<edge from-layer="73" from-port="1" to-layer="75" to-port="0"/>
		<edge from-layer="74" from-port="0" to-layer="75" to-port="1"/>
		<edge from-layer="75" from-port="2" to-layer="76" to-port="0"/>
		<edge from-layer="76" from-port="1" to-layer="78" to-port="0"/>
		<edge from-layer="77" from-port="0" to-layer="78" to-port="1"/>
		<edge from-layer="78" from-port="2" to-layer="79" to-port="1"/>
		<edge from-layer="79" from-port="2" to-layer="81" to-port="0"/>
		<edge from-layer="79" from-port="2" to-layer="88" to-port="0"/>
		<edge from-layer="80" from-port="0" to-layer="81" to-port="1"/>
		<edge from-layer="81" from-port="2" to-layer="82" to-port="0"/>
		<edge from-layer="82" from-port="1" to-layer="84" to-port="0"/>
		<edge from-layer="83" from-port="0" to-layer="84" to-port="1"/>
		<edge from-layer="84" from-port="2" to-layer="85" to-port="0"/>
		<edge from-layer="85" from-port="1" to-layer="87" to-port="0"/>
		<edge from-layer="86" from-port="0" to-layer="87" to-port="1"/>
		<edge from-layer="87" from-port="2" to-layer="88" to-port="1"/>
		<edge from-layer="88" from-port="2" to-layer="90" to-port="0"/>
		<edge from-layer="89" from-port="0" to-layer="90" to-port="1"/>
		<edge from-layer="90" from-port="2" to-layer="91" to-port="0"/>
		<edge from-layer="91" from-port="1" to-layer="93" to-port="0"/>
		<edge from-layer="92" from-port="0" to-layer="93" to-port="1"/>
		<edge from-layer="93" from-port="2" to-layer="94" to-port="0"/>
		<edge from-layer="94" from-port="1" to-layer="96" to-port="0"/>
		<edge from-layer="95" from-port="0" to-layer="96" to-port="1"/>
		<edge from-layer="96" from-port="2" to-layer="98" to-port="0"/>
		<edge from-layer="96" from-port="2" to-layer="105" to-port="0"/>
		<edge from-layer="97" from-port="0" to-layer="98" to-port="1"/>
		<edge from-layer="98" from-port="2" to-layer="99" to-port="0"/>
		<edge from-layer="99" from-port="1" to-layer="101" to-port="0"/>
		<edge from-layer="100" from-port="0" to-layer="101" to-port="1"/>
		<edge from-layer="101" from-port="2" to-layer="102" to-port="0"/>
		<edge from-layer="102" from-port="1" to-layer="104" to-port="0"/>
		<edge from-layer="103" from-port="0" to-layer="104" to-port="1"/>
		<edge from-layer="104" from-port="2" to-layer="105" to-port="1"/>
		<edge from-layer="105" from-port="2" to-layer="114" to-port="0"/>
		<edge from-layer="105" from-port="2" to-layer="107" to-port="0"/>
		<edge from-layer="106" from-port="0" to-layer="107" to-port="1"/>
		<edge from-layer="107" from-port="2" to-layer="108" to-port="0"/>
		<edge from-layer="108" from-port="1" to-layer="110" to-port="0"/>
		<edge from-layer="109" from-port="0" to-layer="110" to-port="1"/>
		<edge from-layer="110" from-port="2" to-layer="111" to-port="0"/>
		<edge from-layer="111" from-port="1" to-layer="113" to-port="0"/>
		<edge from-layer="112" from-port="0" to-layer="113" to-port="1"/>
		<edge from-layer="113" from-port="2" to-layer="114" to-port="1"/>
		<edge from-layer="114" from-port="2" to-layer="116" to-port="0"/>
		<edge from-layer="115" from-port="0" to-layer="116" to-port="1"/>
		<edge from-layer="116" from-port="2" to-layer="117" to-port="0"/>
		<edge from-layer="117" from-port="1" to-layer="119" to-port="0"/>
		<edge from-layer="118" from-port="0" to-layer="119" to-port="1"/>
		<edge from-layer="119" from-port="2" to-layer="120" to-port="0"/>
		<edge from-layer="120" from-port="1" to-layer="122" to-port="0"/>
		<edge from-layer="121" from-port="0" to-layer="122" to-port="1"/>
		<edge from-layer="122" from-port="2" to-layer="131" to-port="0"/>
		<edge from-layer="122" from-port="2" to-layer="124" to-port="0"/>
		<edge from-layer="123" from-port="0" to-layer="124" to-port="1"/>
		<edge from-layer="124" from-port="2" to-layer="125" to-port="0"/>
		<edge from-layer="125" from-port="1" to-layer="127" to-port="0"/>
		<edge from-layer="126" from-port="0" to-layer="127" to-port="1"/>
		<edge from-layer="127" from-port="2" to-layer="128" to-port="0"/>
		<edge from-layer="128" from-port="1" to-layer="130" to-port="0"/>
		<edge from-layer="129" from-port="0" to-layer="130" to-port="1"/>
		<edge from-layer="130" from-port="2" to-layer="131" to-port="1"/>
		<edge from-layer="131" from-port="2" to-layer="133" to-port="0"/>
		<edge from-layer="131" from-port="2" to-layer="140" to-port="0"/>
		<edge from-layer="132" from-port="0" to-layer="133" to-port="1"/>
		<edge from-layer="133" from-port="2" to-layer="134" to-port="0"/>
		<edge from-layer="134" from-port="1" to-layer="136" to-port="0"/>
		<edge from-layer="135" from-port="0" to-layer="136" to-port="1"/>
		<edge from-layer="136" from-port="2" to-layer="137" to-port="0"/>
		<edge from-layer="137" from-port="1" to-layer="139" to-port="0"/>
		<edge from-layer="138" from-port="0" to-layer="139" to-port="1"/>
		<edge from-layer="139" from-port="2" to-layer="140" to-port="1"/>
		<edge from-layer="140" from-port="2" to-layer="142" to-port="0"/>
		<edge from-layer="141" from-port="0" to-layer="142" to-port="1"/>
		<edge from-layer="142" from-port="2" to-layer="143" to-port="0"/>
		<edge from-layer="143" from-port="1" to-layer="145" to-port="0"/>
		<edge from-layer="144" from-port="0" to-layer="145" to-port="1"/>
		<edge from-layer="145" from-port="2" to-layer="146" to-port="0"/>
		<edge from-layer="146" from-port="1" to-layer="148" to-port="0"/>
		<edge from-layer="147" from-port="0" to-layer="148" to-port="1"/>
		<edge from-layer="148" from-port="2" to-layer="150" to-port="0"/>
		<edge from-layer="149" from-port="0" to-layer="150" to-port="1"/>
		<edge from-layer="150" from-port="2" to-layer="151" to-port="0"/>
		<edge from-layer="151" from-port="1" to-layer="154" to-port="0"/>
		<edge from-layer="151" from-port="1" to-layer="165" to-port="0"/>
		<edge from-layer="152" from-port="0" to-layer="165" to-port="1"/>
		<edge from-layer="153" from-port="0" to-layer="163" to-port="0"/>
		<edge from-layer="154" from-port="1" to-layer="157" to-port="0"/>
		<edge from-layer="155" from-port="0" to-layer="157" to-port="1"/>
		<edge from-layer="156" from-port="0" to-layer="157" to-port="2"/>
		<edge from-layer="157" from-port="3" to-layer="161" to-port="0"/>
		<edge from-layer="158" from-port="0" to-layer="161" to-port="1"/>
		<edge from-layer="159" from-port="0" to-layer="161" to-port="2"/>
		<edge from-layer="160" from-port="0" to-layer="161" to-port="3"/>
		<edge from-layer="161" from-port="4" to-layer="162" to-port="0"/>
		<edge from-layer="162" from-port="1" to-layer="163" to-port="1"/>
		<edge from-layer="163" from-port="2" to-layer="165" to-port="2"/>
		<edge from-layer="164" from-port="0" to-layer="165" to-port="3"/>
		<edge from-layer="165" from-port="4" to-layer="167" to-port="0"/>
		<edge from-layer="166" from-port="0" to-layer="167" to-port="1"/>
		<edge from-layer="167" from-port="2" to-layer="283" to-port="0"/>
		<edge from-layer="168" from-port="0" to-layer="169" to-port="1"/>
		<edge from-layer="169" from-port="2" to-layer="170" to-port="0"/>
		<edge from-layer="170" from-port="1" to-layer="172" to-port="0"/>
		<edge from-layer="171" from-port="0" to-layer="172" to-port="1"/>
		<edge from-layer="172" from-port="2" to-layer="173" to-port="0"/>
		<edge from-layer="173" from-port="1" to-layer="175" to-port="0"/>
		<edge from-layer="174" from-port="0" to-layer="175" to-port="1"/>
		<edge from-layer="175" from-port="2" to-layer="177" to-port="0"/>
		<edge from-layer="176" from-port="0" to-layer="177" to-port="1"/>
		<edge from-layer="177" from-port="2" to-layer="178" to-port="0"/>
		<edge from-layer="178" from-port="1" to-layer="180" to-port="0"/>
		<edge from-layer="179" from-port="0" to-layer="180" to-port="1"/>
		<edge from-layer="180" from-port="2" to-layer="181" to-port="0"/>
		<edge from-layer="181" from-port="1" to-layer="183" to-port="0"/>
		<edge from-layer="182" from-port="0" to-layer="183" to-port="1"/>
		<edge from-layer="183" from-port="2" to-layer="185" to-port="0"/>
		<edge from-layer="183" from-port="2" to-layer="192" to-port="0"/>
		<edge from-layer="184" from-port="0" to-layer="185" to-port="1"/>
		<edge from-layer="185" from-port="2" to-layer="186" to-port="0"/>
		<edge from-layer="186" from-port="1" to-layer="188" to-port="0"/>
		<edge from-layer="187" from-port="0" to-layer="188" to-port="1"/>
		<edge from-layer="188" from-port="2" to-layer="189" to-port="0"/>
		<edge from-layer="189" from-port="1" to-layer="191" to-port="0"/>
		<edge from-layer="190" from-port="0" to-layer="191" to-port="1"/>
		<edge from-layer="191" from-port="2" to-layer="192" to-port="1"/>
		<edge from-layer="192" from-port="2" to-layer="194" to-port="0"/>
		<edge from-layer="193" from-port="0" to-layer="194" to-port="1"/>
		<edge from-layer="194" from-port="2" to-layer="195" to-port="0"/>
		<edge from-layer="195" from-port="1" to-layer="197" to-port="0"/>
		<edge from-layer="196" from-port="0" to-layer="197" to-port="1"/>
		<edge from-layer="197" from-port="2" to-layer="198" to-port="0"/>
		<edge from-layer="198" from-port="1" to-layer="200" to-port="0"/>
		<edge from-layer="199" from-port="0" to-layer="200" to-port="1"/>
		<edge from-layer="200" from-port="2" to-layer="202" to-port="0"/>
		<edge from-layer="200" from-port="2" to-layer="209" to-port="0"/>
		<edge from-layer="201" from-port="0" to-layer="202" to-port="1"/>
		<edge from-layer="202" from-port="2" to-layer="203" to-port="0"/>
		<edge from-layer="203" from-port="1" to-layer="205" to-port="0"/>
		<edge from-layer="204" from-port="0" to-layer="205" to-port="1"/>
		<edge from-layer="205" from-port="2" to-layer="206" to-port="0"/>
		<edge from-layer="206" from-port="1" to-layer="208" to-port="0"/>
		<edge from-layer="207" from-port="0" to-layer="208" to-port="1"/>
		<edge from-layer="208" from-port="2" to-layer="209" to-port="1"/>
		<edge from-layer="209" from-port="2" to-layer="218" to-port="0"/>
		<edge from-layer="209" from-port="2" to-layer="211" to-port="0"/>
		<edge from-layer="210" from-port="0" to-layer="211" to-port="1"/>
		<edge from-layer="211" from-port="2" to-layer="212" to-port="0"/>
		<edge from-layer="212" from-port="1" to-layer="214" to-port="0"/>
		<edge from-layer="213" from-port="0" to-layer="214" to-port="1"/>
		<edge from-layer="214" from-port="2" to-layer="215" to-port="0"/>
		<edge from-layer="215" from-port="1" to-layer="217" to-port="0"/>
		<edge from-layer="216" from-port="0" to-layer="217" to-port="1"/>
		<edge from-layer="217" from-port="2" to-layer="218" to-port="1"/>
		<edge from-layer="218" from-port="2" to-layer="220" to-port="0"/>
		<edge from-layer="219" from-port="0" to-layer="220" to-port="1"/>
		<edge from-layer="220" from-port="2" to-layer="221" to-port="0"/>
		<edge from-layer="221" from-port="1" to-layer="223" to-port="0"/>
		<edge from-layer="222" from-port="0" to-layer="223" to-port="1"/>
		<edge from-layer="223" from-port="2" to-layer="224" to-port="0"/>
		<edge from-layer="224" from-port="1" to-layer="226" to-port="0"/>
		<edge from-layer="225" from-port="0" to-layer="226" to-port="1"/>
		<edge from-layer="226" from-port="2" to-layer="235" to-port="0"/>
		<edge from-layer="226" from-port="2" to-layer="228" to-port="0"/>
		<edge from-layer="227" from-port="0" to-layer="228" to-port="1"/>
		<edge from-layer="228" from-port="2" to-layer="229" to-port="0"/>
		<edge from-layer="229" from-port="1" to-layer="231" to-port="0"/>
		<edge from-layer="230" from-port="0" to-layer="231" to-port="1"/>
		<edge from-layer="231" from-port="2" to-layer="232" to-port="0"/>
		<edge from-layer="232" from-port="1" to-layer="234" to-port="0"/>
		<edge from-layer="233" from-port="0" to-layer="234" to-port="1"/>
		<edge from-layer="234" from-port="2" to-layer="235" to-port="1"/>
		<edge from-layer="235" from-port="2" to-layer="237" to-port="0"/>
		<edge from-layer="235" from-port="2" to-layer="244" to-port="0"/>
		<edge from-layer="236" from-port="0" to-layer="237" to-port="1"/>
		<edge from-layer="237" from-port="2" to-layer="238" to-port="0"/>
		<edge from-layer="238" from-port="1" to-layer="240" to-port="0"/>
		<edge from-layer="239" from-port="0" to-layer="240" to-port="1"/>
		<edge from-layer="240" from-port="2" to-layer="241" to-port="0"/>
		<edge from-layer="241" from-port="1" to-layer="243" to-port="0"/>
		<edge from-layer="242" from-port="0" to-layer="243" to-port="1"/>
		<edge from-layer="243" from-port="2" to-layer="244" to-port="1"/>
		<edge from-layer="244" from-port="2" to-layer="246" to-port="0"/>
		<edge from-layer="244" from-port="2" to-layer="253" to-port="0"/>
		<edge from-layer="245" from-port="0" to-layer="246" to-port="1"/>
		<edge from-layer="246" from-port="2" to-layer="247" to-port="0"/>
		<edge from-layer="247" from-port="1" to-layer="249" to-port="0"/>
		<edge from-layer="248" from-port="0" to-layer="249" to-port="1"/>
		<edge from-layer="249" from-port="2" to-layer="250" to-port="0"/>
		<edge from-layer="250" from-port="1" to-layer="252" to-port="0"/>
		<edge from-layer="251" from-port="0" to-layer="252" to-port="1"/>
		<edge from-layer="252" from-port="2" to-layer="253" to-port="1"/>
		<edge from-layer="253" from-port="2" to-layer="255" to-port="0"/>
		<edge from-layer="254" from-port="0" to-layer="255" to-port="1"/>
		<edge from-layer="255" from-port="2" to-layer="256" to-port="0"/>
		<edge from-layer="256" from-port="1" to-layer="258" to-port="0"/>
		<edge from-layer="257" from-port="0" to-layer="258" to-port="1"/>
		<edge from-layer="258" from-port="2" to-layer="259" to-port="0"/>
		<edge from-layer="259" from-port="1" to-layer="261" to-port="0"/>
		<edge from-layer="260" from-port="0" to-layer="261" to-port="1"/>
		<edge from-layer="261" from-port="2" to-layer="263" to-port="0"/>
		<edge from-layer="261" from-port="2" to-layer="270" to-port="0"/>
		<edge from-layer="262" from-port="0" to-layer="263" to-port="1"/>
		<edge from-layer="263" from-port="2" to-layer="264" to-port="0"/>
		<edge from-layer="264" from-port="1" to-layer="266" to-port="0"/>
		<edge from-layer="265" from-port="0" to-layer="266" to-port="1"/>
		<edge from-layer="266" from-port="2" to-layer="267" to-port="0"/>
		<edge from-layer="267" from-port="1" to-layer="269" to-port="0"/>
		<edge from-layer="268" from-port="0" to-layer="269" to-port="1"/>
		<edge from-layer="269" from-port="2" to-layer="270" to-port="1"/>
		<edge from-layer="270" from-port="2" to-layer="272" to-port="0"/>
		<edge from-layer="270" from-port="2" to-layer="279" to-port="0"/>
		<edge from-layer="271" from-port="0" to-layer="272" to-port="1"/>
		<edge from-layer="272" from-port="2" to-layer="273" to-port="0"/>
		<edge from-layer="273" from-port="1" to-layer="275" to-port="0"/>
		<edge from-layer="274" from-port="0" to-layer="275" to-port="1"/>
		<edge from-layer="275" from-port="2" to-layer="276" to-port="0"/>
		<edge from-layer="276" from-port="1" to-layer="278" to-port="0"/>
		<edge from-layer="277" from-port="0" to-layer="278" to-port="1"/>
		<edge from-layer="278" from-port="2" to-layer="279" to-port="1"/>
		<edge from-layer="279" from-port="2" to-layer="281" to-port="0"/>
		<edge from-layer="280" from-port="0" to-layer="281" to-port="1"/>
		<edge from-layer="281" from-port="2" to-layer="282" to-port="0"/>
		<edge from-layer="282" from-port="1" to-layer="283" to-port="1"/>
		<edge from-layer="283" from-port="2" to-layer="285" to-port="0"/>
		<edge from-layer="284" from-port="0" to-layer="285" to-port="1"/>
		<edge from-layer="285" from-port="2" to-layer="286" to-port="0"/>
		<edge from-layer="286" from-port="1" to-layer="288" to-port="0"/>
		<edge from-layer="287" from-port="0" to-layer="288" to-port="1"/>
		<edge from-layer="288" from-port="2" to-layer="289" to-port="0"/>
		<edge from-layer="289" from-port="1" to-layer="292" to-port="0"/>
		<edge from-layer="289" from-port="1" to-layer="303" to-port="0"/>
		<edge from-layer="290" from-port="0" to-layer="303" to-port="1"/>
		<edge from-layer="291" from-port="0" to-layer="301" to-port="0"/>
		<edge from-layer="292" from-port="1" to-layer="295" to-port="0"/>
		<edge from-layer="293" from-port="0" to-layer="295" to-port="1"/>
		<edge from-layer="294" from-port="0" to-layer="295" to-port="2"/>
		<edge from-layer="295" from-port="3" to-layer="299" to-port="0"/>
		<edge from-layer="296" from-port="0" to-layer="299" to-port="1"/>
		<edge from-layer="297" from-port="0" to-layer="299" to-port="2"/>
		<edge from-layer="298" from-port="0" to-layer="299" to-port="3"/>
		<edge from-layer="299" from-port="4" to-layer="300" to-port="0"/>
		<edge from-layer="300" from-port="1" to-layer="301" to-port="1"/>
		<edge from-layer="301" from-port="2" to-layer="303" to-port="2"/>
		<edge from-layer="302" from-port="0" to-layer="303" to-port="3"/>
		<edge from-layer="303" from-port="4" to-layer="305" to-port="0"/>
		<edge from-layer="304" from-port="0" to-layer="305" to-port="1"/>
		<edge from-layer="305" from-port="2" to-layer="360" to-port="0"/>
		<edge from-layer="306" from-port="0" to-layer="307" to-port="1"/>
		<edge from-layer="307" from-port="2" to-layer="308" to-port="0"/>
		<edge from-layer="308" from-port="1" to-layer="310" to-port="0"/>
		<edge from-layer="309" from-port="0" to-layer="310" to-port="1"/>
		<edge from-layer="310" from-port="2" to-layer="311" to-port="0"/>
		<edge from-layer="311" from-port="1" to-layer="313" to-port="0"/>
		<edge from-layer="312" from-port="0" to-layer="313" to-port="1"/>
		<edge from-layer="313" from-port="2" to-layer="315" to-port="0"/>
		<edge from-layer="314" from-port="0" to-layer="315" to-port="1"/>
		<edge from-layer="315" from-port="2" to-layer="316" to-port="0"/>
		<edge from-layer="316" from-port="1" to-layer="318" to-port="0"/>
		<edge from-layer="317" from-port="0" to-layer="318" to-port="1"/>
		<edge from-layer="318" from-port="2" to-layer="319" to-port="0"/>
		<edge from-layer="319" from-port="1" to-layer="321" to-port="0"/>
		<edge from-layer="320" from-port="0" to-layer="321" to-port="1"/>
		<edge from-layer="321" from-port="2" to-layer="323" to-port="0"/>
		<edge from-layer="321" from-port="2" to-layer="330" to-port="0"/>
		<edge from-layer="322" from-port="0" to-layer="323" to-port="1"/>
		<edge from-layer="323" from-port="2" to-layer="324" to-port="0"/>
		<edge from-layer="324" from-port="1" to-layer="326" to-port="0"/>
		<edge from-layer="325" from-port="0" to-layer="326" to-port="1"/>
		<edge from-layer="326" from-port="2" to-layer="327" to-port="0"/>
		<edge from-layer="327" from-port="1" to-layer="329" to-port="0"/>
		<edge from-layer="328" from-port="0" to-layer="329" to-port="1"/>
		<edge from-layer="329" from-port="2" to-layer="330" to-port="1"/>
		<edge from-layer="330" from-port="2" to-layer="332" to-port="0"/>
		<edge from-layer="331" from-port="0" to-layer="332" to-port="1"/>
		<edge from-layer="332" from-port="2" to-layer="333" to-port="0"/>
		<edge from-layer="333" from-port="1" to-layer="335" to-port="0"/>
		<edge from-layer="334" from-port="0" to-layer="335" to-port="1"/>
		<edge from-layer="335" from-port="2" to-layer="336" to-port="0"/>
		<edge from-layer="336" from-port="1" to-layer="338" to-port="0"/>
		<edge from-layer="337" from-port="0" to-layer="338" to-port="1"/>
		<edge from-layer="338" from-port="2" to-layer="340" to-port="0"/>
		<edge from-layer="338" from-port="2" to-layer="347" to-port="0"/>
		<edge from-layer="339" from-port="0" to-layer="340" to-port="1"/>
		<edge from-layer="340" from-port="2" to-layer="341" to-port="0"/>
		<edge from-layer="341" from-port="1" to-layer="343" to-port="0"/>
		<edge from-layer="342" from-port="0" to-layer="343" to-port="1"/>
		<edge from-layer="343" from-port="2" to-layer="344" to-port="0"/>
		<edge from-layer="344" from-port="1" to-layer="346" to-port="0"/>
		<edge from-layer="345" from-port="0" to-layer="346" to-port="1"/>
		<edge from-layer="346" from-port="2" to-layer="347" to-port="1"/>
		<edge from-layer="347" from-port="2" to-layer="349" to-port="0"/>
		<edge from-layer="347" from-port="2" to-layer="356" to-port="0"/>
		<edge from-layer="348" from-port="0" to-layer="349" to-port="1"/>
		<edge from-layer="349" from-port="2" to-layer="350" to-port="0"/>
		<edge from-layer="350" from-port="1" to-layer="352" to-port="0"/>
		<edge from-layer="351" from-port="0" to-layer="352" to-port="1"/>
		<edge from-layer="352" from-port="2" to-layer="353" to-port="0"/>
		<edge from-layer="353" from-port="1" to-layer="355" to-port="0"/>
		<edge from-layer="354" from-port="0" to-layer="355" to-port="1"/>
		<edge from-layer="355" from-port="2" to-layer="356" to-port="1"/>
		<edge from-layer="356" from-port="2" to-layer="358" to-port="0"/>
		<edge from-layer="357" from-port="0" to-layer="358" to-port="1"/>
		<edge from-layer="358" from-port="2" to-layer="359" to-port="0"/>
		<edge from-layer="359" from-port="1" to-layer="360" to-port="1"/>
		<edge from-layer="360" from-port="2" to-layer="362" to-port="0"/>
		<edge from-layer="361" from-port="0" to-layer="362" to-port="1"/>
		<edge from-layer="362" from-port="2" to-layer="363" to-port="0"/>
		<edge from-layer="363" from-port="1" to-layer="365" to-port="0"/>
		<edge from-layer="364" from-port="0" to-layer="365" to-port="1"/>
		<edge from-layer="365" from-port="2" to-layer="366" to-port="0"/>
		<edge from-layer="366" from-port="1" to-layer="380" to-port="0"/>
		<edge from-layer="366" from-port="1" to-layer="369" to-port="0"/>
		<edge from-layer="367" from-port="0" to-layer="380" to-port="1"/>
		<edge from-layer="368" from-port="0" to-layer="378" to-port="0"/>
		<edge from-layer="369" from-port="1" to-layer="372" to-port="0"/>
		<edge from-layer="370" from-port="0" to-layer="372" to-port="1"/>
		<edge from-layer="371" from-port="0" to-layer="372" to-port="2"/>
		<edge from-layer="372" from-port="3" to-layer="376" to-port="0"/>
		<edge from-layer="373" from-port="0" to-layer="376" to-port="1"/>
		<edge from-layer="374" from-port="0" to-layer="376" to-port="2"/>
		<edge from-layer="375" from-port="0" to-layer="376" to-port="3"/>
		<edge from-layer="376" from-port="4" to-layer="377" to-port="0"/>
		<edge from-layer="377" from-port="1" to-layer="378" to-port="1"/>
		<edge from-layer="378" from-port="2" to-layer="380" to-port="2"/>
		<edge from-layer="379" from-port="0" to-layer="380" to-port="3"/>
		<edge from-layer="380" from-port="4" to-layer="382" to-port="0"/>
		<edge from-layer="381" from-port="0" to-layer="382" to-port="1"/>
		<edge from-layer="382" from-port="2" to-layer="411" to-port="0"/>
		<edge from-layer="383" from-port="0" to-layer="384" to-port="1"/>
		<edge from-layer="384" from-port="2" to-layer="385" to-port="0"/>
		<edge from-layer="385" from-port="1" to-layer="387" to-port="0"/>
		<edge from-layer="386" from-port="0" to-layer="387" to-port="1"/>
		<edge from-layer="387" from-port="2" to-layer="388" to-port="0"/>
		<edge from-layer="388" from-port="1" to-layer="390" to-port="0"/>
		<edge from-layer="389" from-port="0" to-layer="390" to-port="1"/>
		<edge from-layer="390" from-port="2" to-layer="392" to-port="0"/>
		<edge from-layer="391" from-port="0" to-layer="392" to-port="1"/>
		<edge from-layer="392" from-port="2" to-layer="393" to-port="0"/>
		<edge from-layer="393" from-port="1" to-layer="395" to-port="0"/>
		<edge from-layer="394" from-port="0" to-layer="395" to-port="1"/>
		<edge from-layer="395" from-port="2" to-layer="396" to-port="0"/>
		<edge from-layer="396" from-port="1" to-layer="398" to-port="0"/>
		<edge from-layer="397" from-port="0" to-layer="398" to-port="1"/>
		<edge from-layer="398" from-port="2" to-layer="407" to-port="0"/>
		<edge from-layer="398" from-port="2" to-layer="400" to-port="0"/>
		<edge from-layer="399" from-port="0" to-layer="400" to-port="1"/>
		<edge from-layer="400" from-port="2" to-layer="401" to-port="0"/>
		<edge from-layer="401" from-port="1" to-layer="403" to-port="0"/>
		<edge from-layer="402" from-port="0" to-layer="403" to-port="1"/>
		<edge from-layer="403" from-port="2" to-layer="404" to-port="0"/>
		<edge from-layer="404" from-port="1" to-layer="406" to-port="0"/>
		<edge from-layer="405" from-port="0" to-layer="406" to-port="1"/>
		<edge from-layer="406" from-port="2" to-layer="407" to-port="1"/>
		<edge from-layer="407" from-port="2" to-layer="409" to-port="0"/>
		<edge from-layer="408" from-port="0" to-layer="409" to-port="1"/>
		<edge from-layer="409" from-port="2" to-layer="410" to-port="0"/>
		<edge from-layer="410" from-port="1" to-layer="411" to-port="1"/>
		<edge from-layer="411" from-port="2" to-layer="413" to-port="0"/>
		<edge from-layer="412" from-port="0" to-layer="413" to-port="1"/>
		<edge from-layer="413" from-port="2" to-layer="414" to-port="0"/>
		<edge from-layer="414" from-port="1" to-layer="416" to-port="0"/>
		<edge from-layer="415" from-port="0" to-layer="416" to-port="1"/>
		<edge from-layer="416" from-port="2" to-layer="417" to-port="0"/>
		<edge from-layer="417" from-port="1" to-layer="420" to-port="0"/>
		<edge from-layer="417" from-port="1" to-layer="431" to-port="0"/>
		<edge from-layer="418" from-port="0" to-layer="431" to-port="1"/>
		<edge from-layer="419" from-port="0" to-layer="429" to-port="0"/>
		<edge from-layer="420" from-port="1" to-layer="423" to-port="0"/>
		<edge from-layer="421" from-port="0" to-layer="423" to-port="1"/>
		<edge from-layer="422" from-port="0" to-layer="423" to-port="2"/>
		<edge from-layer="423" from-port="3" to-layer="427" to-port="0"/>
		<edge from-layer="424" from-port="0" to-layer="427" to-port="1"/>
		<edge from-layer="425" from-port="0" to-layer="427" to-port="2"/>
		<edge from-layer="426" from-port="0" to-layer="427" to-port="3"/>
		<edge from-layer="427" from-port="4" to-layer="428" to-port="0"/>
		<edge from-layer="428" from-port="1" to-layer="429" to-port="1"/>
		<edge from-layer="429" from-port="2" to-layer="431" to-port="2"/>
		<edge from-layer="430" from-port="0" to-layer="431" to-port="3"/>
		<edge from-layer="431" from-port="4" to-layer="433" to-port="0"/>
		<edge from-layer="432" from-port="0" to-layer="433" to-port="1"/>
		<edge from-layer="433" from-port="2" to-layer="445" to-port="0"/>
		<edge from-layer="434" from-port="0" to-layer="435" to-port="1"/>
		<edge from-layer="435" from-port="2" to-layer="436" to-port="0"/>
		<edge from-layer="436" from-port="1" to-layer="438" to-port="0"/>
		<edge from-layer="437" from-port="0" to-layer="438" to-port="1"/>
		<edge from-layer="438" from-port="2" to-layer="439" to-port="0"/>
		<edge from-layer="439" from-port="1" to-layer="441" to-port="0"/>
		<edge from-layer="440" from-port="0" to-layer="441" to-port="1"/>
		<edge from-layer="441" from-port="2" to-layer="443" to-port="0"/>
		<edge from-layer="442" from-port="0" to-layer="443" to-port="1"/>
		<edge from-layer="443" from-port="2" to-layer="444" to-port="0"/>
		<edge from-layer="444" from-port="1" to-layer="445" to-port="1"/>
		<edge from-layer="445" from-port="2" to-layer="447" to-port="0"/>
		<edge from-layer="446" from-port="0" to-layer="447" to-port="1"/>
		<edge from-layer="447" from-port="2" to-layer="448" to-port="0"/>
		<edge from-layer="448" from-port="1" to-layer="450" to-port="0"/>
		<edge from-layer="449" from-port="0" to-layer="450" to-port="1"/>
		<edge from-layer="450" from-port="2" to-layer="451" to-port="0"/>
		<edge from-layer="451" from-port="1" to-layer="454" to-port="0"/>
		<edge from-layer="451" from-port="1" to-layer="465" to-port="0"/>
		<edge from-layer="452" from-port="0" to-layer="465" to-port="1"/>
		<edge from-layer="453" from-port="0" to-layer="463" to-port="0"/>
		<edge from-layer="454" from-port="1" to-layer="457" to-port="0"/>
		<edge from-layer="455" from-port="0" to-layer="457" to-port="1"/>
		<edge from-layer="456" from-port="0" to-layer="457" to-port="2"/>
		<edge from-layer="457" from-port="3" to-layer="461" to-port="0"/>
		<edge from-layer="458" from-port="0" to-layer="461" to-port="1"/>
		<edge from-layer="459" from-port="0" to-layer="461" to-port="2"/>
		<edge from-layer="460" from-port="0" to-layer="461" to-port="3"/>
		<edge from-layer="461" from-port="4" to-layer="462" to-port="0"/>
		<edge from-layer="462" from-port="1" to-layer="463" to-port="1"/>
		<edge from-layer="463" from-port="2" to-layer="465" to-port="2"/>
		<edge from-layer="464" from-port="0" to-layer="465" to-port="3"/>
		<edge from-layer="465" from-port="4" to-layer="467" to-port="0"/>
		<edge from-layer="466" from-port="0" to-layer="467" to-port="1"/>
		<edge from-layer="467" from-port="2" to-layer="474" to-port="0"/>
		<edge from-layer="468" from-port="0" to-layer="469" to-port="1"/>
		<edge from-layer="469" from-port="2" to-layer="470" to-port="0"/>
		<edge from-layer="470" from-port="1" to-layer="472" to-port="0"/>
		<edge from-layer="471" from-port="0" to-layer="472" to-port="1"/>
		<edge from-layer="472" from-port="2" to-layer="473" to-port="0"/>
		<edge from-layer="473" from-port="1" to-layer="474" to-port="1"/>
		<edge from-layer="474" from-port="2" to-layer="476" to-port="0"/>
		<edge from-layer="475" from-port="0" to-layer="476" to-port="1"/>
		<edge from-layer="476" from-port="2" to-layer="477" to-port="0"/>
		<edge from-layer="477" from-port="1" to-layer="479" to-port="0"/>
		<edge from-layer="478" from-port="0" to-layer="479" to-port="1"/>
		<edge from-layer="479" from-port="2" to-layer="480" to-port="0"/>
		<edge from-layer="480" from-port="1" to-layer="482" to-port="0"/>
		<edge from-layer="481" from-port="0" to-layer="482" to-port="1"/>
		<edge from-layer="482" from-port="2" to-layer="483" to-port="0"/>
		<edge from-layer="483" from-port="1" to-layer="485" to-port="0"/>
		<edge from-layer="484" from-port="0" to-layer="485" to-port="1"/>
		<edge from-layer="485" from-port="2" to-layer="486" to-port="0"/>
	</edges>
	<meta_data>
		<MO_version value="2022.2.0-7713-af16ea1d79a-releases/2022/2"/>
		<Runtime_version value="2022.2.0-7713-af16ea1d79a-releases/2022/2"/>
		<legacy_path value="True"/>
		<cli_parameters>
			<caffe_parser_path value="DIR"/>
			<compress_fp16 value="False"/>
			<data_type value="FP32"/>
			<disable_nhwc_to_nchw value="False"/>
			<disable_omitting_optional value="False"/>
			<disable_resnet_optimization value="False"/>
			<disable_weights_compression value="False"/>
			<enable_concat_optimization value="False"/>
			<enable_flattening_nested_params value="False"/>
			<enable_ssd_gluoncv value="False"/>
			<extensions value="DIR"/>
			<framework value="tf"/>
			<freeze_placeholder_with_value value="{}"/>
			<input_model_is_text value="False"/>
			<k value="DIR\CustomLayersMapping.xml"/>
			<layout value="()"/>
			<layout_values value="{}"/>
			<legacy_mxnet_model value="False"/>
			<log_level value="ERROR"/>
			<mean_scale_values value="{}"/>
			<mean_values value="()"/>
			<model_name value="saved_model"/>
			<output_dir value="DIR"/>
			<placeholder_data_types value="{}"/>
			<progress value="False"/>
			<remove_memory value="False"/>
			<remove_output_softmax value="False"/>
			<reverse_input_channels value="False"/>
			<save_params_from_nd value="False"/>
			<saved_model_dir value="DIR"/>
			<scale_values value="()"/>
			<silent value="False"/>
			<source_layout value="()"/>
			<static_shape value="False"/>
			<stream_output value="False"/>
			<target_layout value="()"/>
			<transform value=""/>
			<use_legacy_frontend value="False"/>
			<use_new_frontend value="False"/>
			<unset unset_cli_parameters="batch, counts, disable_fusing, finegrain_fusing, input, input_checkpoint, input_meta_graph, input_model, input_proto, input_shape, input_symbol, mean_file, mean_file_offsets, nd_prefix_name, output, packed_user_shapes, placeholder_shapes, pretrained_model_name, saved_model_tags, scale, tensorboard_logdir, tensorflow_custom_layer_libraries, tensorflow_custom_operations_config_update, tensorflow_object_detection_api_pipeline_config, tensorflow_use_custom_operations_config, transformations_config"/>
		</cli_parameters>
	</meta_data>
</net>
