<?xml version="1.0" ?>
<net name="saved_model" version="11">
	<layers>
		<layer id="0" name="input_1" type="Parameter" version="opset1">
			<data element_type="f32" shape="?,640,640,3"/>
			<rt_info>
				<attribute name="fused_names" value="input_1" version="0"/>
				<attribute name="old_api_map_order" value="0, 2, 3, 1" version="0"/>
			</rt_info>
			<output>
				<port id="0" names="Func/StatefulPartitionedCall/input/_0:0,input_1:0" precision="FP32">
					<dim>-1</dim>
					<dim>640</dim>
					<dim>640</dim>
					<dim>3</dim>
				</port>
			</output>
		</layer>
		<layer id="1" name="input_1/Transpose([0 3 1 2])/value4378757208" type="Const" version="opset1">
			<data element_type="i64" offset="0" shape="4" size="32"/>
			<rt_info>
				<attribute name="fused_names" value="input_1/Transpose([0 3 1 2])/value4378757208" version="0"/>
			</rt_info>
			<output>
				<port id="0" precision="I64">
					<dim>4</dim>
				</port>
			</output>
		</layer>
		<layer id="2" name="input_1/Transpose([0 3 1 2])" type="Transpose" version="opset1">
			<rt_info>
				<attribute name="fused_names" value="input_1/Transpose([0 3 1 2])" version="0"/>
			</rt_info>
			<input>
				<port id="0" precision="FP32">
					<dim>-1</dim>
					<dim>640</dim>
					<dim>640</dim>
					<dim>3</dim>
				</port>
				<port id="1" precision="I64">
					<dim>4</dim>
				</port>
			</input>
			<output>
				<port id="2" precision="FP32">
					<dim>-1</dim>
					<dim>3</dim>
					<dim>640</dim>
					<dim>640</dim>
				</port>
			</output>
		</layer>
		<layer id="3" name="StatefulPartitionedCall/u_net/model/bn_Conv1/FusedBatchNormV3/mean/Fused_Mul__copy" type="Const" version="opset1">
			<data element_type="f32" offset="32" shape="32, 3, 3, 3" size="3456"/>
			<rt_info>
				<attribute name="fused_names" value="StatefulPartitionedCall/u_net/model/bn_Conv1/FusedBatchNormV3/mean/Fused_Mul__copy" version="0"/>
			</rt_info>
			<output>
				<port id="0" names="StatefulPartitionedCall/u_net/model/Conv1/Conv2D/ReadVariableOp:0" precision="FP32">
					<dim>32</dim>
					<dim>3</dim>
					<dim>3</dim>
					<dim>3</dim>
				</port>
			</output>
		</layer>
		<layer id="4" name="StatefulPartitionedCall/u_net/model/Conv1/Conv2D" type="Convolution" version="opset1">
			<data auto_pad="same_upper" dilations="1, 1" pads_begin="0, 0" pads_end="0, 0" strides="2, 2"/>
			<rt_info>
				<attribute name="fused_names" value="StatefulPartitionedCall/u_net/model/Conv1/Conv2D" version="0"/>
			</rt_info>
			<input>
				<port id="0" precision="FP32">
					<dim>-1</dim>
					<dim>3</dim>
					<dim>640</dim>
					<dim>640</dim>
				</port>
				<port id="1" precision="FP32">
					<dim>32</dim>
					<dim>3</dim>
					<dim>3</dim>
					<dim>3</dim>
				</port>
			</input>
			<output>
				<port id="2" precision="FP32">
					<dim>-1</dim>
					<dim>32</dim>
					<dim>320</dim>
					<dim>320</dim>
				</port>
			</output>
		</layer>
		<layer id="5" name="data_add_3408734092" type="Const" version="opset1">
			<data element_type="f32" offset="3488" shape="1, 32, 1, 1" size="128"/>
			<rt_info>
				<attribute name="fused_names" value="data_add_3408734092" version="0"/>
			</rt_info>
			<output>
				<port id="0" precision="FP32">
					<dim>1</dim>
					<dim>32</dim>
					<dim>1</dim>
					<dim>1</dim>
				</port>
			</output>
		</layer>
		<layer id="6" name="StatefulPartitionedCall/u_net/model/bn_Conv1/FusedBatchNormV3/variance/Fused_Add_" type="Add" version="opset1">
			<data auto_broadcast="numpy"/>
			<rt_info>
				<attribute name="fused_names" value="StatefulPartitionedCall/u_net/model/bn_Conv1/FusedBatchNormV3/variance/Fused_Add_" version="0"/>
			</rt_info>
			<input>
				<port id="0" precision="FP32">
					<dim>-1</dim>
					<dim>32</dim>
					<dim>320</dim>
					<dim>320</dim>
				</port>
				<port id="1" precision="FP32">
					<dim>1</dim>
					<dim>32</dim>
					<dim>1</dim>
					<dim>1</dim>
				</port>
			</input>
			<output>
				<port id="2" names="StatefulPartitionedCall/u_net/model/bn_Conv1/FusedBatchNormV3:0" precision="FP32">
					<dim>-1</dim>
					<dim>32</dim>
					<dim>320</dim>
					<dim>320</dim>
				</port>
			</output>
		</layer>
		<layer id="7" name="StatefulPartitionedCall/u_net/model/Conv1_relu/Relu6" type="Clamp" version="opset1">
			<data max="6" min="0"/>
			<rt_info>
				<attribute name="fused_names" value="StatefulPartitionedCall/u_net/model/Conv1_relu/Relu6" version="0"/>
			</rt_info>
			<input>
				<port id="0" precision="FP32">
					<dim>-1</dim>
					<dim>32</dim>
					<dim>320</dim>
					<dim>320</dim>
				</port>
			</input>
			<output>
				<port id="1" names="StatefulPartitionedCall/u_net/model/Conv1_relu/Relu6:0" precision="FP32">
					<dim>-1</dim>
					<dim>32</dim>
					<dim>320</dim>
					<dim>320</dim>
				</port>
			</output>
		</layer>
		<layer id="8" name="StatefulPartitionedCall/u_net/model/expanded_conv_depthwise_BN/FusedBatchNormV3/mean/Fused_Mul__copy" type="Const" version="opset1">
			<data element_type="f32" offset="3616" shape="32, 1, 1, 3, 3" size="1152"/>
			<rt_info>
				<attribute name="fused_names" value="StatefulPartitionedCall/u_net/model/expanded_conv_depthwise_BN/FusedBatchNormV3/mean/Fused_Mul__copy" version="0"/>
			</rt_info>
			<output>
				<port id="0" names="StatefulPartitionedCall/u_net/model/expanded_conv_depthwise/depthwise/ReadVariableOp:0" precision="FP32">
					<dim>32</dim>
					<dim>1</dim>
					<dim>1</dim>
					<dim>3</dim>
					<dim>3</dim>
				</port>
			</output>
		</layer>
		<layer id="9" name="StatefulPartitionedCall/u_net/model/expanded_conv_depthwise/depthwise" type="GroupConvolution" version="opset1">
			<data auto_pad="same_upper" dilations="1, 1" pads_begin="0, 0" pads_end="0, 0" strides="1, 1"/>
			<rt_info>
				<attribute name="fused_names" value="StatefulPartitionedCall/u_net/model/expanded_conv_depthwise/depthwise" version="0"/>
			</rt_info>
			<input>
				<port id="0" precision="FP32">
					<dim>-1</dim>
					<dim>32</dim>
					<dim>320</dim>
					<dim>320</dim>
				</port>
				<port id="1" precision="FP32">
					<dim>32</dim>
					<dim>1</dim>
					<dim>1</dim>
					<dim>3</dim>
					<dim>3</dim>
				</port>
			</input>
			<output>
				<port id="2" precision="FP32">
					<dim>-1</dim>
					<dim>32</dim>
					<dim>320</dim>
					<dim>320</dim>
				</port>
			</output>
		</layer>
		<layer id="10" name="data_add_3409534100" type="Const" version="opset1">
			<data element_type="f32" offset="4768" shape="1, 32, 1, 1" size="128"/>
			<rt_info>
				<attribute name="fused_names" value="data_add_3409534100" version="0"/>
			</rt_info>
			<output>
				<port id="0" precision="FP32">
					<dim>1</dim>
					<dim>32</dim>
					<dim>1</dim>
					<dim>1</dim>
				</port>
			</output>
		</layer>
		<layer id="11" name="StatefulPartitionedCall/u_net/model/expanded_conv_depthwise_BN/FusedBatchNormV3/variance/Fused_Add_" type="Add" version="opset1">
			<data auto_broadcast="numpy"/>
			<rt_info>
				<attribute name="fused_names" value="StatefulPartitionedCall/u_net/model/expanded_conv_depthwise_BN/FusedBatchNormV3/variance/Fused_Add_" version="0"/>
			</rt_info>
			<input>
				<port id="0" precision="FP32">
					<dim>-1</dim>
					<dim>32</dim>
					<dim>320</dim>
					<dim>320</dim>
				</port>
				<port id="1" precision="FP32">
					<dim>1</dim>
					<dim>32</dim>
					<dim>1</dim>
					<dim>1</dim>
				</port>
			</input>
			<output>
				<port id="2" names="StatefulPartitionedCall/u_net/model/expanded_conv_depthwise_BN/FusedBatchNormV3:0" precision="FP32">
					<dim>-1</dim>
					<dim>32</dim>
					<dim>320</dim>
					<dim>320</dim>
				</port>
			</output>
		</layer>
		<layer id="12" name="StatefulPartitionedCall/u_net/model/expanded_conv_depthwise_relu/Relu6" type="Clamp" version="opset1">
			<data max="6" min="0"/>
			<rt_info>
				<attribute name="fused_names" value="StatefulPartitionedCall/u_net/model/expanded_conv_depthwise_relu/Relu6" version="0"/>
			</rt_info>
			<input>
				<port id="0" precision="FP32">
					<dim>-1</dim>
					<dim>32</dim>
					<dim>320</dim>
					<dim>320</dim>
				</port>
			</input>
			<output>
				<port id="1" names="StatefulPartitionedCall/u_net/model/expanded_conv_depthwise_relu/Relu6:0" precision="FP32">
					<dim>-1</dim>
					<dim>32</dim>
					<dim>320</dim>
					<dim>320</dim>
				</port>
			</output>
		</layer>
		<layer id="13" name="StatefulPartitionedCall/u_net/model/expanded_conv_project_BN/FusedBatchNormV3/mean/Fused_Mul__copy" type="Const" version="opset1">
			<data element_type="f32" offset="4896" shape="16, 32, 1, 1" size="2048"/>
			<rt_info>
				<attribute name="fused_names" value="StatefulPartitionedCall/u_net/model/expanded_conv_project_BN/FusedBatchNormV3/mean/Fused_Mul__copy" version="0"/>
			</rt_info>
			<output>
				<port id="0" names="StatefulPartitionedCall/u_net/model/expanded_conv_project/Conv2D/ReadVariableOp:0" precision="FP32">
					<dim>16</dim>
					<dim>32</dim>
					<dim>1</dim>
					<dim>1</dim>
				</port>
			</output>
		</layer>
		<layer id="14" name="StatefulPartitionedCall/u_net/model/expanded_conv_project/Conv2D" type="Convolution" version="opset1">
			<data auto_pad="same_upper" dilations="1, 1" pads_begin="0, 0" pads_end="0, 0" strides="1, 1"/>
			<rt_info>
				<attribute name="fused_names" value="StatefulPartitionedCall/u_net/model/expanded_conv_project/Conv2D" version="0"/>
			</rt_info>
			<input>
				<port id="0" precision="FP32">
					<dim>-1</dim>
					<dim>32</dim>
					<dim>320</dim>
					<dim>320</dim>
				</port>
				<port id="1" precision="FP32">
					<dim>16</dim>
					<dim>32</dim>
					<dim>1</dim>
					<dim>1</dim>
				</port>
			</input>
			<output>
				<port id="2" precision="FP32">
					<dim>-1</dim>
					<dim>16</dim>
					<dim>320</dim>
					<dim>320</dim>
				</port>
			</output>
		</layer>
		<layer id="15" name="data_add_3410334108" type="Const" version="opset1">
			<data element_type="f32" offset="6944" shape="1, 16, 1, 1" size="64"/>
			<rt_info>
				<attribute name="fused_names" value="data_add_3410334108" version="0"/>
			</rt_info>
			<output>
				<port id="0" precision="FP32">
					<dim>1</dim>
					<dim>16</dim>
					<dim>1</dim>
					<dim>1</dim>
				</port>
			</output>
		</layer>
		<layer id="16" name="StatefulPartitionedCall/u_net/model/expanded_conv_project_BN/FusedBatchNormV3/variance/Fused_Add_" type="Add" version="opset1">
			<data auto_broadcast="numpy"/>
			<rt_info>
				<attribute name="fused_names" value="StatefulPartitionedCall/u_net/model/expanded_conv_project_BN/FusedBatchNormV3/variance/Fused_Add_" version="0"/>
			</rt_info>
			<input>
				<port id="0" precision="FP32">
					<dim>-1</dim>
					<dim>16</dim>
					<dim>320</dim>
					<dim>320</dim>
				</port>
				<port id="1" precision="FP32">
					<dim>1</dim>
					<dim>16</dim>
					<dim>1</dim>
					<dim>1</dim>
				</port>
			</input>
			<output>
				<port id="2" names="StatefulPartitionedCall/u_net/model/expanded_conv_project_BN/FusedBatchNormV3:0" precision="FP32">
					<dim>-1</dim>
					<dim>16</dim>
					<dim>320</dim>
					<dim>320</dim>
				</port>
			</output>
		</layer>
		<layer id="17" name="StatefulPartitionedCall/u_net/model/block_1_expand_BN/FusedBatchNormV3/mean/Fused_Mul__copy" type="Const" version="opset1">
			<data element_type="f32" offset="7008" shape="96, 16, 1, 1" size="6144"/>
			<rt_info>
				<attribute name="fused_names" value="StatefulPartitionedCall/u_net/model/block_1_expand_BN/FusedBatchNormV3/mean/Fused_Mul__copy" version="0"/>
			</rt_info>
			<output>
				<port id="0" names="StatefulPartitionedCall/u_net/model/block_1_expand/Conv2D/ReadVariableOp:0" precision="FP32">
					<dim>96</dim>
					<dim>16</dim>
					<dim>1</dim>
					<dim>1</dim>
				</port>
			</output>
		</layer>
		<layer id="18" name="StatefulPartitionedCall/u_net/model/block_1_expand/Conv2D" type="Convolution" version="opset1">
			<data auto_pad="same_upper" dilations="1, 1" pads_begin="0, 0" pads_end="0, 0" strides="1, 1"/>
			<rt_info>
				<attribute name="fused_names" value="StatefulPartitionedCall/u_net/model/block_1_expand/Conv2D" version="0"/>
			</rt_info>
			<input>
				<port id="0" precision="FP32">
					<dim>-1</dim>
					<dim>16</dim>
					<dim>320</dim>
					<dim>320</dim>
				</port>
				<port id="1" precision="FP32">
					<dim>96</dim>
					<dim>16</dim>
					<dim>1</dim>
					<dim>1</dim>
				</port>
			</input>
			<output>
				<port id="2" precision="FP32">
					<dim>-1</dim>
					<dim>96</dim>
					<dim>320</dim>
					<dim>320</dim>
				</port>
			</output>
		</layer>
		<layer id="19" name="data_add_3411134116" type="Const" version="opset1">
			<data element_type="f32" offset="13152" shape="1, 96, 1, 1" size="384"/>
			<rt_info>
				<attribute name="fused_names" value="data_add_3411134116" version="0"/>
			</rt_info>
			<output>
				<port id="0" precision="FP32">
					<dim>1</dim>
					<dim>96</dim>
					<dim>1</dim>
					<dim>1</dim>
				</port>
			</output>
		</layer>
		<layer id="20" name="StatefulPartitionedCall/u_net/model/block_1_expand_BN/FusedBatchNormV3/variance/Fused_Add_" type="Add" version="opset1">
			<data auto_broadcast="numpy"/>
			<rt_info>
				<attribute name="fused_names" value="StatefulPartitionedCall/u_net/model/block_1_expand_BN/FusedBatchNormV3/variance/Fused_Add_" version="0"/>
			</rt_info>
			<input>
				<port id="0" precision="FP32">
					<dim>-1</dim>
					<dim>96</dim>
					<dim>320</dim>
					<dim>320</dim>
				</port>
				<port id="1" precision="FP32">
					<dim>1</dim>
					<dim>96</dim>
					<dim>1</dim>
					<dim>1</dim>
				</port>
			</input>
			<output>
				<port id="2" names="StatefulPartitionedCall/u_net/model/block_1_expand_BN/FusedBatchNormV3:0" precision="FP32">
					<dim>-1</dim>
					<dim>96</dim>
					<dim>320</dim>
					<dim>320</dim>
				</port>
			</output>
		</layer>
		<layer id="21" name="StatefulPartitionedCall/u_net/model/block_1_expand_relu/Relu6" type="Clamp" version="opset1">
			<data max="6" min="0"/>
			<rt_info>
				<attribute name="fused_names" value="StatefulPartitionedCall/u_net/model/block_1_expand_relu/Relu6" version="0"/>
			</rt_info>
			<input>
				<port id="0" precision="FP32">
					<dim>-1</dim>
					<dim>96</dim>
					<dim>320</dim>
					<dim>320</dim>
				</port>
			</input>
			<output>
				<port id="1" names="StatefulPartitionedCall/u_net/model/block_1_expand_relu/Relu6:0" precision="FP32">
					<dim>-1</dim>
					<dim>96</dim>
					<dim>320</dim>
					<dim>320</dim>
				</port>
			</output>
		</layer>
		<layer id="22" name="StatefulPartitionedCall/u_net/model/block_1_depthwise_BN/FusedBatchNormV3/mean/Fused_Mul__copy" type="Const" version="opset1">
			<data element_type="f32" offset="13536" shape="96, 1, 1, 3, 3" size="3456"/>
			<rt_info>
				<attribute name="fused_names" value="StatefulPartitionedCall/u_net/model/block_1_depthwise_BN/FusedBatchNormV3/mean/Fused_Mul__copy" version="0"/>
			</rt_info>
			<output>
				<port id="0" names="StatefulPartitionedCall/u_net/model/block_1_depthwise/depthwise/ReadVariableOp:0" precision="FP32">
					<dim>96</dim>
					<dim>1</dim>
					<dim>1</dim>
					<dim>3</dim>
					<dim>3</dim>
				</port>
			</output>
		</layer>
		<layer id="23" name="StatefulPartitionedCall/u_net/model/block_1_depthwise/depthwise" type="GroupConvolution" version="opset1">
			<data auto_pad="explicit" dilations="1, 1" pads_begin="0, 0" pads_end="1, 1" strides="2, 2"/>
			<rt_info>
				<attribute name="fused_names" value="StatefulPartitionedCall/u_net/model/block_1_depthwise/depthwise, StatefulPartitionedCall/u_net/model/block_1_pad/Pad" version="0"/>
			</rt_info>
			<input>
				<port id="0" precision="FP32">
					<dim>-1</dim>
					<dim>96</dim>
					<dim>320</dim>
					<dim>320</dim>
				</port>
				<port id="1" precision="FP32">
					<dim>96</dim>
					<dim>1</dim>
					<dim>1</dim>
					<dim>3</dim>
					<dim>3</dim>
				</port>
			</input>
			<output>
				<port id="2" precision="FP32">
					<dim>-1</dim>
					<dim>96</dim>
					<dim>160</dim>
					<dim>160</dim>
				</port>
			</output>
		</layer>
		<layer id="24" name="data_add_3411934124" type="Const" version="opset1">
			<data element_type="f32" offset="16992" shape="1, 96, 1, 1" size="384"/>
			<rt_info>
				<attribute name="fused_names" value="data_add_3411934124" version="0"/>
			</rt_info>
			<output>
				<port id="0" precision="FP32">
					<dim>1</dim>
					<dim>96</dim>
					<dim>1</dim>
					<dim>1</dim>
				</port>
			</output>
		</layer>
		<layer id="25" name="StatefulPartitionedCall/u_net/model/block_1_depthwise_BN/FusedBatchNormV3/variance/Fused_Add_" type="Add" version="opset1">
			<data auto_broadcast="numpy"/>
			<rt_info>
				<attribute name="fused_names" value="StatefulPartitionedCall/u_net/model/block_1_depthwise_BN/FusedBatchNormV3/variance/Fused_Add_" version="0"/>
			</rt_info>
			<input>
				<port id="0" precision="FP32">
					<dim>-1</dim>
					<dim>96</dim>
					<dim>160</dim>
					<dim>160</dim>
				</port>
				<port id="1" precision="FP32">
					<dim>1</dim>
					<dim>96</dim>
					<dim>1</dim>
					<dim>1</dim>
				</port>
			</input>
			<output>
				<port id="2" names="StatefulPartitionedCall/u_net/model/block_1_depthwise_BN/FusedBatchNormV3:0" precision="FP32">
					<dim>-1</dim>
					<dim>96</dim>
					<dim>160</dim>
					<dim>160</dim>
				</port>
			</output>
		</layer>
		<layer id="26" name="StatefulPartitionedCall/u_net/model/block_1_depthwise_relu/Relu6" type="Clamp" version="opset1">
			<data max="6" min="0"/>
			<rt_info>
				<attribute name="fused_names" value="StatefulPartitionedCall/u_net/model/block_1_depthwise_relu/Relu6" version="0"/>
			</rt_info>
			<input>
				<port id="0" precision="FP32">
					<dim>-1</dim>
					<dim>96</dim>
					<dim>160</dim>
					<dim>160</dim>
				</port>
			</input>
			<output>
				<port id="1" names="StatefulPartitionedCall/u_net/model/block_1_depthwise_relu/Relu6:0" precision="FP32">
					<dim>-1</dim>
					<dim>96</dim>
					<dim>160</dim>
					<dim>160</dim>
				</port>
			</output>
		</layer>
		<layer id="27" name="StatefulPartitionedCall/u_net/model/block_1_project_BN/FusedBatchNormV3/mean/Fused_Mul__copy" type="Const" version="opset1">
			<data element_type="f32" offset="17376" shape="24, 96, 1, 1" size="9216"/>
			<rt_info>
				<attribute name="fused_names" value="StatefulPartitionedCall/u_net/model/block_1_project_BN/FusedBatchNormV3/mean/Fused_Mul__copy" version="0"/>
			</rt_info>
			<output>
				<port id="0" names="StatefulPartitionedCall/u_net/model/block_1_project/Conv2D/ReadVariableOp:0" precision="FP32">
					<dim>24</dim>
					<dim>96</dim>
					<dim>1</dim>
					<dim>1</dim>
				</port>
			</output>
		</layer>
		<layer id="28" name="StatefulPartitionedCall/u_net/model/block_1_project/Conv2D" type="Convolution" version="opset1">
			<data auto_pad="same_upper" dilations="1, 1" pads_begin="0, 0" pads_end="0, 0" strides="1, 1"/>
			<rt_info>
				<attribute name="fused_names" value="StatefulPartitionedCall/u_net/model/block_1_project/Conv2D" version="0"/>
			</rt_info>
			<input>
				<port id="0" precision="FP32">
					<dim>-1</dim>
					<dim>96</dim>
					<dim>160</dim>
					<dim>160</dim>
				</port>
				<port id="1" precision="FP32">
					<dim>24</dim>
					<dim>96</dim>
					<dim>1</dim>
					<dim>1</dim>
				</port>
			</input>
			<output>
				<port id="2" precision="FP32">
					<dim>-1</dim>
					<dim>24</dim>
					<dim>160</dim>
					<dim>160</dim>
				</port>
			</output>
		</layer>
		<layer id="29" name="data_add_3412734132" type="Const" version="opset1">
			<data element_type="f32" offset="26592" shape="1, 24, 1, 1" size="96"/>
			<rt_info>
				<attribute name="fused_names" value="data_add_3412734132" version="0"/>
			</rt_info>
			<output>
				<port id="0" precision="FP32">
					<dim>1</dim>
					<dim>24</dim>
					<dim>1</dim>
					<dim>1</dim>
				</port>
			</output>
		</layer>
		<layer id="30" name="StatefulPartitionedCall/u_net/model/block_1_project_BN/FusedBatchNormV3/variance/Fused_Add_" type="Add" version="opset1">
			<data auto_broadcast="numpy"/>
			<rt_info>
				<attribute name="fused_names" value="StatefulPartitionedCall/u_net/model/block_1_project_BN/FusedBatchNormV3/variance/Fused_Add_" version="0"/>
			</rt_info>
			<input>
				<port id="0" precision="FP32">
					<dim>-1</dim>
					<dim>24</dim>
					<dim>160</dim>
					<dim>160</dim>
				</port>
				<port id="1" precision="FP32">
					<dim>1</dim>
					<dim>24</dim>
					<dim>1</dim>
					<dim>1</dim>
				</port>
			</input>
			<output>
				<port id="2" names="StatefulPartitionedCall/u_net/model/block_1_project_BN/FusedBatchNormV3:0" precision="FP32">
					<dim>-1</dim>
					<dim>24</dim>
					<dim>160</dim>
					<dim>160</dim>
				</port>
			</output>
		</layer>
		<layer id="31" name="StatefulPartitionedCall/u_net/model/block_2_expand_BN/FusedBatchNormV3/mean/Fused_Mul__copy" type="Const" version="opset1">
			<data element_type="f32" offset="26688" shape="144, 24, 1, 1" size="13824"/>
			<rt_info>
				<attribute name="fused_names" value="StatefulPartitionedCall/u_net/model/block_2_expand_BN/FusedBatchNormV3/mean/Fused_Mul__copy" version="0"/>
			</rt_info>
			<output>
				<port id="0" names="StatefulPartitionedCall/u_net/model/block_2_expand/Conv2D/ReadVariableOp:0" precision="FP32">
					<dim>144</dim>
					<dim>24</dim>
					<dim>1</dim>
					<dim>1</dim>
				</port>
			</output>
		</layer>
		<layer id="32" name="StatefulPartitionedCall/u_net/model/block_2_expand/Conv2D" type="Convolution" version="opset1">
			<data auto_pad="same_upper" dilations="1, 1" pads_begin="0, 0" pads_end="0, 0" strides="1, 1"/>
			<rt_info>
				<attribute name="fused_names" value="StatefulPartitionedCall/u_net/model/block_2_expand/Conv2D" version="0"/>
			</rt_info>
			<input>
				<port id="0" precision="FP32">
					<dim>-1</dim>
					<dim>24</dim>
					<dim>160</dim>
					<dim>160</dim>
				</port>
				<port id="1" precision="FP32">
					<dim>144</dim>
					<dim>24</dim>
					<dim>1</dim>
					<dim>1</dim>
				</port>
			</input>
			<output>
				<port id="2" precision="FP32">
					<dim>-1</dim>
					<dim>144</dim>
					<dim>160</dim>
					<dim>160</dim>
				</port>
			</output>
		</layer>
		<layer id="33" name="data_add_3413534140" type="Const" version="opset1">
			<data element_type="f32" offset="40512" shape="1, 144, 1, 1" size="576"/>
			<rt_info>
				<attribute name="fused_names" value="data_add_3413534140" version="0"/>
			</rt_info>
			<output>
				<port id="0" precision="FP32">
					<dim>1</dim>
					<dim>144</dim>
					<dim>1</dim>
					<dim>1</dim>
				</port>
			</output>
		</layer>
		<layer id="34" name="StatefulPartitionedCall/u_net/model/block_2_expand_BN/FusedBatchNormV3/variance/Fused_Add_" type="Add" version="opset1">
			<data auto_broadcast="numpy"/>
			<rt_info>
				<attribute name="fused_names" value="StatefulPartitionedCall/u_net/model/block_2_expand_BN/FusedBatchNormV3/variance/Fused_Add_" version="0"/>
			</rt_info>
			<input>
				<port id="0" precision="FP32">
					<dim>-1</dim>
					<dim>144</dim>
					<dim>160</dim>
					<dim>160</dim>
				</port>
				<port id="1" precision="FP32">
					<dim>1</dim>
					<dim>144</dim>
					<dim>1</dim>
					<dim>1</dim>
				</port>
			</input>
			<output>
				<port id="2" names="StatefulPartitionedCall/u_net/model/block_2_expand_BN/FusedBatchNormV3:0" precision="FP32">
					<dim>-1</dim>
					<dim>144</dim>
					<dim>160</dim>
					<dim>160</dim>
				</port>
			</output>
		</layer>
		<layer id="35" name="StatefulPartitionedCall/u_net/model/block_2_expand_relu/Relu6" type="Clamp" version="opset1">
			<data max="6" min="0"/>
			<rt_info>
				<attribute name="fused_names" value="StatefulPartitionedCall/u_net/model/block_2_expand_relu/Relu6" version="0"/>
			</rt_info>
			<input>
				<port id="0" precision="FP32">
					<dim>-1</dim>
					<dim>144</dim>
					<dim>160</dim>
					<dim>160</dim>
				</port>
			</input>
			<output>
				<port id="1" names="StatefulPartitionedCall/u_net/model/block_2_expand_relu/Relu6:0" precision="FP32">
					<dim>-1</dim>
					<dim>144</dim>
					<dim>160</dim>
					<dim>160</dim>
				</port>
			</output>
		</layer>
		<layer id="36" name="StatefulPartitionedCall/u_net/model/block_2_depthwise_BN/FusedBatchNormV3/mean/Fused_Mul__copy" type="Const" version="opset1">
			<data element_type="f32" offset="41088" shape="144, 1, 1, 3, 3" size="5184"/>
			<rt_info>
				<attribute name="fused_names" value="StatefulPartitionedCall/u_net/model/block_2_depthwise_BN/FusedBatchNormV3/mean/Fused_Mul__copy" version="0"/>
			</rt_info>
			<output>
				<port id="0" names="StatefulPartitionedCall/u_net/model/block_2_depthwise/depthwise/ReadVariableOp:0" precision="FP32">
					<dim>144</dim>
					<dim>1</dim>
					<dim>1</dim>
					<dim>3</dim>
					<dim>3</dim>
				</port>
			</output>
		</layer>
		<layer id="37" name="StatefulPartitionedCall/u_net/model/block_2_depthwise/depthwise" type="GroupConvolution" version="opset1">
			<data auto_pad="same_upper" dilations="1, 1" pads_begin="0, 0" pads_end="0, 0" strides="1, 1"/>
			<rt_info>
				<attribute name="fused_names" value="StatefulPartitionedCall/u_net/model/block_2_depthwise/depthwise" version="0"/>
			</rt_info>
			<input>
				<port id="0" precision="FP32">
					<dim>-1</dim>
					<dim>144</dim>
					<dim>160</dim>
					<dim>160</dim>
				</port>
				<port id="1" precision="FP32">
					<dim>144</dim>
					<dim>1</dim>
					<dim>1</dim>
					<dim>3</dim>
					<dim>3</dim>
				</port>
			</input>
			<output>
				<port id="2" precision="FP32">
					<dim>-1</dim>
					<dim>144</dim>
					<dim>160</dim>
					<dim>160</dim>
				</port>
			</output>
		</layer>
		<layer id="38" name="data_add_3414334148" type="Const" version="opset1">
			<data element_type="f32" offset="46272" shape="1, 144, 1, 1" size="576"/>
			<rt_info>
				<attribute name="fused_names" value="data_add_3414334148" version="0"/>
			</rt_info>
			<output>
				<port id="0" precision="FP32">
					<dim>1</dim>
					<dim>144</dim>
					<dim>1</dim>
					<dim>1</dim>
				</port>
			</output>
		</layer>
		<layer id="39" name="StatefulPartitionedCall/u_net/model/block_2_depthwise_BN/FusedBatchNormV3/variance/Fused_Add_" type="Add" version="opset1">
			<data auto_broadcast="numpy"/>
			<rt_info>
				<attribute name="fused_names" value="StatefulPartitionedCall/u_net/model/block_2_depthwise_BN/FusedBatchNormV3/variance/Fused_Add_" version="0"/>
			</rt_info>
			<input>
				<port id="0" precision="FP32">
					<dim>-1</dim>
					<dim>144</dim>
					<dim>160</dim>
					<dim>160</dim>
				</port>
				<port id="1" precision="FP32">
					<dim>1</dim>
					<dim>144</dim>
					<dim>1</dim>
					<dim>1</dim>
				</port>
			</input>
			<output>
				<port id="2" names="StatefulPartitionedCall/u_net/model/block_2_depthwise_BN/FusedBatchNormV3:0" precision="FP32">
					<dim>-1</dim>
					<dim>144</dim>
					<dim>160</dim>
					<dim>160</dim>
				</port>
			</output>
		</layer>
		<layer id="40" name="StatefulPartitionedCall/u_net/model/block_2_depthwise_relu/Relu6" type="Clamp" version="opset1">
			<data max="6" min="0"/>
			<rt_info>
				<attribute name="fused_names" value="StatefulPartitionedCall/u_net/model/block_2_depthwise_relu/Relu6" version="0"/>
			</rt_info>
			<input>
				<port id="0" precision="FP32">
					<dim>-1</dim>
					<dim>144</dim>
					<dim>160</dim>
					<dim>160</dim>
				</port>
			</input>
			<output>
				<port id="1" names="StatefulPartitionedCall/u_net/model/block_2_depthwise_relu/Relu6:0" precision="FP32">
					<dim>-1</dim>
					<dim>144</dim>
					<dim>160</dim>
					<dim>160</dim>
				</port>
			</output>
		</layer>
		<layer id="41" name="StatefulPartitionedCall/u_net/model/block_2_project_BN/FusedBatchNormV3/mean/Fused_Mul__copy" type="Const" version="opset1">
			<data element_type="f32" offset="46848" shape="24, 144, 1, 1" size="13824"/>
			<rt_info>
				<attribute name="fused_names" value="StatefulPartitionedCall/u_net/model/block_2_project_BN/FusedBatchNormV3/mean/Fused_Mul__copy" version="0"/>
			</rt_info>
			<output>
				<port id="0" names="StatefulPartitionedCall/u_net/model/block_2_project/Conv2D/ReadVariableOp:0" precision="FP32">
					<dim>24</dim>
					<dim>144</dim>
					<dim>1</dim>
					<dim>1</dim>
				</port>
			</output>
		</layer>
		<layer id="42" name="StatefulPartitionedCall/u_net/model/block_2_project/Conv2D" type="Convolution" version="opset1">
			<data auto_pad="same_upper" dilations="1, 1" pads_begin="0, 0" pads_end="0, 0" strides="1, 1"/>
			<rt_info>
				<attribute name="fused_names" value="StatefulPartitionedCall/u_net/model/block_2_project/Conv2D" version="0"/>
			</rt_info>
			<input>
				<port id="0" precision="FP32">
					<dim>-1</dim>
					<dim>144</dim>
					<dim>160</dim>
					<dim>160</dim>
				</port>
				<port id="1" precision="FP32">
					<dim>24</dim>
					<dim>144</dim>
					<dim>1</dim>
					<dim>1</dim>
				</port>
			</input>
			<output>
				<port id="2" precision="FP32">
					<dim>-1</dim>
					<dim>24</dim>
					<dim>160</dim>
					<dim>160</dim>
				</port>
			</output>
		</layer>
		<layer id="43" name="data_add_3415134156" type="Const" version="opset1">
			<data element_type="f32" offset="60672" shape="1, 24, 1, 1" size="96"/>
			<rt_info>
				<attribute name="fused_names" value="data_add_3415134156" version="0"/>
			</rt_info>
			<output>
				<port id="0" precision="FP32">
					<dim>1</dim>
					<dim>24</dim>
					<dim>1</dim>
					<dim>1</dim>
				</port>
			</output>
		</layer>
		<layer id="44" name="StatefulPartitionedCall/u_net/model/block_2_project_BN/FusedBatchNormV3/variance/Fused_Add_" type="Add" version="opset1">
			<data auto_broadcast="numpy"/>
			<rt_info>
				<attribute name="fused_names" value="StatefulPartitionedCall/u_net/model/block_2_project_BN/FusedBatchNormV3/variance/Fused_Add_" version="0"/>
			</rt_info>
			<input>
				<port id="0" precision="FP32">
					<dim>-1</dim>
					<dim>24</dim>
					<dim>160</dim>
					<dim>160</dim>
				</port>
				<port id="1" precision="FP32">
					<dim>1</dim>
					<dim>24</dim>
					<dim>1</dim>
					<dim>1</dim>
				</port>
			</input>
			<output>
				<port id="2" names="StatefulPartitionedCall/u_net/model/block_2_project_BN/FusedBatchNormV3:0" precision="FP32">
					<dim>-1</dim>
					<dim>24</dim>
					<dim>160</dim>
					<dim>160</dim>
				</port>
			</output>
		</layer>
		<layer id="45" name="StatefulPartitionedCall/u_net/model/block_2_add/add" type="Add" version="opset1">
			<data auto_broadcast="numpy"/>
			<rt_info>
				<attribute name="fused_names" value="StatefulPartitionedCall/u_net/model/block_2_add/add" version="0"/>
			</rt_info>
			<input>
				<port id="0" precision="FP32">
					<dim>-1</dim>
					<dim>24</dim>
					<dim>160</dim>
					<dim>160</dim>
				</port>
				<port id="1" precision="FP32">
					<dim>-1</dim>
					<dim>24</dim>
					<dim>160</dim>
					<dim>160</dim>
				</port>
			</input>
			<output>
				<port id="2" names="StatefulPartitionedCall/u_net/model/block_2_add/add:0" precision="FP32">
					<dim>-1</dim>
					<dim>24</dim>
					<dim>160</dim>
					<dim>160</dim>
				</port>
			</output>
		</layer>
		<layer id="46" name="StatefulPartitionedCall/u_net/model/block_3_expand_BN/FusedBatchNormV3/mean/Fused_Mul__copy" type="Const" version="opset1">
			<data element_type="f32" offset="60768" shape="144, 24, 1, 1" size="13824"/>
			<rt_info>
				<attribute name="fused_names" value="StatefulPartitionedCall/u_net/model/block_3_expand_BN/FusedBatchNormV3/mean/Fused_Mul__copy" version="0"/>
			</rt_info>
			<output>
				<port id="0" names="StatefulPartitionedCall/u_net/model/block_3_expand/Conv2D/ReadVariableOp:0" precision="FP32">
					<dim>144</dim>
					<dim>24</dim>
					<dim>1</dim>
					<dim>1</dim>
				</port>
			</output>
		</layer>
		<layer id="47" name="StatefulPartitionedCall/u_net/model/block_3_expand/Conv2D" type="Convolution" version="opset1">
			<data auto_pad="same_upper" dilations="1, 1" pads_begin="0, 0" pads_end="0, 0" strides="1, 1"/>
			<rt_info>
				<attribute name="fused_names" value="StatefulPartitionedCall/u_net/model/block_3_expand/Conv2D" version="0"/>
			</rt_info>
			<input>
				<port id="0" precision="FP32">
					<dim>-1</dim>
					<dim>24</dim>
					<dim>160</dim>
					<dim>160</dim>
				</port>
				<port id="1" precision="FP32">
					<dim>144</dim>
					<dim>24</dim>
					<dim>1</dim>
					<dim>1</dim>
				</port>
			</input>
			<output>
				<port id="2" precision="FP32">
					<dim>-1</dim>
					<dim>144</dim>
					<dim>160</dim>
					<dim>160</dim>
				</port>
			</output>
		</layer>
		<layer id="48" name="data_add_3415934164" type="Const" version="opset1">
			<data element_type="f32" offset="74592" shape="1, 144, 1, 1" size="576"/>
			<rt_info>
				<attribute name="fused_names" value="data_add_3415934164" version="0"/>
			</rt_info>
			<output>
				<port id="0" precision="FP32">
					<dim>1</dim>
					<dim>144</dim>
					<dim>1</dim>
					<dim>1</dim>
				</port>
			</output>
		</layer>
		<layer id="49" name="StatefulPartitionedCall/u_net/model/block_3_expand_BN/FusedBatchNormV3/variance/Fused_Add_" type="Add" version="opset1">
			<data auto_broadcast="numpy"/>
			<rt_info>
				<attribute name="fused_names" value="StatefulPartitionedCall/u_net/model/block_3_expand_BN/FusedBatchNormV3/variance/Fused_Add_" version="0"/>
			</rt_info>
			<input>
				<port id="0" precision="FP32">
					<dim>-1</dim>
					<dim>144</dim>
					<dim>160</dim>
					<dim>160</dim>
				</port>
				<port id="1" precision="FP32">
					<dim>1</dim>
					<dim>144</dim>
					<dim>1</dim>
					<dim>1</dim>
				</port>
			</input>
			<output>
				<port id="2" names="StatefulPartitionedCall/u_net/model/block_3_expand_BN/FusedBatchNormV3:0" precision="FP32">
					<dim>-1</dim>
					<dim>144</dim>
					<dim>160</dim>
					<dim>160</dim>
				</port>
			</output>
		</layer>
		<layer id="50" name="StatefulPartitionedCall/u_net/model/block_3_expand_relu/Relu6" type="Clamp" version="opset1">
			<data max="6" min="0"/>
			<rt_info>
				<attribute name="fused_names" value="StatefulPartitionedCall/u_net/model/block_3_expand_relu/Relu6" version="0"/>
			</rt_info>
			<input>
				<port id="0" precision="FP32">
					<dim>-1</dim>
					<dim>144</dim>
					<dim>160</dim>
					<dim>160</dim>
				</port>
			</input>
			<output>
				<port id="1" names="StatefulPartitionedCall/u_net/model/block_3_expand_relu/Relu6:0" precision="FP32">
					<dim>-1</dim>
					<dim>144</dim>
					<dim>160</dim>
					<dim>160</dim>
				</port>
			</output>
		</layer>
		<layer id="51" name="StatefulPartitionedCall/u_net/model/block_3_depthwise_BN/FusedBatchNormV3/mean/Fused_Mul__copy" type="Const" version="opset1">
			<data element_type="f32" offset="75168" shape="144, 1, 1, 3, 3" size="5184"/>
			<rt_info>
				<attribute name="fused_names" value="StatefulPartitionedCall/u_net/model/block_3_depthwise_BN/FusedBatchNormV3/mean/Fused_Mul__copy" version="0"/>
			</rt_info>
			<output>
				<port id="0" names="StatefulPartitionedCall/u_net/model/block_3_depthwise/depthwise/ReadVariableOp:0" precision="FP32">
					<dim>144</dim>
					<dim>1</dim>
					<dim>1</dim>
					<dim>3</dim>
					<dim>3</dim>
				</port>
			</output>
		</layer>
		<layer id="52" name="StatefulPartitionedCall/u_net/model/block_3_depthwise/depthwise" type="GroupConvolution" version="opset1">
			<data auto_pad="explicit" dilations="1, 1" pads_begin="0, 0" pads_end="1, 1" strides="2, 2"/>
			<rt_info>
				<attribute name="fused_names" value="StatefulPartitionedCall/u_net/model/block_3_depthwise/depthwise, StatefulPartitionedCall/u_net/model/block_3_pad/Pad" version="0"/>
			</rt_info>
			<input>
				<port id="0" precision="FP32">
					<dim>-1</dim>
					<dim>144</dim>
					<dim>160</dim>
					<dim>160</dim>
				</port>
				<port id="1" precision="FP32">
					<dim>144</dim>
					<dim>1</dim>
					<dim>1</dim>
					<dim>3</dim>
					<dim>3</dim>
				</port>
			</input>
			<output>
				<port id="2" precision="FP32">
					<dim>-1</dim>
					<dim>144</dim>
					<dim>80</dim>
					<dim>80</dim>
				</port>
			</output>
		</layer>
		<layer id="53" name="data_add_3416734172" type="Const" version="opset1">
			<data element_type="f32" offset="80352" shape="1, 144, 1, 1" size="576"/>
			<rt_info>
				<attribute name="fused_names" value="data_add_3416734172" version="0"/>
			</rt_info>
			<output>
				<port id="0" precision="FP32">
					<dim>1</dim>
					<dim>144</dim>
					<dim>1</dim>
					<dim>1</dim>
				</port>
			</output>
		</layer>
		<layer id="54" name="StatefulPartitionedCall/u_net/model/block_3_depthwise_BN/FusedBatchNormV3/variance/Fused_Add_" type="Add" version="opset1">
			<data auto_broadcast="numpy"/>
			<rt_info>
				<attribute name="fused_names" value="StatefulPartitionedCall/u_net/model/block_3_depthwise_BN/FusedBatchNormV3/variance/Fused_Add_" version="0"/>
			</rt_info>
			<input>
				<port id="0" precision="FP32">
					<dim>-1</dim>
					<dim>144</dim>
					<dim>80</dim>
					<dim>80</dim>
				</port>
				<port id="1" precision="FP32">
					<dim>1</dim>
					<dim>144</dim>
					<dim>1</dim>
					<dim>1</dim>
				</port>
			</input>
			<output>
				<port id="2" names="StatefulPartitionedCall/u_net/model/block_3_depthwise_BN/FusedBatchNormV3:0" precision="FP32">
					<dim>-1</dim>
					<dim>144</dim>
					<dim>80</dim>
					<dim>80</dim>
				</port>
			</output>
		</layer>
		<layer id="55" name="StatefulPartitionedCall/u_net/model/block_3_depthwise_relu/Relu6" type="Clamp" version="opset1">
			<data max="6" min="0"/>
			<rt_info>
				<attribute name="fused_names" value="StatefulPartitionedCall/u_net/model/block_3_depthwise_relu/Relu6" version="0"/>
			</rt_info>
			<input>
				<port id="0" precision="FP32">
					<dim>-1</dim>
					<dim>144</dim>
					<dim>80</dim>
					<dim>80</dim>
				</port>
			</input>
			<output>
				<port id="1" names="StatefulPartitionedCall/u_net/model/block_3_depthwise_relu/Relu6:0" precision="FP32">
					<dim>-1</dim>
					<dim>144</dim>
					<dim>80</dim>
					<dim>80</dim>
				</port>
			</output>
		</layer>
		<layer id="56" name="StatefulPartitionedCall/u_net/model/block_3_project_BN/FusedBatchNormV3/mean/Fused_Mul__copy" type="Const" version="opset1">
			<data element_type="f32" offset="80928" shape="32, 144, 1, 1" size="18432"/>
			<rt_info>
				<attribute name="fused_names" value="StatefulPartitionedCall/u_net/model/block_3_project_BN/FusedBatchNormV3/mean/Fused_Mul__copy" version="0"/>
			</rt_info>
			<output>
				<port id="0" names="StatefulPartitionedCall/u_net/model/block_3_project/Conv2D/ReadVariableOp:0" precision="FP32">
					<dim>32</dim>
					<dim>144</dim>
					<dim>1</dim>
					<dim>1</dim>
				</port>
			</output>
		</layer>
		<layer id="57" name="StatefulPartitionedCall/u_net/model/block_3_project/Conv2D" type="Convolution" version="opset1">
			<data auto_pad="same_upper" dilations="1, 1" pads_begin="0, 0" pads_end="0, 0" strides="1, 1"/>
			<rt_info>
				<attribute name="fused_names" value="StatefulPartitionedCall/u_net/model/block_3_project/Conv2D" version="0"/>
			</rt_info>
			<input>
				<port id="0" precision="FP32">
					<dim>-1</dim>
					<dim>144</dim>
					<dim>80</dim>
					<dim>80</dim>
				</port>
				<port id="1" precision="FP32">
					<dim>32</dim>
					<dim>144</dim>
					<dim>1</dim>
					<dim>1</dim>
				</port>
			</input>
			<output>
				<port id="2" precision="FP32">
					<dim>-1</dim>
					<dim>32</dim>
					<dim>80</dim>
					<dim>80</dim>
				</port>
			</output>
		</layer>
		<layer id="58" name="data_add_3417534180" type="Const" version="opset1">
			<data element_type="f32" offset="99360" shape="1, 32, 1, 1" size="128"/>
			<rt_info>
				<attribute name="fused_names" value="data_add_3417534180" version="0"/>
			</rt_info>
			<output>
				<port id="0" precision="FP32">
					<dim>1</dim>
					<dim>32</dim>
					<dim>1</dim>
					<dim>1</dim>
				</port>
			</output>
		</layer>
		<layer id="59" name="StatefulPartitionedCall/u_net/model/block_3_project_BN/FusedBatchNormV3/variance/Fused_Add_" type="Add" version="opset1">
			<data auto_broadcast="numpy"/>
			<rt_info>
				<attribute name="fused_names" value="StatefulPartitionedCall/u_net/model/block_3_project_BN/FusedBatchNormV3/variance/Fused_Add_" version="0"/>
			</rt_info>
			<input>
				<port id="0" precision="FP32">
					<dim>-1</dim>
					<dim>32</dim>
					<dim>80</dim>
					<dim>80</dim>
				</port>
				<port id="1" precision="FP32">
					<dim>1</dim>
					<dim>32</dim>
					<dim>1</dim>
					<dim>1</dim>
				</port>
			</input>
			<output>
				<port id="2" names="StatefulPartitionedCall/u_net/model/block_3_project_BN/FusedBatchNormV3:0" precision="FP32">
					<dim>-1</dim>
					<dim>32</dim>
					<dim>80</dim>
					<dim>80</dim>
				</port>
			</output>
		</layer>
		<layer id="60" name="StatefulPartitionedCall/u_net/model/block_4_expand_BN/FusedBatchNormV3/mean/Fused_Mul__copy" type="Const" version="opset1">
			<data element_type="f32" offset="99488" shape="192, 32, 1, 1" size="24576"/>
			<rt_info>
				<attribute name="fused_names" value="StatefulPartitionedCall/u_net/model/block_4_expand_BN/FusedBatchNormV3/mean/Fused_Mul__copy" version="0"/>
			</rt_info>
			<output>
				<port id="0" names="StatefulPartitionedCall/u_net/model/block_4_expand/Conv2D/ReadVariableOp:0" precision="FP32">
					<dim>192</dim>
					<dim>32</dim>
					<dim>1</dim>
					<dim>1</dim>
				</port>
			</output>
		</layer>
		<layer id="61" name="StatefulPartitionedCall/u_net/model/block_4_expand/Conv2D" type="Convolution" version="opset1">
			<data auto_pad="same_upper" dilations="1, 1" pads_begin="0, 0" pads_end="0, 0" strides="1, 1"/>
			<rt_info>
				<attribute name="fused_names" value="StatefulPartitionedCall/u_net/model/block_4_expand/Conv2D" version="0"/>
			</rt_info>
			<input>
				<port id="0" precision="FP32">
					<dim>-1</dim>
					<dim>32</dim>
					<dim>80</dim>
					<dim>80</dim>
				</port>
				<port id="1" precision="FP32">
					<dim>192</dim>
					<dim>32</dim>
					<dim>1</dim>
					<dim>1</dim>
				</port>
			</input>
			<output>
				<port id="2" precision="FP32">
					<dim>-1</dim>
					<dim>192</dim>
					<dim>80</dim>
					<dim>80</dim>
				</port>
			</output>
		</layer>
		<layer id="62" name="data_add_3418334188" type="Const" version="opset1">
			<data element_type="f32" offset="124064" shape="1, 192, 1, 1" size="768"/>
			<rt_info>
				<attribute name="fused_names" value="data_add_3418334188" version="0"/>
			</rt_info>
			<output>
				<port id="0" precision="FP32">
					<dim>1</dim>
					<dim>192</dim>
					<dim>1</dim>
					<dim>1</dim>
				</port>
			</output>
		</layer>
		<layer id="63" name="StatefulPartitionedCall/u_net/model/block_4_expand_BN/FusedBatchNormV3/variance/Fused_Add_" type="Add" version="opset1">
			<data auto_broadcast="numpy"/>
			<rt_info>
				<attribute name="fused_names" value="StatefulPartitionedCall/u_net/model/block_4_expand_BN/FusedBatchNormV3/variance/Fused_Add_" version="0"/>
			</rt_info>
			<input>
				<port id="0" precision="FP32">
					<dim>-1</dim>
					<dim>192</dim>
					<dim>80</dim>
					<dim>80</dim>
				</port>
				<port id="1" precision="FP32">
					<dim>1</dim>
					<dim>192</dim>
					<dim>1</dim>
					<dim>1</dim>
				</port>
			</input>
			<output>
				<port id="2" names="StatefulPartitionedCall/u_net/model/block_4_expand_BN/FusedBatchNormV3:0" precision="FP32">
					<dim>-1</dim>
					<dim>192</dim>
					<dim>80</dim>
					<dim>80</dim>
				</port>
			</output>
		</layer>
		<layer id="64" name="StatefulPartitionedCall/u_net/model/block_4_expand_relu/Relu6" type="Clamp" version="opset1">
			<data max="6" min="0"/>
			<rt_info>
				<attribute name="fused_names" value="StatefulPartitionedCall/u_net/model/block_4_expand_relu/Relu6" version="0"/>
			</rt_info>
			<input>
				<port id="0" precision="FP32">
					<dim>-1</dim>
					<dim>192</dim>
					<dim>80</dim>
					<dim>80</dim>
				</port>
			</input>
			<output>
				<port id="1" names="StatefulPartitionedCall/u_net/model/block_4_expand_relu/Relu6:0" precision="FP32">
					<dim>-1</dim>
					<dim>192</dim>
					<dim>80</dim>
					<dim>80</dim>
				</port>
			</output>
		</layer>
		<layer id="65" name="StatefulPartitionedCall/u_net/model/block_4_depthwise_BN/FusedBatchNormV3/mean/Fused_Mul__copy" type="Const" version="opset1">
			<data element_type="f32" offset="124832" shape="192, 1, 1, 3, 3" size="6912"/>
			<rt_info>
				<attribute name="fused_names" value="StatefulPartitionedCall/u_net/model/block_4_depthwise_BN/FusedBatchNormV3/mean/Fused_Mul__copy" version="0"/>
			</rt_info>
			<output>
				<port id="0" names="StatefulPartitionedCall/u_net/model/block_4_depthwise/depthwise/ReadVariableOp:0" precision="FP32">
					<dim>192</dim>
					<dim>1</dim>
					<dim>1</dim>
					<dim>3</dim>
					<dim>3</dim>
				</port>
			</output>
		</layer>
		<layer id="66" name="StatefulPartitionedCall/u_net/model/block_4_depthwise/depthwise" type="GroupConvolution" version="opset1">
			<data auto_pad="same_upper" dilations="1, 1" pads_begin="0, 0" pads_end="0, 0" strides="1, 1"/>
			<rt_info>
				<attribute name="fused_names" value="StatefulPartitionedCall/u_net/model/block_4_depthwise/depthwise" version="0"/>
			</rt_info>
			<input>
				<port id="0" precision="FP32">
					<dim>-1</dim>
					<dim>192</dim>
					<dim>80</dim>
					<dim>80</dim>
				</port>
				<port id="1" precision="FP32">
					<dim>192</dim>
					<dim>1</dim>
					<dim>1</dim>
					<dim>3</dim>
					<dim>3</dim>
				</port>
			</input>
			<output>
				<port id="2" precision="FP32">
					<dim>-1</dim>
					<dim>192</dim>
					<dim>80</dim>
					<dim>80</dim>
				</port>
			</output>
		</layer>
		<layer id="67" name="data_add_3419134196" type="Const" version="opset1">
			<data element_type="f32" offset="131744" shape="1, 192, 1, 1" size="768"/>
			<rt_info>
				<attribute name="fused_names" value="data_add_3419134196" version="0"/>
			</rt_info>
			<output>
				<port id="0" precision="FP32">
					<dim>1</dim>
					<dim>192</dim>
					<dim>1</dim>
					<dim>1</dim>
				</port>
			</output>
		</layer>
		<layer id="68" name="StatefulPartitionedCall/u_net/model/block_4_depthwise_BN/FusedBatchNormV3/variance/Fused_Add_" type="Add" version="opset1">
			<data auto_broadcast="numpy"/>
			<rt_info>
				<attribute name="fused_names" value="StatefulPartitionedCall/u_net/model/block_4_depthwise_BN/FusedBatchNormV3/variance/Fused_Add_" version="0"/>
			</rt_info>
			<input>
				<port id="0" precision="FP32">
					<dim>-1</dim>
					<dim>192</dim>
					<dim>80</dim>
					<dim>80</dim>
				</port>
				<port id="1" precision="FP32">
					<dim>1</dim>
					<dim>192</dim>
					<dim>1</dim>
					<dim>1</dim>
				</port>
			</input>
			<output>
				<port id="2" names="StatefulPartitionedCall/u_net/model/block_4_depthwise_BN/FusedBatchNormV3:0" precision="FP32">
					<dim>-1</dim>
					<dim>192</dim>
					<dim>80</dim>
					<dim>80</dim>
				</port>
			</output>
		</layer>
		<layer id="69" name="StatefulPartitionedCall/u_net/model/block_4_depthwise_relu/Relu6" type="Clamp" version="opset1">
			<data max="6" min="0"/>
			<rt_info>
				<attribute name="fused_names" value="StatefulPartitionedCall/u_net/model/block_4_depthwise_relu/Relu6" version="0"/>
			</rt_info>
			<input>
				<port id="0" precision="FP32">
					<dim>-1</dim>
					<dim>192</dim>
					<dim>80</dim>
					<dim>80</dim>
				</port>
			</input>
			<output>
				<port id="1" names="StatefulPartitionedCall/u_net/model/block_4_depthwise_relu/Relu6:0" precision="FP32">
					<dim>-1</dim>
					<dim>192</dim>
					<dim>80</dim>
					<dim>80</dim>
				</port>
			</output>
		</layer>
		<layer id="70" name="StatefulPartitionedCall/u_net/model/block_4_project_BN/FusedBatchNormV3/mean/Fused_Mul__copy" type="Const" version="opset1">
			<data element_type="f32" offset="132512" shape="32, 192, 1, 1" size="24576"/>
			<rt_info>
				<attribute name="fused_names" value="StatefulPartitionedCall/u_net/model/block_4_project_BN/FusedBatchNormV3/mean/Fused_Mul__copy" version="0"/>
			</rt_info>
			<output>
				<port id="0" names="StatefulPartitionedCall/u_net/model/block_4_project/Conv2D/ReadVariableOp:0" precision="FP32">
					<dim>32</dim>
					<dim>192</dim>
					<dim>1</dim>
					<dim>1</dim>
				</port>
			</output>
		</layer>
		<layer id="71" name="StatefulPartitionedCall/u_net/model/block_4_project/Conv2D" type="Convolution" version="opset1">
			<data auto_pad="same_upper" dilations="1, 1" pads_begin="0, 0" pads_end="0, 0" strides="1, 1"/>
			<rt_info>
				<attribute name="fused_names" value="StatefulPartitionedCall/u_net/model/block_4_project/Conv2D" version="0"/>
			</rt_info>
			<input>
				<port id="0" precision="FP32">
					<dim>-1</dim>
					<dim>192</dim>
					<dim>80</dim>
					<dim>80</dim>
				</port>
				<port id="1" precision="FP32">
					<dim>32</dim>
					<dim>192</dim>
					<dim>1</dim>
					<dim>1</dim>
				</port>
			</input>
			<output>
				<port id="2" precision="FP32">
					<dim>-1</dim>
					<dim>32</dim>
					<dim>80</dim>
					<dim>80</dim>
				</port>
			</output>
		</layer>
		<layer id="72" name="data_add_3419934204" type="Const" version="opset1">
			<data element_type="f32" offset="157088" shape="1, 32, 1, 1" size="128"/>
			<rt_info>
				<attribute name="fused_names" value="data_add_3419934204" version="0"/>
			</rt_info>
			<output>
				<port id="0" precision="FP32">
					<dim>1</dim>
					<dim>32</dim>
					<dim>1</dim>
					<dim>1</dim>
				</port>
			</output>
		</layer>
		<layer id="73" name="StatefulPartitionedCall/u_net/model/block_4_project_BN/FusedBatchNormV3/variance/Fused_Add_" type="Add" version="opset1">
			<data auto_broadcast="numpy"/>
			<rt_info>
				<attribute name="fused_names" value="StatefulPartitionedCall/u_net/model/block_4_project_BN/FusedBatchNormV3/variance/Fused_Add_" version="0"/>
			</rt_info>
			<input>
				<port id="0" precision="FP32">
					<dim>-1</dim>
					<dim>32</dim>
					<dim>80</dim>
					<dim>80</dim>
				</port>
				<port id="1" precision="FP32">
					<dim>1</dim>
					<dim>32</dim>
					<dim>1</dim>
					<dim>1</dim>
				</port>
			</input>
			<output>
				<port id="2" names="StatefulPartitionedCall/u_net/model/block_4_project_BN/FusedBatchNormV3:0" precision="FP32">
					<dim>-1</dim>
					<dim>32</dim>
					<dim>80</dim>
					<dim>80</dim>
				</port>
			</output>
		</layer>
		<layer id="74" name="StatefulPartitionedCall/u_net/model/block_4_add/add" type="Add" version="opset1">
			<data auto_broadcast="numpy"/>
			<rt_info>
				<attribute name="fused_names" value="StatefulPartitionedCall/u_net/model/block_4_add/add" version="0"/>
			</rt_info>
			<input>
				<port id="0" precision="FP32">
					<dim>-1</dim>
					<dim>32</dim>
					<dim>80</dim>
					<dim>80</dim>
				</port>
				<port id="1" precision="FP32">
					<dim>-1</dim>
					<dim>32</dim>
					<dim>80</dim>
					<dim>80</dim>
				</port>
			</input>
			<output>
				<port id="2" names="StatefulPartitionedCall/u_net/model/block_4_add/add:0" precision="FP32">
					<dim>-1</dim>
					<dim>32</dim>
					<dim>80</dim>
					<dim>80</dim>
				</port>
			</output>
		</layer>
		<layer id="75" name="StatefulPartitionedCall/u_net/model/block_5_expand_BN/FusedBatchNormV3/mean/Fused_Mul__copy" type="Const" version="opset1">
			<data element_type="f32" offset="157216" shape="192, 32, 1, 1" size="24576"/>
			<rt_info>
				<attribute name="fused_names" value="StatefulPartitionedCall/u_net/model/block_5_expand_BN/FusedBatchNormV3/mean/Fused_Mul__copy" version="0"/>
			</rt_info>
			<output>
				<port id="0" names="StatefulPartitionedCall/u_net/model/block_5_expand/Conv2D/ReadVariableOp:0" precision="FP32">
					<dim>192</dim>
					<dim>32</dim>
					<dim>1</dim>
					<dim>1</dim>
				</port>
			</output>
		</layer>
		<layer id="76" name="StatefulPartitionedCall/u_net/model/block_5_expand/Conv2D" type="Convolution" version="opset1">
			<data auto_pad="same_upper" dilations="1, 1" pads_begin="0, 0" pads_end="0, 0" strides="1, 1"/>
			<rt_info>
				<attribute name="fused_names" value="StatefulPartitionedCall/u_net/model/block_5_expand/Conv2D" version="0"/>
			</rt_info>
			<input>
				<port id="0" precision="FP32">
					<dim>-1</dim>
					<dim>32</dim>
					<dim>80</dim>
					<dim>80</dim>
				</port>
				<port id="1" precision="FP32">
					<dim>192</dim>
					<dim>32</dim>
					<dim>1</dim>
					<dim>1</dim>
				</port>
			</input>
			<output>
				<port id="2" precision="FP32">
					<dim>-1</dim>
					<dim>192</dim>
					<dim>80</dim>
					<dim>80</dim>
				</port>
			</output>
		</layer>
		<layer id="77" name="data_add_3420734212" type="Const" version="opset1">
			<data element_type="f32" offset="181792" shape="1, 192, 1, 1" size="768"/>
			<rt_info>
				<attribute name="fused_names" value="data_add_3420734212" version="0"/>
			</rt_info>
			<output>
				<port id="0" precision="FP32">
					<dim>1</dim>
					<dim>192</dim>
					<dim>1</dim>
					<dim>1</dim>
				</port>
			</output>
		</layer>
		<layer id="78" name="StatefulPartitionedCall/u_net/model/block_5_expand_BN/FusedBatchNormV3/variance/Fused_Add_" type="Add" version="opset1">
			<data auto_broadcast="numpy"/>
			<rt_info>
				<attribute name="fused_names" value="StatefulPartitionedCall/u_net/model/block_5_expand_BN/FusedBatchNormV3/variance/Fused_Add_" version="0"/>
			</rt_info>
			<input>
				<port id="0" precision="FP32">
					<dim>-1</dim>
					<dim>192</dim>
					<dim>80</dim>
					<dim>80</dim>
				</port>
				<port id="1" precision="FP32">
					<dim>1</dim>
					<dim>192</dim>
					<dim>1</dim>
					<dim>1</dim>
				</port>
			</input>
			<output>
				<port id="2" names="StatefulPartitionedCall/u_net/model/block_5_expand_BN/FusedBatchNormV3:0" precision="FP32">
					<dim>-1</dim>
					<dim>192</dim>
					<dim>80</dim>
					<dim>80</dim>
				</port>
			</output>
		</layer>
		<layer id="79" name="StatefulPartitionedCall/u_net/model/block_5_expand_relu/Relu6" type="Clamp" version="opset1">
			<data max="6" min="0"/>
			<rt_info>
				<attribute name="fused_names" value="StatefulPartitionedCall/u_net/model/block_5_expand_relu/Relu6" version="0"/>
			</rt_info>
			<input>
				<port id="0" precision="FP32">
					<dim>-1</dim>
					<dim>192</dim>
					<dim>80</dim>
					<dim>80</dim>
				</port>
			</input>
			<output>
				<port id="1" names="StatefulPartitionedCall/u_net/model/block_5_expand_relu/Relu6:0" precision="FP32">
					<dim>-1</dim>
					<dim>192</dim>
					<dim>80</dim>
					<dim>80</dim>
				</port>
			</output>
		</layer>
		<layer id="80" name="StatefulPartitionedCall/u_net/model/block_5_depthwise_BN/FusedBatchNormV3/mean/Fused_Mul__copy" type="Const" version="opset1">
			<data element_type="f32" offset="182560" shape="192, 1, 1, 3, 3" size="6912"/>
			<rt_info>
				<attribute name="fused_names" value="StatefulPartitionedCall/u_net/model/block_5_depthwise_BN/FusedBatchNormV3/mean/Fused_Mul__copy" version="0"/>
			</rt_info>
			<output>
				<port id="0" names="StatefulPartitionedCall/u_net/model/block_5_depthwise/depthwise/ReadVariableOp:0" precision="FP32">
					<dim>192</dim>
					<dim>1</dim>
					<dim>1</dim>
					<dim>3</dim>
					<dim>3</dim>
				</port>
			</output>
		</layer>
		<layer id="81" name="StatefulPartitionedCall/u_net/model/block_5_depthwise/depthwise" type="GroupConvolution" version="opset1">
			<data auto_pad="same_upper" dilations="1, 1" pads_begin="0, 0" pads_end="0, 0" strides="1, 1"/>
			<rt_info>
				<attribute name="fused_names" value="StatefulPartitionedCall/u_net/model/block_5_depthwise/depthwise" version="0"/>
			</rt_info>
			<input>
				<port id="0" precision="FP32">
					<dim>-1</dim>
					<dim>192</dim>
					<dim>80</dim>
					<dim>80</dim>
				</port>
				<port id="1" precision="FP32">
					<dim>192</dim>
					<dim>1</dim>
					<dim>1</dim>
					<dim>3</dim>
					<dim>3</dim>
				</port>
			</input>
			<output>
				<port id="2" precision="FP32">
					<dim>-1</dim>
					<dim>192</dim>
					<dim>80</dim>
					<dim>80</dim>
				</port>
			</output>
		</layer>
		<layer id="82" name="data_add_3421534220" type="Const" version="opset1">
			<data element_type="f32" offset="189472" shape="1, 192, 1, 1" size="768"/>
			<rt_info>
				<attribute name="fused_names" value="data_add_3421534220" version="0"/>
			</rt_info>
			<output>
				<port id="0" precision="FP32">
					<dim>1</dim>
					<dim>192</dim>
					<dim>1</dim>
					<dim>1</dim>
				</port>
			</output>
		</layer>
		<layer id="83" name="StatefulPartitionedCall/u_net/model/block_5_depthwise_BN/FusedBatchNormV3/variance/Fused_Add_" type="Add" version="opset1">
			<data auto_broadcast="numpy"/>
			<rt_info>
				<attribute name="fused_names" value="StatefulPartitionedCall/u_net/model/block_5_depthwise_BN/FusedBatchNormV3/variance/Fused_Add_" version="0"/>
			</rt_info>
			<input>
				<port id="0" precision="FP32">
					<dim>-1</dim>
					<dim>192</dim>
					<dim>80</dim>
					<dim>80</dim>
				</port>
				<port id="1" precision="FP32">
					<dim>1</dim>
					<dim>192</dim>
					<dim>1</dim>
					<dim>1</dim>
				</port>
			</input>
			<output>
				<port id="2" names="StatefulPartitionedCall/u_net/model/block_5_depthwise_BN/FusedBatchNormV3:0" precision="FP32">
					<dim>-1</dim>
					<dim>192</dim>
					<dim>80</dim>
					<dim>80</dim>
				</port>
			</output>
		</layer>
		<layer id="84" name="StatefulPartitionedCall/u_net/model/block_5_depthwise_relu/Relu6" type="Clamp" version="opset1">
			<data max="6" min="0"/>
			<rt_info>
				<attribute name="fused_names" value="StatefulPartitionedCall/u_net/model/block_5_depthwise_relu/Relu6" version="0"/>
			</rt_info>
			<input>
				<port id="0" precision="FP32">
					<dim>-1</dim>
					<dim>192</dim>
					<dim>80</dim>
					<dim>80</dim>
				</port>
			</input>
			<output>
				<port id="1" names="StatefulPartitionedCall/u_net/model/block_5_depthwise_relu/Relu6:0" precision="FP32">
					<dim>-1</dim>
					<dim>192</dim>
					<dim>80</dim>
					<dim>80</dim>
				</port>
			</output>
		</layer>
		<layer id="85" name="StatefulPartitionedCall/u_net/model/block_5_project_BN/FusedBatchNormV3/mean/Fused_Mul__copy" type="Const" version="opset1">
			<data element_type="f32" offset="190240" shape="32, 192, 1, 1" size="24576"/>
			<rt_info>
				<attribute name="fused_names" value="StatefulPartitionedCall/u_net/model/block_5_project_BN/FusedBatchNormV3/mean/Fused_Mul__copy" version="0"/>
			</rt_info>
			<output>
				<port id="0" names="StatefulPartitionedCall/u_net/model/block_5_project/Conv2D/ReadVariableOp:0" precision="FP32">
					<dim>32</dim>
					<dim>192</dim>
					<dim>1</dim>
					<dim>1</dim>
				</port>
			</output>
		</layer>
		<layer id="86" name="StatefulPartitionedCall/u_net/model/block_5_project/Conv2D" type="Convolution" version="opset1">
			<data auto_pad="same_upper" dilations="1, 1" pads_begin="0, 0" pads_end="0, 0" strides="1, 1"/>
			<rt_info>
				<attribute name="fused_names" value="StatefulPartitionedCall/u_net/model/block_5_project/Conv2D" version="0"/>
			</rt_info>
			<input>
				<port id="0" precision="FP32">
					<dim>-1</dim>
					<dim>192</dim>
					<dim>80</dim>
					<dim>80</dim>
				</port>
				<port id="1" precision="FP32">
					<dim>32</dim>
					<dim>192</dim>
					<dim>1</dim>
					<dim>1</dim>
				</port>
			</input>
			<output>
				<port id="2" precision="FP32">
					<dim>-1</dim>
					<dim>32</dim>
					<dim>80</dim>
					<dim>80</dim>
				</port>
			</output>
		</layer>
		<layer id="87" name="data_add_3422334228" type="Const" version="opset1">
			<data element_type="f32" offset="214816" shape="1, 32, 1, 1" size="128"/>
			<rt_info>
				<attribute name="fused_names" value="data_add_3422334228" version="0"/>
			</rt_info>
			<output>
				<port id="0" precision="FP32">
					<dim>1</dim>
					<dim>32</dim>
					<dim>1</dim>
					<dim>1</dim>
				</port>
			</output>
		</layer>
		<layer id="88" name="StatefulPartitionedCall/u_net/model/block_5_project_BN/FusedBatchNormV3/variance/Fused_Add_" type="Add" version="opset1">
			<data auto_broadcast="numpy"/>
			<rt_info>
				<attribute name="fused_names" value="StatefulPartitionedCall/u_net/model/block_5_project_BN/FusedBatchNormV3/variance/Fused_Add_" version="0"/>
			</rt_info>
			<input>
				<port id="0" precision="FP32">
					<dim>-1</dim>
					<dim>32</dim>
					<dim>80</dim>
					<dim>80</dim>
				</port>
				<port id="1" precision="FP32">
					<dim>1</dim>
					<dim>32</dim>
					<dim>1</dim>
					<dim>1</dim>
				</port>
			</input>
			<output>
				<port id="2" names="StatefulPartitionedCall/u_net/model/block_5_project_BN/FusedBatchNormV3:0" precision="FP32">
					<dim>-1</dim>
					<dim>32</dim>
					<dim>80</dim>
					<dim>80</dim>
				</port>
			</output>
		</layer>
		<layer id="89" name="StatefulPartitionedCall/u_net/model/block_5_add/add" type="Add" version="opset1">
			<data auto_broadcast="numpy"/>
			<rt_info>
				<attribute name="fused_names" value="StatefulPartitionedCall/u_net/model/block_5_add/add" version="0"/>
			</rt_info>
			<input>
				<port id="0" precision="FP32">
					<dim>-1</dim>
					<dim>32</dim>
					<dim>80</dim>
					<dim>80</dim>
				</port>
				<port id="1" precision="FP32">
					<dim>-1</dim>
					<dim>32</dim>
					<dim>80</dim>
					<dim>80</dim>
				</port>
			</input>
			<output>
				<port id="2" names="StatefulPartitionedCall/u_net/model/block_5_add/add:0" precision="FP32">
					<dim>-1</dim>
					<dim>32</dim>
					<dim>80</dim>
					<dim>80</dim>
				</port>
			</output>
		</layer>
		<layer id="90" name="StatefulPartitionedCall/u_net/model/block_6_expand_BN/FusedBatchNormV3/mean/Fused_Mul__copy" type="Const" version="opset1">
			<data element_type="f32" offset="214944" shape="192, 32, 1, 1" size="24576"/>
			<rt_info>
				<attribute name="fused_names" value="StatefulPartitionedCall/u_net/model/block_6_expand_BN/FusedBatchNormV3/mean/Fused_Mul__copy" version="0"/>
			</rt_info>
			<output>
				<port id="0" names="StatefulPartitionedCall/u_net/model/block_6_expand/Conv2D/ReadVariableOp:0" precision="FP32">
					<dim>192</dim>
					<dim>32</dim>
					<dim>1</dim>
					<dim>1</dim>
				</port>
			</output>
		</layer>
		<layer id="91" name="StatefulPartitionedCall/u_net/model/block_6_expand/Conv2D" type="Convolution" version="opset1">
			<data auto_pad="same_upper" dilations="1, 1" pads_begin="0, 0" pads_end="0, 0" strides="1, 1"/>
			<rt_info>
				<attribute name="fused_names" value="StatefulPartitionedCall/u_net/model/block_6_expand/Conv2D" version="0"/>
			</rt_info>
			<input>
				<port id="0" precision="FP32">
					<dim>-1</dim>
					<dim>32</dim>
					<dim>80</dim>
					<dim>80</dim>
				</port>
				<port id="1" precision="FP32">
					<dim>192</dim>
					<dim>32</dim>
					<dim>1</dim>
					<dim>1</dim>
				</port>
			</input>
			<output>
				<port id="2" precision="FP32">
					<dim>-1</dim>
					<dim>192</dim>
					<dim>80</dim>
					<dim>80</dim>
				</port>
			</output>
		</layer>
		<layer id="92" name="data_add_3423134236" type="Const" version="opset1">
			<data element_type="f32" offset="239520" shape="1, 192, 1, 1" size="768"/>
			<rt_info>
				<attribute name="fused_names" value="data_add_3423134236" version="0"/>
			</rt_info>
			<output>
				<port id="0" precision="FP32">
					<dim>1</dim>
					<dim>192</dim>
					<dim>1</dim>
					<dim>1</dim>
				</port>
			</output>
		</layer>
		<layer id="93" name="StatefulPartitionedCall/u_net/model/block_6_expand_BN/FusedBatchNormV3/variance/Fused_Add_" type="Add" version="opset1">
			<data auto_broadcast="numpy"/>
			<rt_info>
				<attribute name="fused_names" value="StatefulPartitionedCall/u_net/model/block_6_expand_BN/FusedBatchNormV3/variance/Fused_Add_" version="0"/>
			</rt_info>
			<input>
				<port id="0" precision="FP32">
					<dim>-1</dim>
					<dim>192</dim>
					<dim>80</dim>
					<dim>80</dim>
				</port>
				<port id="1" precision="FP32">
					<dim>1</dim>
					<dim>192</dim>
					<dim>1</dim>
					<dim>1</dim>
				</port>
			</input>
			<output>
				<port id="2" names="StatefulPartitionedCall/u_net/model/block_6_expand_BN/FusedBatchNormV3:0" precision="FP32">
					<dim>-1</dim>
					<dim>192</dim>
					<dim>80</dim>
					<dim>80</dim>
				</port>
			</output>
		</layer>
		<layer id="94" name="StatefulPartitionedCall/u_net/model/block_6_expand_relu/Relu6" type="Clamp" version="opset1">
			<data max="6" min="0"/>
			<rt_info>
				<attribute name="fused_names" value="StatefulPartitionedCall/u_net/model/block_6_expand_relu/Relu6" version="0"/>
			</rt_info>
			<input>
				<port id="0" precision="FP32">
					<dim>-1</dim>
					<dim>192</dim>
					<dim>80</dim>
					<dim>80</dim>
				</port>
			</input>
			<output>
				<port id="1" names="StatefulPartitionedCall/u_net/model/block_6_expand_relu/Relu6:0" precision="FP32">
					<dim>-1</dim>
					<dim>192</dim>
					<dim>80</dim>
					<dim>80</dim>
				</port>
			</output>
		</layer>
		<layer id="95" name="StatefulPartitionedCall/u_net/model/block_6_depthwise_BN/FusedBatchNormV3/mean/Fused_Mul__copy" type="Const" version="opset1">
			<data element_type="f32" offset="240288" shape="192, 1, 1, 3, 3" size="6912"/>
			<rt_info>
				<attribute name="fused_names" value="StatefulPartitionedCall/u_net/model/block_6_depthwise_BN/FusedBatchNormV3/mean/Fused_Mul__copy" version="0"/>
			</rt_info>
			<output>
				<port id="0" names="StatefulPartitionedCall/u_net/model/block_6_depthwise/depthwise/ReadVariableOp:0" precision="FP32">
					<dim>192</dim>
					<dim>1</dim>
					<dim>1</dim>
					<dim>3</dim>
					<dim>3</dim>
				</port>
			</output>
		</layer>
		<layer id="96" name="StatefulPartitionedCall/u_net/model/block_6_depthwise/depthwise" type="GroupConvolution" version="opset1">
			<data auto_pad="explicit" dilations="1, 1" pads_begin="0, 0" pads_end="1, 1" strides="2, 2"/>
			<rt_info>
				<attribute name="fused_names" value="StatefulPartitionedCall/u_net/model/block_6_depthwise/depthwise, StatefulPartitionedCall/u_net/model/block_6_pad/Pad" version="0"/>
			</rt_info>
			<input>
				<port id="0" precision="FP32">
					<dim>-1</dim>
					<dim>192</dim>
					<dim>80</dim>
					<dim>80</dim>
				</port>
				<port id="1" precision="FP32">
					<dim>192</dim>
					<dim>1</dim>
					<dim>1</dim>
					<dim>3</dim>
					<dim>3</dim>
				</port>
			</input>
			<output>
				<port id="2" precision="FP32">
					<dim>-1</dim>
					<dim>192</dim>
					<dim>40</dim>
					<dim>40</dim>
				</port>
			</output>
		</layer>
		<layer id="97" name="data_add_3423934244" type="Const" version="opset1">
			<data element_type="f32" offset="247200" shape="1, 192, 1, 1" size="768"/>
			<rt_info>
				<attribute name="fused_names" value="data_add_3423934244" version="0"/>
			</rt_info>
			<output>
				<port id="0" precision="FP32">
					<dim>1</dim>
					<dim>192</dim>
					<dim>1</dim>
					<dim>1</dim>
				</port>
			</output>
		</layer>
		<layer id="98" name="StatefulPartitionedCall/u_net/model/block_6_depthwise_BN/FusedBatchNormV3/variance/Fused_Add_" type="Add" version="opset1">
			<data auto_broadcast="numpy"/>
			<rt_info>
				<attribute name="fused_names" value="StatefulPartitionedCall/u_net/model/block_6_depthwise_BN/FusedBatchNormV3/variance/Fused_Add_" version="0"/>
			</rt_info>
			<input>
				<port id="0" precision="FP32">
					<dim>-1</dim>
					<dim>192</dim>
					<dim>40</dim>
					<dim>40</dim>
				</port>
				<port id="1" precision="FP32">
					<dim>1</dim>
					<dim>192</dim>
					<dim>1</dim>
					<dim>1</dim>
				</port>
			</input>
			<output>
				<port id="2" names="StatefulPartitionedCall/u_net/model/block_6_depthwise_BN/FusedBatchNormV3:0" precision="FP32">
					<dim>-1</dim>
					<dim>192</dim>
					<dim>40</dim>
					<dim>40</dim>
				</port>
			</output>
		</layer>
		<layer id="99" name="StatefulPartitionedCall/u_net/model/block_6_depthwise_relu/Relu6" type="Clamp" version="opset1">
			<data max="6" min="0"/>
			<rt_info>
				<attribute name="fused_names" value="StatefulPartitionedCall/u_net/model/block_6_depthwise_relu/Relu6" version="0"/>
			</rt_info>
			<input>
				<port id="0" precision="FP32">
					<dim>-1</dim>
					<dim>192</dim>
					<dim>40</dim>
					<dim>40</dim>
				</port>
			</input>
			<output>
				<port id="1" names="StatefulPartitionedCall/u_net/model/block_6_depthwise_relu/Relu6:0" precision="FP32">
					<dim>-1</dim>
					<dim>192</dim>
					<dim>40</dim>
					<dim>40</dim>
				</port>
			</output>
		</layer>
		<layer id="100" name="StatefulPartitionedCall/u_net/model/block_6_project_BN/FusedBatchNormV3/mean/Fused_Mul__copy" type="Const" version="opset1">
			<data element_type="f32" offset="247968" shape="64, 192, 1, 1" size="49152"/>
			<rt_info>
				<attribute name="fused_names" value="StatefulPartitionedCall/u_net/model/block_6_project_BN/FusedBatchNormV3/mean/Fused_Mul__copy" version="0"/>
			</rt_info>
			<output>
				<port id="0" names="StatefulPartitionedCall/u_net/model/block_6_project/Conv2D/ReadVariableOp:0" precision="FP32">
					<dim>64</dim>
					<dim>192</dim>
					<dim>1</dim>
					<dim>1</dim>
				</port>
			</output>
		</layer>
		<layer id="101" name="StatefulPartitionedCall/u_net/model/block_6_project/Conv2D" type="Convolution" version="opset1">
			<data auto_pad="same_upper" dilations="1, 1" pads_begin="0, 0" pads_end="0, 0" strides="1, 1"/>
			<rt_info>
				<attribute name="fused_names" value="StatefulPartitionedCall/u_net/model/block_6_project/Conv2D" version="0"/>
			</rt_info>
			<input>
				<port id="0" precision="FP32">
					<dim>-1</dim>
					<dim>192</dim>
					<dim>40</dim>
					<dim>40</dim>
				</port>
				<port id="1" precision="FP32">
					<dim>64</dim>
					<dim>192</dim>
					<dim>1</dim>
					<dim>1</dim>
				</port>
			</input>
			<output>
				<port id="2" precision="FP32">
					<dim>-1</dim>
					<dim>64</dim>
					<dim>40</dim>
					<dim>40</dim>
				</port>
			</output>
		</layer>
		<layer id="102" name="data_add_3424734252" type="Const" version="opset1">
			<data element_type="f32" offset="297120" shape="1, 64, 1, 1" size="256"/>
			<rt_info>
				<attribute name="fused_names" value="data_add_3424734252" version="0"/>
			</rt_info>
			<output>
				<port id="0" precision="FP32">
					<dim>1</dim>
					<dim>64</dim>
					<dim>1</dim>
					<dim>1</dim>
				</port>
			</output>
		</layer>
		<layer id="103" name="StatefulPartitionedCall/u_net/model/block_6_project_BN/FusedBatchNormV3/variance/Fused_Add_" type="Add" version="opset1">
			<data auto_broadcast="numpy"/>
			<rt_info>
				<attribute name="fused_names" value="StatefulPartitionedCall/u_net/model/block_6_project_BN/FusedBatchNormV3/variance/Fused_Add_" version="0"/>
			</rt_info>
			<input>
				<port id="0" precision="FP32">
					<dim>-1</dim>
					<dim>64</dim>
					<dim>40</dim>
					<dim>40</dim>
				</port>
				<port id="1" precision="FP32">
					<dim>1</dim>
					<dim>64</dim>
					<dim>1</dim>
					<dim>1</dim>
				</port>
			</input>
			<output>
				<port id="2" names="StatefulPartitionedCall/u_net/model/block_6_project_BN/FusedBatchNormV3:0" precision="FP32">
					<dim>-1</dim>
					<dim>64</dim>
					<dim>40</dim>
					<dim>40</dim>
				</port>
			</output>
		</layer>
		<layer id="104" name="StatefulPartitionedCall/u_net/model/block_7_expand_BN/FusedBatchNormV3/mean/Fused_Mul__copy" type="Const" version="opset1">
			<data element_type="f32" offset="297376" shape="384, 64, 1, 1" size="98304"/>
			<rt_info>
				<attribute name="fused_names" value="StatefulPartitionedCall/u_net/model/block_7_expand_BN/FusedBatchNormV3/mean/Fused_Mul__copy" version="0"/>
			</rt_info>
			<output>
				<port id="0" names="StatefulPartitionedCall/u_net/model/block_7_expand/Conv2D/ReadVariableOp:0" precision="FP32">
					<dim>384</dim>
					<dim>64</dim>
					<dim>1</dim>
					<dim>1</dim>
				</port>
			</output>
		</layer>
		<layer id="105" name="StatefulPartitionedCall/u_net/model/block_7_expand/Conv2D" type="Convolution" version="opset1">
			<data auto_pad="same_upper" dilations="1, 1" pads_begin="0, 0" pads_end="0, 0" strides="1, 1"/>
			<rt_info>
				<attribute name="fused_names" value="StatefulPartitionedCall/u_net/model/block_7_expand/Conv2D" version="0"/>
			</rt_info>
			<input>
				<port id="0" precision="FP32">
					<dim>-1</dim>
					<dim>64</dim>
					<dim>40</dim>
					<dim>40</dim>
				</port>
				<port id="1" precision="FP32">
					<dim>384</dim>
					<dim>64</dim>
					<dim>1</dim>
					<dim>1</dim>
				</port>
			</input>
			<output>
				<port id="2" precision="FP32">
					<dim>-1</dim>
					<dim>384</dim>
					<dim>40</dim>
					<dim>40</dim>
				</port>
			</output>
		</layer>
		<layer id="106" name="data_add_3425534260" type="Const" version="opset1">
			<data element_type="f32" offset="395680" shape="1, 384, 1, 1" size="1536"/>
			<rt_info>
				<attribute name="fused_names" value="data_add_3425534260" version="0"/>
			</rt_info>
			<output>
				<port id="0" precision="FP32">
					<dim>1</dim>
					<dim>384</dim>
					<dim>1</dim>
					<dim>1</dim>
				</port>
			</output>
		</layer>
		<layer id="107" name="StatefulPartitionedCall/u_net/model/block_7_expand_BN/FusedBatchNormV3/variance/Fused_Add_" type="Add" version="opset1">
			<data auto_broadcast="numpy"/>
			<rt_info>
				<attribute name="fused_names" value="StatefulPartitionedCall/u_net/model/block_7_expand_BN/FusedBatchNormV3/variance/Fused_Add_" version="0"/>
			</rt_info>
			<input>
				<port id="0" precision="FP32">
					<dim>-1</dim>
					<dim>384</dim>
					<dim>40</dim>
					<dim>40</dim>
				</port>
				<port id="1" precision="FP32">
					<dim>1</dim>
					<dim>384</dim>
					<dim>1</dim>
					<dim>1</dim>
				</port>
			</input>
			<output>
				<port id="2" names="StatefulPartitionedCall/u_net/model/block_7_expand_BN/FusedBatchNormV3:0" precision="FP32">
					<dim>-1</dim>
					<dim>384</dim>
					<dim>40</dim>
					<dim>40</dim>
				</port>
			</output>
		</layer>
		<layer id="108" name="StatefulPartitionedCall/u_net/model/block_7_expand_relu/Relu6" type="Clamp" version="opset1">
			<data max="6" min="0"/>
			<rt_info>
				<attribute name="fused_names" value="StatefulPartitionedCall/u_net/model/block_7_expand_relu/Relu6" version="0"/>
			</rt_info>
			<input>
				<port id="0" precision="FP32">
					<dim>-1</dim>
					<dim>384</dim>
					<dim>40</dim>
					<dim>40</dim>
				</port>
			</input>
			<output>
				<port id="1" names="StatefulPartitionedCall/u_net/model/block_7_expand_relu/Relu6:0" precision="FP32">
					<dim>-1</dim>
					<dim>384</dim>
					<dim>40</dim>
					<dim>40</dim>
				</port>
			</output>
		</layer>
		<layer id="109" name="StatefulPartitionedCall/u_net/model/block_7_depthwise_BN/FusedBatchNormV3/mean/Fused_Mul__copy" type="Const" version="opset1">
			<data element_type="f32" offset="397216" shape="384, 1, 1, 3, 3" size="13824"/>
			<rt_info>
				<attribute name="fused_names" value="StatefulPartitionedCall/u_net/model/block_7_depthwise_BN/FusedBatchNormV3/mean/Fused_Mul__copy" version="0"/>
			</rt_info>
			<output>
				<port id="0" names="StatefulPartitionedCall/u_net/model/block_7_depthwise/depthwise/ReadVariableOp:0" precision="FP32">
					<dim>384</dim>
					<dim>1</dim>
					<dim>1</dim>
					<dim>3</dim>
					<dim>3</dim>
				</port>
			</output>
		</layer>
		<layer id="110" name="StatefulPartitionedCall/u_net/model/block_7_depthwise/depthwise" type="GroupConvolution" version="opset1">
			<data auto_pad="same_upper" dilations="1, 1" pads_begin="0, 0" pads_end="0, 0" strides="1, 1"/>
			<rt_info>
				<attribute name="fused_names" value="StatefulPartitionedCall/u_net/model/block_7_depthwise/depthwise" version="0"/>
			</rt_info>
			<input>
				<port id="0" precision="FP32">
					<dim>-1</dim>
					<dim>384</dim>
					<dim>40</dim>
					<dim>40</dim>
				</port>
				<port id="1" precision="FP32">
					<dim>384</dim>
					<dim>1</dim>
					<dim>1</dim>
					<dim>3</dim>
					<dim>3</dim>
				</port>
			</input>
			<output>
				<port id="2" precision="FP32">
					<dim>-1</dim>
					<dim>384</dim>
					<dim>40</dim>
					<dim>40</dim>
				</port>
			</output>
		</layer>
		<layer id="111" name="data_add_3426334268" type="Const" version="opset1">
			<data element_type="f32" offset="411040" shape="1, 384, 1, 1" size="1536"/>
			<rt_info>
				<attribute name="fused_names" value="data_add_3426334268" version="0"/>
			</rt_info>
			<output>
				<port id="0" precision="FP32">
					<dim>1</dim>
					<dim>384</dim>
					<dim>1</dim>
					<dim>1</dim>
				</port>
			</output>
		</layer>
		<layer id="112" name="StatefulPartitionedCall/u_net/model/block_7_depthwise_BN/FusedBatchNormV3/variance/Fused_Add_" type="Add" version="opset1">
			<data auto_broadcast="numpy"/>
			<rt_info>
				<attribute name="fused_names" value="StatefulPartitionedCall/u_net/model/block_7_depthwise_BN/FusedBatchNormV3/variance/Fused_Add_" version="0"/>
			</rt_info>
			<input>
				<port id="0" precision="FP32">
					<dim>-1</dim>
					<dim>384</dim>
					<dim>40</dim>
					<dim>40</dim>
				</port>
				<port id="1" precision="FP32">
					<dim>1</dim>
					<dim>384</dim>
					<dim>1</dim>
					<dim>1</dim>
				</port>
			</input>
			<output>
				<port id="2" names="StatefulPartitionedCall/u_net/model/block_7_depthwise_BN/FusedBatchNormV3:0" precision="FP32">
					<dim>-1</dim>
					<dim>384</dim>
					<dim>40</dim>
					<dim>40</dim>
				</port>
			</output>
		</layer>
		<layer id="113" name="StatefulPartitionedCall/u_net/model/block_7_depthwise_relu/Relu6" type="Clamp" version="opset1">
			<data max="6" min="0"/>
			<rt_info>
				<attribute name="fused_names" value="StatefulPartitionedCall/u_net/model/block_7_depthwise_relu/Relu6" version="0"/>
			</rt_info>
			<input>
				<port id="0" precision="FP32">
					<dim>-1</dim>
					<dim>384</dim>
					<dim>40</dim>
					<dim>40</dim>
				</port>
			</input>
			<output>
				<port id="1" names="StatefulPartitionedCall/u_net/model/block_7_depthwise_relu/Relu6:0" precision="FP32">
					<dim>-1</dim>
					<dim>384</dim>
					<dim>40</dim>
					<dim>40</dim>
				</port>
			</output>
		</layer>
		<layer id="114" name="StatefulPartitionedCall/u_net/model/block_7_project_BN/FusedBatchNormV3/mean/Fused_Mul__copy" type="Const" version="opset1">
			<data element_type="f32" offset="412576" shape="64, 384, 1, 1" size="98304"/>
			<rt_info>
				<attribute name="fused_names" value="StatefulPartitionedCall/u_net/model/block_7_project_BN/FusedBatchNormV3/mean/Fused_Mul__copy" version="0"/>
			</rt_info>
			<output>
				<port id="0" names="StatefulPartitionedCall/u_net/model/block_7_project/Conv2D/ReadVariableOp:0" precision="FP32">
					<dim>64</dim>
					<dim>384</dim>
					<dim>1</dim>
					<dim>1</dim>
				</port>
			</output>
		</layer>
		<layer id="115" name="StatefulPartitionedCall/u_net/model/block_7_project/Conv2D" type="Convolution" version="opset1">
			<data auto_pad="same_upper" dilations="1, 1" pads_begin="0, 0" pads_end="0, 0" strides="1, 1"/>
			<rt_info>
				<attribute name="fused_names" value="StatefulPartitionedCall/u_net/model/block_7_project/Conv2D" version="0"/>
			</rt_info>
			<input>
				<port id="0" precision="FP32">
					<dim>-1</dim>
					<dim>384</dim>
					<dim>40</dim>
					<dim>40</dim>
				</port>
				<port id="1" precision="FP32">
					<dim>64</dim>
					<dim>384</dim>
					<dim>1</dim>
					<dim>1</dim>
				</port>
			</input>
			<output>
				<port id="2" precision="FP32">
					<dim>-1</dim>
					<dim>64</dim>
					<dim>40</dim>
					<dim>40</dim>
				</port>
			</output>
		</layer>
		<layer id="116" name="data_add_3427134276" type="Const" version="opset1">
			<data element_type="f32" offset="510880" shape="1, 64, 1, 1" size="256"/>
			<rt_info>
				<attribute name="fused_names" value="data_add_3427134276" version="0"/>
			</rt_info>
			<output>
				<port id="0" precision="FP32">
					<dim>1</dim>
					<dim>64</dim>
					<dim>1</dim>
					<dim>1</dim>
				</port>
			</output>
		</layer>
		<layer id="117" name="StatefulPartitionedCall/u_net/model/block_7_project_BN/FusedBatchNormV3/variance/Fused_Add_" type="Add" version="opset1">
			<data auto_broadcast="numpy"/>
			<rt_info>
				<attribute name="fused_names" value="StatefulPartitionedCall/u_net/model/block_7_project_BN/FusedBatchNormV3/variance/Fused_Add_" version="0"/>
			</rt_info>
			<input>
				<port id="0" precision="FP32">
					<dim>-1</dim>
					<dim>64</dim>
					<dim>40</dim>
					<dim>40</dim>
				</port>
				<port id="1" precision="FP32">
					<dim>1</dim>
					<dim>64</dim>
					<dim>1</dim>
					<dim>1</dim>
				</port>
			</input>
			<output>
				<port id="2" names="StatefulPartitionedCall/u_net/model/block_7_project_BN/FusedBatchNormV3:0" precision="FP32">
					<dim>-1</dim>
					<dim>64</dim>
					<dim>40</dim>
					<dim>40</dim>
				</port>
			</output>
		</layer>
		<layer id="118" name="StatefulPartitionedCall/u_net/model/block_7_add/add" type="Add" version="opset1">
			<data auto_broadcast="numpy"/>
			<rt_info>
				<attribute name="fused_names" value="StatefulPartitionedCall/u_net/model/block_7_add/add" version="0"/>
			</rt_info>
			<input>
				<port id="0" precision="FP32">
					<dim>-1</dim>
					<dim>64</dim>
					<dim>40</dim>
					<dim>40</dim>
				</port>
				<port id="1" precision="FP32">
					<dim>-1</dim>
					<dim>64</dim>
					<dim>40</dim>
					<dim>40</dim>
				</port>
			</input>
			<output>
				<port id="2" names="StatefulPartitionedCall/u_net/model/block_7_add/add:0" precision="FP32">
					<dim>-1</dim>
					<dim>64</dim>
					<dim>40</dim>
					<dim>40</dim>
				</port>
			</output>
		</layer>
		<layer id="119" name="StatefulPartitionedCall/u_net/model/block_8_expand_BN/FusedBatchNormV3/mean/Fused_Mul__copy" type="Const" version="opset1">
			<data element_type="f32" offset="511136" shape="384, 64, 1, 1" size="98304"/>
			<rt_info>
				<attribute name="fused_names" value="StatefulPartitionedCall/u_net/model/block_8_expand_BN/FusedBatchNormV3/mean/Fused_Mul__copy" version="0"/>
			</rt_info>
			<output>
				<port id="0" names="StatefulPartitionedCall/u_net/model/block_8_expand/Conv2D/ReadVariableOp:0" precision="FP32">
					<dim>384</dim>
					<dim>64</dim>
					<dim>1</dim>
					<dim>1</dim>
				</port>
			</output>
		</layer>
		<layer id="120" name="StatefulPartitionedCall/u_net/model/block_8_expand/Conv2D" type="Convolution" version="opset1">
			<data auto_pad="same_upper" dilations="1, 1" pads_begin="0, 0" pads_end="0, 0" strides="1, 1"/>
			<rt_info>
				<attribute name="fused_names" value="StatefulPartitionedCall/u_net/model/block_8_expand/Conv2D" version="0"/>
			</rt_info>
			<input>
				<port id="0" precision="FP32">
					<dim>-1</dim>
					<dim>64</dim>
					<dim>40</dim>
					<dim>40</dim>
				</port>
				<port id="1" precision="FP32">
					<dim>384</dim>
					<dim>64</dim>
					<dim>1</dim>
					<dim>1</dim>
				</port>
			</input>
			<output>
				<port id="2" precision="FP32">
					<dim>-1</dim>
					<dim>384</dim>
					<dim>40</dim>
					<dim>40</dim>
				</port>
			</output>
		</layer>
		<layer id="121" name="data_add_3427934284" type="Const" version="opset1">
			<data element_type="f32" offset="609440" shape="1, 384, 1, 1" size="1536"/>
			<rt_info>
				<attribute name="fused_names" value="data_add_3427934284" version="0"/>
			</rt_info>
			<output>
				<port id="0" precision="FP32">
					<dim>1</dim>
					<dim>384</dim>
					<dim>1</dim>
					<dim>1</dim>
				</port>
			</output>
		</layer>
		<layer id="122" name="StatefulPartitionedCall/u_net/model/block_8_expand_BN/FusedBatchNormV3/variance/Fused_Add_" type="Add" version="opset1">
			<data auto_broadcast="numpy"/>
			<rt_info>
				<attribute name="fused_names" value="StatefulPartitionedCall/u_net/model/block_8_expand_BN/FusedBatchNormV3/variance/Fused_Add_" version="0"/>
			</rt_info>
			<input>
				<port id="0" precision="FP32">
					<dim>-1</dim>
					<dim>384</dim>
					<dim>40</dim>
					<dim>40</dim>
				</port>
				<port id="1" precision="FP32">
					<dim>1</dim>
					<dim>384</dim>
					<dim>1</dim>
					<dim>1</dim>
				</port>
			</input>
			<output>
				<port id="2" names="StatefulPartitionedCall/u_net/model/block_8_expand_BN/FusedBatchNormV3:0" precision="FP32">
					<dim>-1</dim>
					<dim>384</dim>
					<dim>40</dim>
					<dim>40</dim>
				</port>
			</output>
		</layer>
		<layer id="123" name="StatefulPartitionedCall/u_net/model/block_8_expand_relu/Relu6" type="Clamp" version="opset1">
			<data max="6" min="0"/>
			<rt_info>
				<attribute name="fused_names" value="StatefulPartitionedCall/u_net/model/block_8_expand_relu/Relu6" version="0"/>
			</rt_info>
			<input>
				<port id="0" precision="FP32">
					<dim>-1</dim>
					<dim>384</dim>
					<dim>40</dim>
					<dim>40</dim>
				</port>
			</input>
			<output>
				<port id="1" names="StatefulPartitionedCall/u_net/model/block_8_expand_relu/Relu6:0" precision="FP32">
					<dim>-1</dim>
					<dim>384</dim>
					<dim>40</dim>
					<dim>40</dim>
				</port>
			</output>
		</layer>
		<layer id="124" name="StatefulPartitionedCall/u_net/model/block_8_depthwise_BN/FusedBatchNormV3/mean/Fused_Mul__copy" type="Const" version="opset1">
			<data element_type="f32" offset="610976" shape="384, 1, 1, 3, 3" size="13824"/>
			<rt_info>
				<attribute name="fused_names" value="StatefulPartitionedCall/u_net/model/block_8_depthwise_BN/FusedBatchNormV3/mean/Fused_Mul__copy" version="0"/>
			</rt_info>
			<output>
				<port id="0" names="StatefulPartitionedCall/u_net/model/block_8_depthwise/depthwise/ReadVariableOp:0" precision="FP32">
					<dim>384</dim>
					<dim>1</dim>
					<dim>1</dim>
					<dim>3</dim>
					<dim>3</dim>
				</port>
			</output>
		</layer>
		<layer id="125" name="StatefulPartitionedCall/u_net/model/block_8_depthwise/depthwise" type="GroupConvolution" version="opset1">
			<data auto_pad="same_upper" dilations="1, 1" pads_begin="0, 0" pads_end="0, 0" strides="1, 1"/>
			<rt_info>
				<attribute name="fused_names" value="StatefulPartitionedCall/u_net/model/block_8_depthwise/depthwise" version="0"/>
			</rt_info>
			<input>
				<port id="0" precision="FP32">
					<dim>-1</dim>
					<dim>384</dim>
					<dim>40</dim>
					<dim>40</dim>
				</port>
				<port id="1" precision="FP32">
					<dim>384</dim>
					<dim>1</dim>
					<dim>1</dim>
					<dim>3</dim>
					<dim>3</dim>
				</port>
			</input>
			<output>
				<port id="2" precision="FP32">
					<dim>-1</dim>
					<dim>384</dim>
					<dim>40</dim>
					<dim>40</dim>
				</port>
			</output>
		</layer>
		<layer id="126" name="data_add_3428734292" type="Const" version="opset1">
			<data element_type="f32" offset="624800" shape="1, 384, 1, 1" size="1536"/>
			<rt_info>
				<attribute name="fused_names" value="data_add_3428734292" version="0"/>
			</rt_info>
			<output>
				<port id="0" precision="FP32">
					<dim>1</dim>
					<dim>384</dim>
					<dim>1</dim>
					<dim>1</dim>
				</port>
			</output>
		</layer>
		<layer id="127" name="StatefulPartitionedCall/u_net/model/block_8_depthwise_BN/FusedBatchNormV3/variance/Fused_Add_" type="Add" version="opset1">
			<data auto_broadcast="numpy"/>
			<rt_info>
				<attribute name="fused_names" value="StatefulPartitionedCall/u_net/model/block_8_depthwise_BN/FusedBatchNormV3/variance/Fused_Add_" version="0"/>
			</rt_info>
			<input>
				<port id="0" precision="FP32">
					<dim>-1</dim>
					<dim>384</dim>
					<dim>40</dim>
					<dim>40</dim>
				</port>
				<port id="1" precision="FP32">
					<dim>1</dim>
					<dim>384</dim>
					<dim>1</dim>
					<dim>1</dim>
				</port>
			</input>
			<output>
				<port id="2" names="StatefulPartitionedCall/u_net/model/block_8_depthwise_BN/FusedBatchNormV3:0" precision="FP32">
					<dim>-1</dim>
					<dim>384</dim>
					<dim>40</dim>
					<dim>40</dim>
				</port>
			</output>
		</layer>
		<layer id="128" name="StatefulPartitionedCall/u_net/model/block_8_depthwise_relu/Relu6" type="Clamp" version="opset1">
			<data max="6" min="0"/>
			<rt_info>
				<attribute name="fused_names" value="StatefulPartitionedCall/u_net/model/block_8_depthwise_relu/Relu6" version="0"/>
			</rt_info>
			<input>
				<port id="0" precision="FP32">
					<dim>-1</dim>
					<dim>384</dim>
					<dim>40</dim>
					<dim>40</dim>
				</port>
			</input>
			<output>
				<port id="1" names="StatefulPartitionedCall/u_net/model/block_8_depthwise_relu/Relu6:0" precision="FP32">
					<dim>-1</dim>
					<dim>384</dim>
					<dim>40</dim>
					<dim>40</dim>
				</port>
			</output>
		</layer>
		<layer id="129" name="StatefulPartitionedCall/u_net/model/block_8_project_BN/FusedBatchNormV3/mean/Fused_Mul__copy" type="Const" version="opset1">
			<data element_type="f32" offset="626336" shape="64, 384, 1, 1" size="98304"/>
			<rt_info>
				<attribute name="fused_names" value="StatefulPartitionedCall/u_net/model/block_8_project_BN/FusedBatchNormV3/mean/Fused_Mul__copy" version="0"/>
			</rt_info>
			<output>
				<port id="0" names="StatefulPartitionedCall/u_net/model/block_8_project/Conv2D/ReadVariableOp:0" precision="FP32">
					<dim>64</dim>
					<dim>384</dim>
					<dim>1</dim>
					<dim>1</dim>
				</port>
			</output>
		</layer>
		<layer id="130" name="StatefulPartitionedCall/u_net/model/block_8_project/Conv2D" type="Convolution" version="opset1">
			<data auto_pad="same_upper" dilations="1, 1" pads_begin="0, 0" pads_end="0, 0" strides="1, 1"/>
			<rt_info>
				<attribute name="fused_names" value="StatefulPartitionedCall/u_net/model/block_8_project/Conv2D" version="0"/>
			</rt_info>
			<input>
				<port id="0" precision="FP32">
					<dim>-1</dim>
					<dim>384</dim>
					<dim>40</dim>
					<dim>40</dim>
				</port>
				<port id="1" precision="FP32">
					<dim>64</dim>
					<dim>384</dim>
					<dim>1</dim>
					<dim>1</dim>
				</port>
			</input>
			<output>
				<port id="2" precision="FP32">
					<dim>-1</dim>
					<dim>64</dim>
					<dim>40</dim>
					<dim>40</dim>
				</port>
			</output>
		</layer>
		<layer id="131" name="data_add_3429534300" type="Const" version="opset1">
			<data element_type="f32" offset="724640" shape="1, 64, 1, 1" size="256"/>
			<rt_info>
				<attribute name="fused_names" value="data_add_3429534300" version="0"/>
			</rt_info>
			<output>
				<port id="0" precision="FP32">
					<dim>1</dim>
					<dim>64</dim>
					<dim>1</dim>
					<dim>1</dim>
				</port>
			</output>
		</layer>
		<layer id="132" name="StatefulPartitionedCall/u_net/model/block_8_project_BN/FusedBatchNormV3/variance/Fused_Add_" type="Add" version="opset1">
			<data auto_broadcast="numpy"/>
			<rt_info>
				<attribute name="fused_names" value="StatefulPartitionedCall/u_net/model/block_8_project_BN/FusedBatchNormV3/variance/Fused_Add_" version="0"/>
			</rt_info>
			<input>
				<port id="0" precision="FP32">
					<dim>-1</dim>
					<dim>64</dim>
					<dim>40</dim>
					<dim>40</dim>
				</port>
				<port id="1" precision="FP32">
					<dim>1</dim>
					<dim>64</dim>
					<dim>1</dim>
					<dim>1</dim>
				</port>
			</input>
			<output>
				<port id="2" names="StatefulPartitionedCall/u_net/model/block_8_project_BN/FusedBatchNormV3:0" precision="FP32">
					<dim>-1</dim>
					<dim>64</dim>
					<dim>40</dim>
					<dim>40</dim>
				</port>
			</output>
		</layer>
		<layer id="133" name="StatefulPartitionedCall/u_net/model/block_8_add/add" type="Add" version="opset1">
			<data auto_broadcast="numpy"/>
			<rt_info>
				<attribute name="fused_names" value="StatefulPartitionedCall/u_net/model/block_8_add/add" version="0"/>
			</rt_info>
			<input>
				<port id="0" precision="FP32">
					<dim>-1</dim>
					<dim>64</dim>
					<dim>40</dim>
					<dim>40</dim>
				</port>
				<port id="1" precision="FP32">
					<dim>-1</dim>
					<dim>64</dim>
					<dim>40</dim>
					<dim>40</dim>
				</port>
			</input>
			<output>
				<port id="2" names="StatefulPartitionedCall/u_net/model/block_8_add/add:0" precision="FP32">
					<dim>-1</dim>
					<dim>64</dim>
					<dim>40</dim>
					<dim>40</dim>
				</port>
			</output>
		</layer>
		<layer id="134" name="StatefulPartitionedCall/u_net/model/block_9_expand_BN/FusedBatchNormV3/mean/Fused_Mul__copy" type="Const" version="opset1">
			<data element_type="f32" offset="724896" shape="384, 64, 1, 1" size="98304"/>
			<rt_info>
				<attribute name="fused_names" value="StatefulPartitionedCall/u_net/model/block_9_expand_BN/FusedBatchNormV3/mean/Fused_Mul__copy" version="0"/>
			</rt_info>
			<output>
				<port id="0" names="StatefulPartitionedCall/u_net/model/block_9_expand/Conv2D/ReadVariableOp:0" precision="FP32">
					<dim>384</dim>
					<dim>64</dim>
					<dim>1</dim>
					<dim>1</dim>
				</port>
			</output>
		</layer>
		<layer id="135" name="StatefulPartitionedCall/u_net/model/block_9_expand/Conv2D" type="Convolution" version="opset1">
			<data auto_pad="same_upper" dilations="1, 1" pads_begin="0, 0" pads_end="0, 0" strides="1, 1"/>
			<rt_info>
				<attribute name="fused_names" value="StatefulPartitionedCall/u_net/model/block_9_expand/Conv2D" version="0"/>
			</rt_info>
			<input>
				<port id="0" precision="FP32">
					<dim>-1</dim>
					<dim>64</dim>
					<dim>40</dim>
					<dim>40</dim>
				</port>
				<port id="1" precision="FP32">
					<dim>384</dim>
					<dim>64</dim>
					<dim>1</dim>
					<dim>1</dim>
				</port>
			</input>
			<output>
				<port id="2" precision="FP32">
					<dim>-1</dim>
					<dim>384</dim>
					<dim>40</dim>
					<dim>40</dim>
				</port>
			</output>
		</layer>
		<layer id="136" name="data_add_3430334308" type="Const" version="opset1">
			<data element_type="f32" offset="823200" shape="1, 384, 1, 1" size="1536"/>
			<rt_info>
				<attribute name="fused_names" value="data_add_3430334308" version="0"/>
			</rt_info>
			<output>
				<port id="0" precision="FP32">
					<dim>1</dim>
					<dim>384</dim>
					<dim>1</dim>
					<dim>1</dim>
				</port>
			</output>
		</layer>
		<layer id="137" name="StatefulPartitionedCall/u_net/model/block_9_expand_BN/FusedBatchNormV3/variance/Fused_Add_" type="Add" version="opset1">
			<data auto_broadcast="numpy"/>
			<rt_info>
				<attribute name="fused_names" value="StatefulPartitionedCall/u_net/model/block_9_expand_BN/FusedBatchNormV3/variance/Fused_Add_" version="0"/>
			</rt_info>
			<input>
				<port id="0" precision="FP32">
					<dim>-1</dim>
					<dim>384</dim>
					<dim>40</dim>
					<dim>40</dim>
				</port>
				<port id="1" precision="FP32">
					<dim>1</dim>
					<dim>384</dim>
					<dim>1</dim>
					<dim>1</dim>
				</port>
			</input>
			<output>
				<port id="2" names="StatefulPartitionedCall/u_net/model/block_9_expand_BN/FusedBatchNormV3:0" precision="FP32">
					<dim>-1</dim>
					<dim>384</dim>
					<dim>40</dim>
					<dim>40</dim>
				</port>
			</output>
		</layer>
		<layer id="138" name="StatefulPartitionedCall/u_net/model/block_9_expand_relu/Relu6" type="Clamp" version="opset1">
			<data max="6" min="0"/>
			<rt_info>
				<attribute name="fused_names" value="StatefulPartitionedCall/u_net/model/block_9_expand_relu/Relu6" version="0"/>
			</rt_info>
			<input>
				<port id="0" precision="FP32">
					<dim>-1</dim>
					<dim>384</dim>
					<dim>40</dim>
					<dim>40</dim>
				</port>
			</input>
			<output>
				<port id="1" names="StatefulPartitionedCall/u_net/model/block_9_expand_relu/Relu6:0" precision="FP32">
					<dim>-1</dim>
					<dim>384</dim>
					<dim>40</dim>
					<dim>40</dim>
				</port>
			</output>
		</layer>
		<layer id="139" name="StatefulPartitionedCall/u_net/model/block_9_depthwise_BN/FusedBatchNormV3/mean/Fused_Mul__copy" type="Const" version="opset1">
			<data element_type="f32" offset="824736" shape="384, 1, 1, 3, 3" size="13824"/>
			<rt_info>
				<attribute name="fused_names" value="StatefulPartitionedCall/u_net/model/block_9_depthwise_BN/FusedBatchNormV3/mean/Fused_Mul__copy" version="0"/>
			</rt_info>
			<output>
				<port id="0" names="StatefulPartitionedCall/u_net/model/block_9_depthwise/depthwise/ReadVariableOp:0" precision="FP32">
					<dim>384</dim>
					<dim>1</dim>
					<dim>1</dim>
					<dim>3</dim>
					<dim>3</dim>
				</port>
			</output>
		</layer>
		<layer id="140" name="StatefulPartitionedCall/u_net/model/block_9_depthwise/depthwise" type="GroupConvolution" version="opset1">
			<data auto_pad="same_upper" dilations="1, 1" pads_begin="0, 0" pads_end="0, 0" strides="1, 1"/>
			<rt_info>
				<attribute name="fused_names" value="StatefulPartitionedCall/u_net/model/block_9_depthwise/depthwise" version="0"/>
			</rt_info>
			<input>
				<port id="0" precision="FP32">
					<dim>-1</dim>
					<dim>384</dim>
					<dim>40</dim>
					<dim>40</dim>
				</port>
				<port id="1" precision="FP32">
					<dim>384</dim>
					<dim>1</dim>
					<dim>1</dim>
					<dim>3</dim>
					<dim>3</dim>
				</port>
			</input>
			<output>
				<port id="2" precision="FP32">
					<dim>-1</dim>
					<dim>384</dim>
					<dim>40</dim>
					<dim>40</dim>
				</port>
			</output>
		</layer>
		<layer id="141" name="data_add_3431134316" type="Const" version="opset1">
			<data element_type="f32" offset="838560" shape="1, 384, 1, 1" size="1536"/>
			<rt_info>
				<attribute name="fused_names" value="data_add_3431134316" version="0"/>
			</rt_info>
			<output>
				<port id="0" precision="FP32">
					<dim>1</dim>
					<dim>384</dim>
					<dim>1</dim>
					<dim>1</dim>
				</port>
			</output>
		</layer>
		<layer id="142" name="StatefulPartitionedCall/u_net/model/block_9_depthwise_BN/FusedBatchNormV3/variance/Fused_Add_" type="Add" version="opset1">
			<data auto_broadcast="numpy"/>
			<rt_info>
				<attribute name="fused_names" value="StatefulPartitionedCall/u_net/model/block_9_depthwise_BN/FusedBatchNormV3/variance/Fused_Add_" version="0"/>
			</rt_info>
			<input>
				<port id="0" precision="FP32">
					<dim>-1</dim>
					<dim>384</dim>
					<dim>40</dim>
					<dim>40</dim>
				</port>
				<port id="1" precision="FP32">
					<dim>1</dim>
					<dim>384</dim>
					<dim>1</dim>
					<dim>1</dim>
				</port>
			</input>
			<output>
				<port id="2" names="StatefulPartitionedCall/u_net/model/block_9_depthwise_BN/FusedBatchNormV3:0" precision="FP32">
					<dim>-1</dim>
					<dim>384</dim>
					<dim>40</dim>
					<dim>40</dim>
				</port>
			</output>
		</layer>
		<layer id="143" name="StatefulPartitionedCall/u_net/model/block_9_depthwise_relu/Relu6" type="Clamp" version="opset1">
			<data max="6" min="0"/>
			<rt_info>
				<attribute name="fused_names" value="StatefulPartitionedCall/u_net/model/block_9_depthwise_relu/Relu6" version="0"/>
			</rt_info>
			<input>
				<port id="0" precision="FP32">
					<dim>-1</dim>
					<dim>384</dim>
					<dim>40</dim>
					<dim>40</dim>
				</port>
			</input>
			<output>
				<port id="1" names="StatefulPartitionedCall/u_net/model/block_9_depthwise_relu/Relu6:0" precision="FP32">
					<dim>-1</dim>
					<dim>384</dim>
					<dim>40</dim>
					<dim>40</dim>
				</port>
			</output>
		</layer>
		<layer id="144" name="StatefulPartitionedCall/u_net/model/block_9_project_BN/FusedBatchNormV3/mean/Fused_Mul__copy" type="Const" version="opset1">
			<data element_type="f32" offset="840096" shape="64, 384, 1, 1" size="98304"/>
			<rt_info>
				<attribute name="fused_names" value="StatefulPartitionedCall/u_net/model/block_9_project_BN/FusedBatchNormV3/mean/Fused_Mul__copy" version="0"/>
			</rt_info>
			<output>
				<port id="0" names="StatefulPartitionedCall/u_net/model/block_9_project/Conv2D/ReadVariableOp:0" precision="FP32">
					<dim>64</dim>
					<dim>384</dim>
					<dim>1</dim>
					<dim>1</dim>
				</port>
			</output>
		</layer>
		<layer id="145" name="StatefulPartitionedCall/u_net/model/block_9_project/Conv2D" type="Convolution" version="opset1">
			<data auto_pad="same_upper" dilations="1, 1" pads_begin="0, 0" pads_end="0, 0" strides="1, 1"/>
			<rt_info>
				<attribute name="fused_names" value="StatefulPartitionedCall/u_net/model/block_9_project/Conv2D" version="0"/>
			</rt_info>
			<input>
				<port id="0" precision="FP32">
					<dim>-1</dim>
					<dim>384</dim>
					<dim>40</dim>
					<dim>40</dim>
				</port>
				<port id="1" precision="FP32">
					<dim>64</dim>
					<dim>384</dim>
					<dim>1</dim>
					<dim>1</dim>
				</port>
			</input>
			<output>
				<port id="2" precision="FP32">
					<dim>-1</dim>
					<dim>64</dim>
					<dim>40</dim>
					<dim>40</dim>
				</port>
			</output>
		</layer>
		<layer id="146" name="data_add_3431934324" type="Const" version="opset1">
			<data element_type="f32" offset="938400" shape="1, 64, 1, 1" size="256"/>
			<rt_info>
				<attribute name="fused_names" value="data_add_3431934324" version="0"/>
			</rt_info>
			<output>
				<port id="0" precision="FP32">
					<dim>1</dim>
					<dim>64</dim>
					<dim>1</dim>
					<dim>1</dim>
				</port>
			</output>
		</layer>
		<layer id="147" name="StatefulPartitionedCall/u_net/model/block_9_project_BN/FusedBatchNormV3/variance/Fused_Add_" type="Add" version="opset1">
			<data auto_broadcast="numpy"/>
			<rt_info>
				<attribute name="fused_names" value="StatefulPartitionedCall/u_net/model/block_9_project_BN/FusedBatchNormV3/variance/Fused_Add_" version="0"/>
			</rt_info>
			<input>
				<port id="0" precision="FP32">
					<dim>-1</dim>
					<dim>64</dim>
					<dim>40</dim>
					<dim>40</dim>
				</port>
				<port id="1" precision="FP32">
					<dim>1</dim>
					<dim>64</dim>
					<dim>1</dim>
					<dim>1</dim>
				</port>
			</input>
			<output>
				<port id="2" names="StatefulPartitionedCall/u_net/model/block_9_project_BN/FusedBatchNormV3:0" precision="FP32">
					<dim>-1</dim>
					<dim>64</dim>
					<dim>40</dim>
					<dim>40</dim>
				</port>
			</output>
		</layer>
		<layer id="148" name="StatefulPartitionedCall/u_net/model/block_9_add/add" type="Add" version="opset1">
			<data auto_broadcast="numpy"/>
			<rt_info>
				<attribute name="fused_names" value="StatefulPartitionedCall/u_net/model/block_9_add/add" version="0"/>
			</rt_info>
			<input>
				<port id="0" precision="FP32">
					<dim>-1</dim>
					<dim>64</dim>
					<dim>40</dim>
					<dim>40</dim>
				</port>
				<port id="1" precision="FP32">
					<dim>-1</dim>
					<dim>64</dim>
					<dim>40</dim>
					<dim>40</dim>
				</port>
			</input>
			<output>
				<port id="2" names="StatefulPartitionedCall/u_net/model/block_9_add/add:0" precision="FP32">
					<dim>-1</dim>
					<dim>64</dim>
					<dim>40</dim>
					<dim>40</dim>
				</port>
			</output>
		</layer>
		<layer id="149" name="StatefulPartitionedCall/u_net/model/block_10_expand_BN/FusedBatchNormV3/mean/Fused_Mul__copy" type="Const" version="opset1">
			<data element_type="f32" offset="938656" shape="384, 64, 1, 1" size="98304"/>
			<rt_info>
				<attribute name="fused_names" value="StatefulPartitionedCall/u_net/model/block_10_expand_BN/FusedBatchNormV3/mean/Fused_Mul__copy" version="0"/>
			</rt_info>
			<output>
				<port id="0" names="StatefulPartitionedCall/u_net/model/block_10_expand/Conv2D/ReadVariableOp:0" precision="FP32">
					<dim>384</dim>
					<dim>64</dim>
					<dim>1</dim>
					<dim>1</dim>
				</port>
			</output>
		</layer>
		<layer id="150" name="StatefulPartitionedCall/u_net/model/block_10_expand/Conv2D" type="Convolution" version="opset1">
			<data auto_pad="same_upper" dilations="1, 1" pads_begin="0, 0" pads_end="0, 0" strides="1, 1"/>
			<rt_info>
				<attribute name="fused_names" value="StatefulPartitionedCall/u_net/model/block_10_expand/Conv2D" version="0"/>
			</rt_info>
			<input>
				<port id="0" precision="FP32">
					<dim>-1</dim>
					<dim>64</dim>
					<dim>40</dim>
					<dim>40</dim>
				</port>
				<port id="1" precision="FP32">
					<dim>384</dim>
					<dim>64</dim>
					<dim>1</dim>
					<dim>1</dim>
				</port>
			</input>
			<output>
				<port id="2" precision="FP32">
					<dim>-1</dim>
					<dim>384</dim>
					<dim>40</dim>
					<dim>40</dim>
				</port>
			</output>
		</layer>
		<layer id="151" name="data_add_3432734332" type="Const" version="opset1">
			<data element_type="f32" offset="1036960" shape="1, 384, 1, 1" size="1536"/>
			<rt_info>
				<attribute name="fused_names" value="data_add_3432734332" version="0"/>
			</rt_info>
			<output>
				<port id="0" precision="FP32">
					<dim>1</dim>
					<dim>384</dim>
					<dim>1</dim>
					<dim>1</dim>
				</port>
			</output>
		</layer>
		<layer id="152" name="StatefulPartitionedCall/u_net/model/block_10_expand_BN/FusedBatchNormV3/variance/Fused_Add_" type="Add" version="opset1">
			<data auto_broadcast="numpy"/>
			<rt_info>
				<attribute name="fused_names" value="StatefulPartitionedCall/u_net/model/block_10_expand_BN/FusedBatchNormV3/variance/Fused_Add_" version="0"/>
			</rt_info>
			<input>
				<port id="0" precision="FP32">
					<dim>-1</dim>
					<dim>384</dim>
					<dim>40</dim>
					<dim>40</dim>
				</port>
				<port id="1" precision="FP32">
					<dim>1</dim>
					<dim>384</dim>
					<dim>1</dim>
					<dim>1</dim>
				</port>
			</input>
			<output>
				<port id="2" names="StatefulPartitionedCall/u_net/model/block_10_expand_BN/FusedBatchNormV3:0" precision="FP32">
					<dim>-1</dim>
					<dim>384</dim>
					<dim>40</dim>
					<dim>40</dim>
				</port>
			</output>
		</layer>
		<layer id="153" name="StatefulPartitionedCall/u_net/model/block_10_expand_relu/Relu6" type="Clamp" version="opset1">
			<data max="6" min="0"/>
			<rt_info>
				<attribute name="fused_names" value="StatefulPartitionedCall/u_net/model/block_10_expand_relu/Relu6" version="0"/>
			</rt_info>
			<input>
				<port id="0" precision="FP32">
					<dim>-1</dim>
					<dim>384</dim>
					<dim>40</dim>
					<dim>40</dim>
				</port>
			</input>
			<output>
				<port id="1" names="StatefulPartitionedCall/u_net/model/block_10_expand_relu/Relu6:0" precision="FP32">
					<dim>-1</dim>
					<dim>384</dim>
					<dim>40</dim>
					<dim>40</dim>
				</port>
			</output>
		</layer>
		<layer id="154" name="StatefulPartitionedCall/u_net/model/block_10_depthwise_BN/FusedBatchNormV3/mean/Fused_Mul__copy" type="Const" version="opset1">
			<data element_type="f32" offset="1038496" shape="384, 1, 1, 3, 3" size="13824"/>
			<rt_info>
				<attribute name="fused_names" value="StatefulPartitionedCall/u_net/model/block_10_depthwise_BN/FusedBatchNormV3/mean/Fused_Mul__copy" version="0"/>
			</rt_info>
			<output>
				<port id="0" names="StatefulPartitionedCall/u_net/model/block_10_depthwise/depthwise/ReadVariableOp:0" precision="FP32">
					<dim>384</dim>
					<dim>1</dim>
					<dim>1</dim>
					<dim>3</dim>
					<dim>3</dim>
				</port>
			</output>
		</layer>
		<layer id="155" name="StatefulPartitionedCall/u_net/model/block_10_depthwise/depthwise" type="GroupConvolution" version="opset1">
			<data auto_pad="same_upper" dilations="1, 1" pads_begin="0, 0" pads_end="0, 0" strides="1, 1"/>
			<rt_info>
				<attribute name="fused_names" value="StatefulPartitionedCall/u_net/model/block_10_depthwise/depthwise" version="0"/>
			</rt_info>
			<input>
				<port id="0" precision="FP32">
					<dim>-1</dim>
					<dim>384</dim>
					<dim>40</dim>
					<dim>40</dim>
				</port>
				<port id="1" precision="FP32">
					<dim>384</dim>
					<dim>1</dim>
					<dim>1</dim>
					<dim>3</dim>
					<dim>3</dim>
				</port>
			</input>
			<output>
				<port id="2" precision="FP32">
					<dim>-1</dim>
					<dim>384</dim>
					<dim>40</dim>
					<dim>40</dim>
				</port>
			</output>
		</layer>
		<layer id="156" name="data_add_3433534340" type="Const" version="opset1">
			<data element_type="f32" offset="1052320" shape="1, 384, 1, 1" size="1536"/>
			<rt_info>
				<attribute name="fused_names" value="data_add_3433534340" version="0"/>
			</rt_info>
			<output>
				<port id="0" precision="FP32">
					<dim>1</dim>
					<dim>384</dim>
					<dim>1</dim>
					<dim>1</dim>
				</port>
			</output>
		</layer>
		<layer id="157" name="StatefulPartitionedCall/u_net/model/block_10_depthwise_BN/FusedBatchNormV3/variance/Fused_Add_" type="Add" version="opset1">
			<data auto_broadcast="numpy"/>
			<rt_info>
				<attribute name="fused_names" value="StatefulPartitionedCall/u_net/model/block_10_depthwise_BN/FusedBatchNormV3/variance/Fused_Add_" version="0"/>
			</rt_info>
			<input>
				<port id="0" precision="FP32">
					<dim>-1</dim>
					<dim>384</dim>
					<dim>40</dim>
					<dim>40</dim>
				</port>
				<port id="1" precision="FP32">
					<dim>1</dim>
					<dim>384</dim>
					<dim>1</dim>
					<dim>1</dim>
				</port>
			</input>
			<output>
				<port id="2" names="StatefulPartitionedCall/u_net/model/block_10_depthwise_BN/FusedBatchNormV3:0" precision="FP32">
					<dim>-1</dim>
					<dim>384</dim>
					<dim>40</dim>
					<dim>40</dim>
				</port>
			</output>
		</layer>
		<layer id="158" name="StatefulPartitionedCall/u_net/model/block_10_depthwise_relu/Relu6" type="Clamp" version="opset1">
			<data max="6" min="0"/>
			<rt_info>
				<attribute name="fused_names" value="StatefulPartitionedCall/u_net/model/block_10_depthwise_relu/Relu6" version="0"/>
			</rt_info>
			<input>
				<port id="0" precision="FP32">
					<dim>-1</dim>
					<dim>384</dim>
					<dim>40</dim>
					<dim>40</dim>
				</port>
			</input>
			<output>
				<port id="1" names="StatefulPartitionedCall/u_net/model/block_10_depthwise_relu/Relu6:0" precision="FP32">
					<dim>-1</dim>
					<dim>384</dim>
					<dim>40</dim>
					<dim>40</dim>
				</port>
			</output>
		</layer>
		<layer id="159" name="StatefulPartitionedCall/u_net/model/block_10_project_BN/FusedBatchNormV3/mean/Fused_Mul__copy" type="Const" version="opset1">
			<data element_type="f32" offset="1053856" shape="96, 384, 1, 1" size="147456"/>
			<rt_info>
				<attribute name="fused_names" value="StatefulPartitionedCall/u_net/model/block_10_project_BN/FusedBatchNormV3/mean/Fused_Mul__copy" version="0"/>
			</rt_info>
			<output>
				<port id="0" names="StatefulPartitionedCall/u_net/model/block_10_project/Conv2D/ReadVariableOp:0" precision="FP32">
					<dim>96</dim>
					<dim>384</dim>
					<dim>1</dim>
					<dim>1</dim>
				</port>
			</output>
		</layer>
		<layer id="160" name="StatefulPartitionedCall/u_net/model/block_10_project/Conv2D" type="Convolution" version="opset1">
			<data auto_pad="same_upper" dilations="1, 1" pads_begin="0, 0" pads_end="0, 0" strides="1, 1"/>
			<rt_info>
				<attribute name="fused_names" value="StatefulPartitionedCall/u_net/model/block_10_project/Conv2D" version="0"/>
			</rt_info>
			<input>
				<port id="0" precision="FP32">
					<dim>-1</dim>
					<dim>384</dim>
					<dim>40</dim>
					<dim>40</dim>
				</port>
				<port id="1" precision="FP32">
					<dim>96</dim>
					<dim>384</dim>
					<dim>1</dim>
					<dim>1</dim>
				</port>
			</input>
			<output>
				<port id="2" precision="FP32">
					<dim>-1</dim>
					<dim>96</dim>
					<dim>40</dim>
					<dim>40</dim>
				</port>
			</output>
		</layer>
		<layer id="161" name="data_add_3434334348" type="Const" version="opset1">
			<data element_type="f32" offset="1201312" shape="1, 96, 1, 1" size="384"/>
			<rt_info>
				<attribute name="fused_names" value="data_add_3434334348" version="0"/>
			</rt_info>
			<output>
				<port id="0" precision="FP32">
					<dim>1</dim>
					<dim>96</dim>
					<dim>1</dim>
					<dim>1</dim>
				</port>
			</output>
		</layer>
		<layer id="162" name="StatefulPartitionedCall/u_net/model/block_10_project_BN/FusedBatchNormV3/variance/Fused_Add_" type="Add" version="opset1">
			<data auto_broadcast="numpy"/>
			<rt_info>
				<attribute name="fused_names" value="StatefulPartitionedCall/u_net/model/block_10_project_BN/FusedBatchNormV3/variance/Fused_Add_" version="0"/>
			</rt_info>
			<input>
				<port id="0" precision="FP32">
					<dim>-1</dim>
					<dim>96</dim>
					<dim>40</dim>
					<dim>40</dim>
				</port>
				<port id="1" precision="FP32">
					<dim>1</dim>
					<dim>96</dim>
					<dim>1</dim>
					<dim>1</dim>
				</port>
			</input>
			<output>
				<port id="2" names="StatefulPartitionedCall/u_net/model/block_10_project_BN/FusedBatchNormV3:0" precision="FP32">
					<dim>-1</dim>
					<dim>96</dim>
					<dim>40</dim>
					<dim>40</dim>
				</port>
			</output>
		</layer>
		<layer id="163" name="StatefulPartitionedCall/u_net/model/block_11_expand_BN/FusedBatchNormV3/mean/Fused_Mul__copy" type="Const" version="opset1">
			<data element_type="f32" offset="1201696" shape="576, 96, 1, 1" size="221184"/>
			<rt_info>
				<attribute name="fused_names" value="StatefulPartitionedCall/u_net/model/block_11_expand_BN/FusedBatchNormV3/mean/Fused_Mul__copy" version="0"/>
			</rt_info>
			<output>
				<port id="0" names="StatefulPartitionedCall/u_net/model/block_11_expand/Conv2D/ReadVariableOp:0" precision="FP32">
					<dim>576</dim>
					<dim>96</dim>
					<dim>1</dim>
					<dim>1</dim>
				</port>
			</output>
		</layer>
		<layer id="164" name="StatefulPartitionedCall/u_net/model/block_11_expand/Conv2D" type="Convolution" version="opset1">
			<data auto_pad="same_upper" dilations="1, 1" pads_begin="0, 0" pads_end="0, 0" strides="1, 1"/>
			<rt_info>
				<attribute name="fused_names" value="StatefulPartitionedCall/u_net/model/block_11_expand/Conv2D" version="0"/>
			</rt_info>
			<input>
				<port id="0" precision="FP32">
					<dim>-1</dim>
					<dim>96</dim>
					<dim>40</dim>
					<dim>40</dim>
				</port>
				<port id="1" precision="FP32">
					<dim>576</dim>
					<dim>96</dim>
					<dim>1</dim>
					<dim>1</dim>
				</port>
			</input>
			<output>
				<port id="2" precision="FP32">
					<dim>-1</dim>
					<dim>576</dim>
					<dim>40</dim>
					<dim>40</dim>
				</port>
			</output>
		</layer>
		<layer id="165" name="data_add_3435134356" type="Const" version="opset1">
			<data element_type="f32" offset="1422880" shape="1, 576, 1, 1" size="2304"/>
			<rt_info>
				<attribute name="fused_names" value="data_add_3435134356" version="0"/>
			</rt_info>
			<output>
				<port id="0" precision="FP32">
					<dim>1</dim>
					<dim>576</dim>
					<dim>1</dim>
					<dim>1</dim>
				</port>
			</output>
		</layer>
		<layer id="166" name="StatefulPartitionedCall/u_net/model/block_11_expand_BN/FusedBatchNormV3/variance/Fused_Add_" type="Add" version="opset1">
			<data auto_broadcast="numpy"/>
			<rt_info>
				<attribute name="fused_names" value="StatefulPartitionedCall/u_net/model/block_11_expand_BN/FusedBatchNormV3/variance/Fused_Add_" version="0"/>
			</rt_info>
			<input>
				<port id="0" precision="FP32">
					<dim>-1</dim>
					<dim>576</dim>
					<dim>40</dim>
					<dim>40</dim>
				</port>
				<port id="1" precision="FP32">
					<dim>1</dim>
					<dim>576</dim>
					<dim>1</dim>
					<dim>1</dim>
				</port>
			</input>
			<output>
				<port id="2" names="StatefulPartitionedCall/u_net/model/block_11_expand_BN/FusedBatchNormV3:0" precision="FP32">
					<dim>-1</dim>
					<dim>576</dim>
					<dim>40</dim>
					<dim>40</dim>
				</port>
			</output>
		</layer>
		<layer id="167" name="StatefulPartitionedCall/u_net/model/block_11_expand_relu/Relu6" type="Clamp" version="opset1">
			<data max="6" min="0"/>
			<rt_info>
				<attribute name="fused_names" value="StatefulPartitionedCall/u_net/model/block_11_expand_relu/Relu6" version="0"/>
			</rt_info>
			<input>
				<port id="0" precision="FP32">
					<dim>-1</dim>
					<dim>576</dim>
					<dim>40</dim>
					<dim>40</dim>
				</port>
			</input>
			<output>
				<port id="1" names="StatefulPartitionedCall/u_net/model/block_11_expand_relu/Relu6:0" precision="FP32">
					<dim>-1</dim>
					<dim>576</dim>
					<dim>40</dim>
					<dim>40</dim>
				</port>
			</output>
		</layer>
		<layer id="168" name="StatefulPartitionedCall/u_net/model/block_11_depthwise_BN/FusedBatchNormV3/mean/Fused_Mul__copy" type="Const" version="opset1">
			<data element_type="f32" offset="1425184" shape="576, 1, 1, 3, 3" size="20736"/>
			<rt_info>
				<attribute name="fused_names" value="StatefulPartitionedCall/u_net/model/block_11_depthwise_BN/FusedBatchNormV3/mean/Fused_Mul__copy" version="0"/>
			</rt_info>
			<output>
				<port id="0" names="StatefulPartitionedCall/u_net/model/block_11_depthwise/depthwise/ReadVariableOp:0" precision="FP32">
					<dim>576</dim>
					<dim>1</dim>
					<dim>1</dim>
					<dim>3</dim>
					<dim>3</dim>
				</port>
			</output>
		</layer>
		<layer id="169" name="StatefulPartitionedCall/u_net/model/block_11_depthwise/depthwise" type="GroupConvolution" version="opset1">
			<data auto_pad="same_upper" dilations="1, 1" pads_begin="0, 0" pads_end="0, 0" strides="1, 1"/>
			<rt_info>
				<attribute name="fused_names" value="StatefulPartitionedCall/u_net/model/block_11_depthwise/depthwise" version="0"/>
			</rt_info>
			<input>
				<port id="0" precision="FP32">
					<dim>-1</dim>
					<dim>576</dim>
					<dim>40</dim>
					<dim>40</dim>
				</port>
				<port id="1" precision="FP32">
					<dim>576</dim>
					<dim>1</dim>
					<dim>1</dim>
					<dim>3</dim>
					<dim>3</dim>
				</port>
			</input>
			<output>
				<port id="2" precision="FP32">
					<dim>-1</dim>
					<dim>576</dim>
					<dim>40</dim>
					<dim>40</dim>
				</port>
			</output>
		</layer>
		<layer id="170" name="data_add_3435934364" type="Const" version="opset1">
			<data element_type="f32" offset="1445920" shape="1, 576, 1, 1" size="2304"/>
			<rt_info>
				<attribute name="fused_names" value="data_add_3435934364" version="0"/>
			</rt_info>
			<output>
				<port id="0" precision="FP32">
					<dim>1</dim>
					<dim>576</dim>
					<dim>1</dim>
					<dim>1</dim>
				</port>
			</output>
		</layer>
		<layer id="171" name="StatefulPartitionedCall/u_net/model/block_11_depthwise_BN/FusedBatchNormV3/variance/Fused_Add_" type="Add" version="opset1">
			<data auto_broadcast="numpy"/>
			<rt_info>
				<attribute name="fused_names" value="StatefulPartitionedCall/u_net/model/block_11_depthwise_BN/FusedBatchNormV3/variance/Fused_Add_" version="0"/>
			</rt_info>
			<input>
				<port id="0" precision="FP32">
					<dim>-1</dim>
					<dim>576</dim>
					<dim>40</dim>
					<dim>40</dim>
				</port>
				<port id="1" precision="FP32">
					<dim>1</dim>
					<dim>576</dim>
					<dim>1</dim>
					<dim>1</dim>
				</port>
			</input>
			<output>
				<port id="2" names="StatefulPartitionedCall/u_net/model/block_11_depthwise_BN/FusedBatchNormV3:0" precision="FP32">
					<dim>-1</dim>
					<dim>576</dim>
					<dim>40</dim>
					<dim>40</dim>
				</port>
			</output>
		</layer>
		<layer id="172" name="StatefulPartitionedCall/u_net/model/block_11_depthwise_relu/Relu6" type="Clamp" version="opset1">
			<data max="6" min="0"/>
			<rt_info>
				<attribute name="fused_names" value="StatefulPartitionedCall/u_net/model/block_11_depthwise_relu/Relu6" version="0"/>
			</rt_info>
			<input>
				<port id="0" precision="FP32">
					<dim>-1</dim>
					<dim>576</dim>
					<dim>40</dim>
					<dim>40</dim>
				</port>
			</input>
			<output>
				<port id="1" names="StatefulPartitionedCall/u_net/model/block_11_depthwise_relu/Relu6:0" precision="FP32">
					<dim>-1</dim>
					<dim>576</dim>
					<dim>40</dim>
					<dim>40</dim>
				</port>
			</output>
		</layer>
		<layer id="173" name="StatefulPartitionedCall/u_net/model/block_11_project_BN/FusedBatchNormV3/mean/Fused_Mul__copy" type="Const" version="opset1">
			<data element_type="f32" offset="1448224" shape="96, 576, 1, 1" size="221184"/>
			<rt_info>
				<attribute name="fused_names" value="StatefulPartitionedCall/u_net/model/block_11_project_BN/FusedBatchNormV3/mean/Fused_Mul__copy" version="0"/>
			</rt_info>
			<output>
				<port id="0" names="StatefulPartitionedCall/u_net/model/block_11_project/Conv2D/ReadVariableOp:0" precision="FP32">
					<dim>96</dim>
					<dim>576</dim>
					<dim>1</dim>
					<dim>1</dim>
				</port>
			</output>
		</layer>
		<layer id="174" name="StatefulPartitionedCall/u_net/model/block_11_project/Conv2D" type="Convolution" version="opset1">
			<data auto_pad="same_upper" dilations="1, 1" pads_begin="0, 0" pads_end="0, 0" strides="1, 1"/>
			<rt_info>
				<attribute name="fused_names" value="StatefulPartitionedCall/u_net/model/block_11_project/Conv2D" version="0"/>
			</rt_info>
			<input>
				<port id="0" precision="FP32">
					<dim>-1</dim>
					<dim>576</dim>
					<dim>40</dim>
					<dim>40</dim>
				</port>
				<port id="1" precision="FP32">
					<dim>96</dim>
					<dim>576</dim>
					<dim>1</dim>
					<dim>1</dim>
				</port>
			</input>
			<output>
				<port id="2" precision="FP32">
					<dim>-1</dim>
					<dim>96</dim>
					<dim>40</dim>
					<dim>40</dim>
				</port>
			</output>
		</layer>
		<layer id="175" name="data_add_3436734372" type="Const" version="opset1">
			<data element_type="f32" offset="1669408" shape="1, 96, 1, 1" size="384"/>
			<rt_info>
				<attribute name="fused_names" value="data_add_3436734372" version="0"/>
			</rt_info>
			<output>
				<port id="0" precision="FP32">
					<dim>1</dim>
					<dim>96</dim>
					<dim>1</dim>
					<dim>1</dim>
				</port>
			</output>
		</layer>
		<layer id="176" name="StatefulPartitionedCall/u_net/model/block_11_project_BN/FusedBatchNormV3/variance/Fused_Add_" type="Add" version="opset1">
			<data auto_broadcast="numpy"/>
			<rt_info>
				<attribute name="fused_names" value="StatefulPartitionedCall/u_net/model/block_11_project_BN/FusedBatchNormV3/variance/Fused_Add_" version="0"/>
			</rt_info>
			<input>
				<port id="0" precision="FP32">
					<dim>-1</dim>
					<dim>96</dim>
					<dim>40</dim>
					<dim>40</dim>
				</port>
				<port id="1" precision="FP32">
					<dim>1</dim>
					<dim>96</dim>
					<dim>1</dim>
					<dim>1</dim>
				</port>
			</input>
			<output>
				<port id="2" names="StatefulPartitionedCall/u_net/model/block_11_project_BN/FusedBatchNormV3:0" precision="FP32">
					<dim>-1</dim>
					<dim>96</dim>
					<dim>40</dim>
					<dim>40</dim>
				</port>
			</output>
		</layer>
		<layer id="177" name="StatefulPartitionedCall/u_net/model/block_11_add/add" type="Add" version="opset1">
			<data auto_broadcast="numpy"/>
			<rt_info>
				<attribute name="fused_names" value="StatefulPartitionedCall/u_net/model/block_11_add/add" version="0"/>
			</rt_info>
			<input>
				<port id="0" precision="FP32">
					<dim>-1</dim>
					<dim>96</dim>
					<dim>40</dim>
					<dim>40</dim>
				</port>
				<port id="1" precision="FP32">
					<dim>-1</dim>
					<dim>96</dim>
					<dim>40</dim>
					<dim>40</dim>
				</port>
			</input>
			<output>
				<port id="2" names="StatefulPartitionedCall/u_net/model/block_11_add/add:0" precision="FP32">
					<dim>-1</dim>
					<dim>96</dim>
					<dim>40</dim>
					<dim>40</dim>
				</port>
			</output>
		</layer>
		<layer id="178" name="StatefulPartitionedCall/u_net/model/block_12_expand_BN/FusedBatchNormV3/mean/Fused_Mul__copy" type="Const" version="opset1">
			<data element_type="f32" offset="1669792" shape="576, 96, 1, 1" size="221184"/>
			<rt_info>
				<attribute name="fused_names" value="StatefulPartitionedCall/u_net/model/block_12_expand_BN/FusedBatchNormV3/mean/Fused_Mul__copy" version="0"/>
			</rt_info>
			<output>
				<port id="0" names="StatefulPartitionedCall/u_net/model/block_12_expand/Conv2D/ReadVariableOp:0" precision="FP32">
					<dim>576</dim>
					<dim>96</dim>
					<dim>1</dim>
					<dim>1</dim>
				</port>
			</output>
		</layer>
		<layer id="179" name="StatefulPartitionedCall/u_net/model/block_12_expand/Conv2D" type="Convolution" version="opset1">
			<data auto_pad="same_upper" dilations="1, 1" pads_begin="0, 0" pads_end="0, 0" strides="1, 1"/>
			<rt_info>
				<attribute name="fused_names" value="StatefulPartitionedCall/u_net/model/block_12_expand/Conv2D" version="0"/>
			</rt_info>
			<input>
				<port id="0" precision="FP32">
					<dim>-1</dim>
					<dim>96</dim>
					<dim>40</dim>
					<dim>40</dim>
				</port>
				<port id="1" precision="FP32">
					<dim>576</dim>
					<dim>96</dim>
					<dim>1</dim>
					<dim>1</dim>
				</port>
			</input>
			<output>
				<port id="2" precision="FP32">
					<dim>-1</dim>
					<dim>576</dim>
					<dim>40</dim>
					<dim>40</dim>
				</port>
			</output>
		</layer>
		<layer id="180" name="data_add_3437534380" type="Const" version="opset1">
			<data element_type="f32" offset="1890976" shape="1, 576, 1, 1" size="2304"/>
			<rt_info>
				<attribute name="fused_names" value="data_add_3437534380" version="0"/>
			</rt_info>
			<output>
				<port id="0" precision="FP32">
					<dim>1</dim>
					<dim>576</dim>
					<dim>1</dim>
					<dim>1</dim>
				</port>
			</output>
		</layer>
		<layer id="181" name="StatefulPartitionedCall/u_net/model/block_12_expand_BN/FusedBatchNormV3/variance/Fused_Add_" type="Add" version="opset1">
			<data auto_broadcast="numpy"/>
			<rt_info>
				<attribute name="fused_names" value="StatefulPartitionedCall/u_net/model/block_12_expand_BN/FusedBatchNormV3/variance/Fused_Add_" version="0"/>
			</rt_info>
			<input>
				<port id="0" precision="FP32">
					<dim>-1</dim>
					<dim>576</dim>
					<dim>40</dim>
					<dim>40</dim>
				</port>
				<port id="1" precision="FP32">
					<dim>1</dim>
					<dim>576</dim>
					<dim>1</dim>
					<dim>1</dim>
				</port>
			</input>
			<output>
				<port id="2" names="StatefulPartitionedCall/u_net/model/block_12_expand_BN/FusedBatchNormV3:0" precision="FP32">
					<dim>-1</dim>
					<dim>576</dim>
					<dim>40</dim>
					<dim>40</dim>
				</port>
			</output>
		</layer>
		<layer id="182" name="StatefulPartitionedCall/u_net/model/block_12_expand_relu/Relu6" type="Clamp" version="opset1">
			<data max="6" min="0"/>
			<rt_info>
				<attribute name="fused_names" value="StatefulPartitionedCall/u_net/model/block_12_expand_relu/Relu6" version="0"/>
			</rt_info>
			<input>
				<port id="0" precision="FP32">
					<dim>-1</dim>
					<dim>576</dim>
					<dim>40</dim>
					<dim>40</dim>
				</port>
			</input>
			<output>
				<port id="1" names="StatefulPartitionedCall/u_net/model/block_12_expand_relu/Relu6:0" precision="FP32">
					<dim>-1</dim>
					<dim>576</dim>
					<dim>40</dim>
					<dim>40</dim>
				</port>
			</output>
		</layer>
		<layer id="183" name="StatefulPartitionedCall/u_net/model/block_12_depthwise_BN/FusedBatchNormV3/mean/Fused_Mul__copy" type="Const" version="opset1">
			<data element_type="f32" offset="1893280" shape="576, 1, 1, 3, 3" size="20736"/>
			<rt_info>
				<attribute name="fused_names" value="StatefulPartitionedCall/u_net/model/block_12_depthwise_BN/FusedBatchNormV3/mean/Fused_Mul__copy" version="0"/>
			</rt_info>
			<output>
				<port id="0" names="StatefulPartitionedCall/u_net/model/block_12_depthwise/depthwise/ReadVariableOp:0" precision="FP32">
					<dim>576</dim>
					<dim>1</dim>
					<dim>1</dim>
					<dim>3</dim>
					<dim>3</dim>
				</port>
			</output>
		</layer>
		<layer id="184" name="StatefulPartitionedCall/u_net/model/block_12_depthwise/depthwise" type="GroupConvolution" version="opset1">
			<data auto_pad="same_upper" dilations="1, 1" pads_begin="0, 0" pads_end="0, 0" strides="1, 1"/>
			<rt_info>
				<attribute name="fused_names" value="StatefulPartitionedCall/u_net/model/block_12_depthwise/depthwise" version="0"/>
			</rt_info>
			<input>
				<port id="0" precision="FP32">
					<dim>-1</dim>
					<dim>576</dim>
					<dim>40</dim>
					<dim>40</dim>
				</port>
				<port id="1" precision="FP32">
					<dim>576</dim>
					<dim>1</dim>
					<dim>1</dim>
					<dim>3</dim>
					<dim>3</dim>
				</port>
			</input>
			<output>
				<port id="2" precision="FP32">
					<dim>-1</dim>
					<dim>576</dim>
					<dim>40</dim>
					<dim>40</dim>
				</port>
			</output>
		</layer>
		<layer id="185" name="data_add_3438334388" type="Const" version="opset1">
			<data element_type="f32" offset="1914016" shape="1, 576, 1, 1" size="2304"/>
			<rt_info>
				<attribute name="fused_names" value="data_add_3438334388" version="0"/>
			</rt_info>
			<output>
				<port id="0" precision="FP32">
					<dim>1</dim>
					<dim>576</dim>
					<dim>1</dim>
					<dim>1</dim>
				</port>
			</output>
		</layer>
		<layer id="186" name="StatefulPartitionedCall/u_net/model/block_12_depthwise_BN/FusedBatchNormV3/variance/Fused_Add_" type="Add" version="opset1">
			<data auto_broadcast="numpy"/>
			<rt_info>
				<attribute name="fused_names" value="StatefulPartitionedCall/u_net/model/block_12_depthwise_BN/FusedBatchNormV3/variance/Fused_Add_" version="0"/>
			</rt_info>
			<input>
				<port id="0" precision="FP32">
					<dim>-1</dim>
					<dim>576</dim>
					<dim>40</dim>
					<dim>40</dim>
				</port>
				<port id="1" precision="FP32">
					<dim>1</dim>
					<dim>576</dim>
					<dim>1</dim>
					<dim>1</dim>
				</port>
			</input>
			<output>
				<port id="2" names="StatefulPartitionedCall/u_net/model/block_12_depthwise_BN/FusedBatchNormV3:0" precision="FP32">
					<dim>-1</dim>
					<dim>576</dim>
					<dim>40</dim>
					<dim>40</dim>
				</port>
			</output>
		</layer>
		<layer id="187" name="StatefulPartitionedCall/u_net/model/block_12_depthwise_relu/Relu6" type="Clamp" version="opset1">
			<data max="6" min="0"/>
			<rt_info>
				<attribute name="fused_names" value="StatefulPartitionedCall/u_net/model/block_12_depthwise_relu/Relu6" version="0"/>
			</rt_info>
			<input>
				<port id="0" precision="FP32">
					<dim>-1</dim>
					<dim>576</dim>
					<dim>40</dim>
					<dim>40</dim>
				</port>
			</input>
			<output>
				<port id="1" names="StatefulPartitionedCall/u_net/model/block_12_depthwise_relu/Relu6:0" precision="FP32">
					<dim>-1</dim>
					<dim>576</dim>
					<dim>40</dim>
					<dim>40</dim>
				</port>
			</output>
		</layer>
		<layer id="188" name="StatefulPartitionedCall/u_net/model/block_12_project_BN/FusedBatchNormV3/mean/Fused_Mul__copy" type="Const" version="opset1">
			<data element_type="f32" offset="1916320" shape="96, 576, 1, 1" size="221184"/>
			<rt_info>
				<attribute name="fused_names" value="StatefulPartitionedCall/u_net/model/block_12_project_BN/FusedBatchNormV3/mean/Fused_Mul__copy" version="0"/>
			</rt_info>
			<output>
				<port id="0" names="StatefulPartitionedCall/u_net/model/block_12_project/Conv2D/ReadVariableOp:0" precision="FP32">
					<dim>96</dim>
					<dim>576</dim>
					<dim>1</dim>
					<dim>1</dim>
				</port>
			</output>
		</layer>
		<layer id="189" name="StatefulPartitionedCall/u_net/model/block_12_project/Conv2D" type="Convolution" version="opset1">
			<data auto_pad="same_upper" dilations="1, 1" pads_begin="0, 0" pads_end="0, 0" strides="1, 1"/>
			<rt_info>
				<attribute name="fused_names" value="StatefulPartitionedCall/u_net/model/block_12_project/Conv2D" version="0"/>
			</rt_info>
			<input>
				<port id="0" precision="FP32">
					<dim>-1</dim>
					<dim>576</dim>
					<dim>40</dim>
					<dim>40</dim>
				</port>
				<port id="1" precision="FP32">
					<dim>96</dim>
					<dim>576</dim>
					<dim>1</dim>
					<dim>1</dim>
				</port>
			</input>
			<output>
				<port id="2" precision="FP32">
					<dim>-1</dim>
					<dim>96</dim>
					<dim>40</dim>
					<dim>40</dim>
				</port>
			</output>
		</layer>
		<layer id="190" name="data_add_3439134396" type="Const" version="opset1">
			<data element_type="f32" offset="2137504" shape="1, 96, 1, 1" size="384"/>
			<rt_info>
				<attribute name="fused_names" value="data_add_3439134396" version="0"/>
			</rt_info>
			<output>
				<port id="0" precision="FP32">
					<dim>1</dim>
					<dim>96</dim>
					<dim>1</dim>
					<dim>1</dim>
				</port>
			</output>
		</layer>
		<layer id="191" name="StatefulPartitionedCall/u_net/model/block_12_project_BN/FusedBatchNormV3/variance/Fused_Add_" type="Add" version="opset1">
			<data auto_broadcast="numpy"/>
			<rt_info>
				<attribute name="fused_names" value="StatefulPartitionedCall/u_net/model/block_12_project_BN/FusedBatchNormV3/variance/Fused_Add_" version="0"/>
			</rt_info>
			<input>
				<port id="0" precision="FP32">
					<dim>-1</dim>
					<dim>96</dim>
					<dim>40</dim>
					<dim>40</dim>
				</port>
				<port id="1" precision="FP32">
					<dim>1</dim>
					<dim>96</dim>
					<dim>1</dim>
					<dim>1</dim>
				</port>
			</input>
			<output>
				<port id="2" names="StatefulPartitionedCall/u_net/model/block_12_project_BN/FusedBatchNormV3:0" precision="FP32">
					<dim>-1</dim>
					<dim>96</dim>
					<dim>40</dim>
					<dim>40</dim>
				</port>
			</output>
		</layer>
		<layer id="192" name="StatefulPartitionedCall/u_net/model/block_12_add/add" type="Add" version="opset1">
			<data auto_broadcast="numpy"/>
			<rt_info>
				<attribute name="fused_names" value="StatefulPartitionedCall/u_net/model/block_12_add/add" version="0"/>
			</rt_info>
			<input>
				<port id="0" precision="FP32">
					<dim>-1</dim>
					<dim>96</dim>
					<dim>40</dim>
					<dim>40</dim>
				</port>
				<port id="1" precision="FP32">
					<dim>-1</dim>
					<dim>96</dim>
					<dim>40</dim>
					<dim>40</dim>
				</port>
			</input>
			<output>
				<port id="2" names="StatefulPartitionedCall/u_net/model/block_12_add/add:0" precision="FP32">
					<dim>-1</dim>
					<dim>96</dim>
					<dim>40</dim>
					<dim>40</dim>
				</port>
			</output>
		</layer>
		<layer id="193" name="StatefulPartitionedCall/u_net/model/block_13_expand_BN/FusedBatchNormV3/mean/Fused_Mul__copy" type="Const" version="opset1">
			<data element_type="f32" offset="2137888" shape="576, 96, 1, 1" size="221184"/>
			<rt_info>
				<attribute name="fused_names" value="StatefulPartitionedCall/u_net/model/block_13_expand_BN/FusedBatchNormV3/mean/Fused_Mul__copy" version="0"/>
			</rt_info>
			<output>
				<port id="0" names="StatefulPartitionedCall/u_net/model/block_13_expand/Conv2D/ReadVariableOp:0" precision="FP32">
					<dim>576</dim>
					<dim>96</dim>
					<dim>1</dim>
					<dim>1</dim>
				</port>
			</output>
		</layer>
		<layer id="194" name="StatefulPartitionedCall/u_net/model/block_13_expand/Conv2D" type="Convolution" version="opset1">
			<data auto_pad="same_upper" dilations="1, 1" pads_begin="0, 0" pads_end="0, 0" strides="1, 1"/>
			<rt_info>
				<attribute name="fused_names" value="StatefulPartitionedCall/u_net/model/block_13_expand/Conv2D" version="0"/>
			</rt_info>
			<input>
				<port id="0" precision="FP32">
					<dim>-1</dim>
					<dim>96</dim>
					<dim>40</dim>
					<dim>40</dim>
				</port>
				<port id="1" precision="FP32">
					<dim>576</dim>
					<dim>96</dim>
					<dim>1</dim>
					<dim>1</dim>
				</port>
			</input>
			<output>
				<port id="2" precision="FP32">
					<dim>-1</dim>
					<dim>576</dim>
					<dim>40</dim>
					<dim>40</dim>
				</port>
			</output>
		</layer>
		<layer id="195" name="data_add_3439934404" type="Const" version="opset1">
			<data element_type="f32" offset="2359072" shape="1, 576, 1, 1" size="2304"/>
			<rt_info>
				<attribute name="fused_names" value="data_add_3439934404" version="0"/>
			</rt_info>
			<output>
				<port id="0" precision="FP32">
					<dim>1</dim>
					<dim>576</dim>
					<dim>1</dim>
					<dim>1</dim>
				</port>
			</output>
		</layer>
		<layer id="196" name="StatefulPartitionedCall/u_net/model/block_13_expand_BN/FusedBatchNormV3/variance/Fused_Add_" type="Add" version="opset1">
			<data auto_broadcast="numpy"/>
			<rt_info>
				<attribute name="fused_names" value="StatefulPartitionedCall/u_net/model/block_13_expand_BN/FusedBatchNormV3/variance/Fused_Add_" version="0"/>
			</rt_info>
			<input>
				<port id="0" precision="FP32">
					<dim>-1</dim>
					<dim>576</dim>
					<dim>40</dim>
					<dim>40</dim>
				</port>
				<port id="1" precision="FP32">
					<dim>1</dim>
					<dim>576</dim>
					<dim>1</dim>
					<dim>1</dim>
				</port>
			</input>
			<output>
				<port id="2" names="StatefulPartitionedCall/u_net/model/block_13_expand_BN/FusedBatchNormV3:0" precision="FP32">
					<dim>-1</dim>
					<dim>576</dim>
					<dim>40</dim>
					<dim>40</dim>
				</port>
			</output>
		</layer>
		<layer id="197" name="StatefulPartitionedCall/u_net/model/block_13_expand_relu/Relu6" type="Clamp" version="opset1">
			<data max="6" min="0"/>
			<rt_info>
				<attribute name="fused_names" value="StatefulPartitionedCall/u_net/model/block_13_expand_relu/Relu6" version="0"/>
			</rt_info>
			<input>
				<port id="0" precision="FP32">
					<dim>-1</dim>
					<dim>576</dim>
					<dim>40</dim>
					<dim>40</dim>
				</port>
			</input>
			<output>
				<port id="1" names="StatefulPartitionedCall/u_net/model/block_13_expand_relu/Relu6:0" precision="FP32">
					<dim>-1</dim>
					<dim>576</dim>
					<dim>40</dim>
					<dim>40</dim>
				</port>
			</output>
		</layer>
		<layer id="198" name="StatefulPartitionedCall/u_net/model/block_13_depthwise_BN/FusedBatchNormV3/mean/Fused_Mul__copy" type="Const" version="opset1">
			<data element_type="f32" offset="2361376" shape="576, 1, 1, 3, 3" size="20736"/>
			<rt_info>
				<attribute name="fused_names" value="StatefulPartitionedCall/u_net/model/block_13_depthwise_BN/FusedBatchNormV3/mean/Fused_Mul__copy" version="0"/>
			</rt_info>
			<output>
				<port id="0" names="StatefulPartitionedCall/u_net/model/block_13_depthwise/depthwise/ReadVariableOp:0" precision="FP32">
					<dim>576</dim>
					<dim>1</dim>
					<dim>1</dim>
					<dim>3</dim>
					<dim>3</dim>
				</port>
			</output>
		</layer>
		<layer id="199" name="StatefulPartitionedCall/u_net/model/block_13_depthwise/depthwise" type="GroupConvolution" version="opset1">
			<data auto_pad="explicit" dilations="1, 1" pads_begin="0, 0" pads_end="1, 1" strides="2, 2"/>
			<rt_info>
				<attribute name="fused_names" value="StatefulPartitionedCall/u_net/model/block_13_depthwise/depthwise, StatefulPartitionedCall/u_net/model/block_13_pad/Pad" version="0"/>
			</rt_info>
			<input>
				<port id="0" precision="FP32">
					<dim>-1</dim>
					<dim>576</dim>
					<dim>40</dim>
					<dim>40</dim>
				</port>
				<port id="1" precision="FP32">
					<dim>576</dim>
					<dim>1</dim>
					<dim>1</dim>
					<dim>3</dim>
					<dim>3</dim>
				</port>
			</input>
			<output>
				<port id="2" precision="FP32">
					<dim>-1</dim>
					<dim>576</dim>
					<dim>20</dim>
					<dim>20</dim>
				</port>
			</output>
		</layer>
		<layer id="200" name="data_add_3440734412" type="Const" version="opset1">
			<data element_type="f32" offset="2382112" shape="1, 576, 1, 1" size="2304"/>
			<rt_info>
				<attribute name="fused_names" value="data_add_3440734412" version="0"/>
			</rt_info>
			<output>
				<port id="0" precision="FP32">
					<dim>1</dim>
					<dim>576</dim>
					<dim>1</dim>
					<dim>1</dim>
				</port>
			</output>
		</layer>
		<layer id="201" name="StatefulPartitionedCall/u_net/model/block_13_depthwise_BN/FusedBatchNormV3/variance/Fused_Add_" type="Add" version="opset1">
			<data auto_broadcast="numpy"/>
			<rt_info>
				<attribute name="fused_names" value="StatefulPartitionedCall/u_net/model/block_13_depthwise_BN/FusedBatchNormV3/variance/Fused_Add_" version="0"/>
			</rt_info>
			<input>
				<port id="0" precision="FP32">
					<dim>-1</dim>
					<dim>576</dim>
					<dim>20</dim>
					<dim>20</dim>
				</port>
				<port id="1" precision="FP32">
					<dim>1</dim>
					<dim>576</dim>
					<dim>1</dim>
					<dim>1</dim>
				</port>
			</input>
			<output>
				<port id="2" names="StatefulPartitionedCall/u_net/model/block_13_depthwise_BN/FusedBatchNormV3:0" precision="FP32">
					<dim>-1</dim>
					<dim>576</dim>
					<dim>20</dim>
					<dim>20</dim>
				</port>
			</output>
		</layer>
		<layer id="202" name="StatefulPartitionedCall/u_net/model/block_13_depthwise_relu/Relu6" type="Clamp" version="opset1">
			<data max="6" min="0"/>
			<rt_info>
				<attribute name="fused_names" value="StatefulPartitionedCall/u_net/model/block_13_depthwise_relu/Relu6" version="0"/>
			</rt_info>
			<input>
				<port id="0" precision="FP32">
					<dim>-1</dim>
					<dim>576</dim>
					<dim>20</dim>
					<dim>20</dim>
				</port>
			</input>
			<output>
				<port id="1" names="StatefulPartitionedCall/u_net/model/block_13_depthwise_relu/Relu6:0" precision="FP32">
					<dim>-1</dim>
					<dim>576</dim>
					<dim>20</dim>
					<dim>20</dim>
				</port>
			</output>
		</layer>
		<layer id="203" name="StatefulPartitionedCall/u_net/model/block_13_project_BN/FusedBatchNormV3/mean/Fused_Mul__copy" type="Const" version="opset1">
			<data element_type="f32" offset="2384416" shape="160, 576, 1, 1" size="368640"/>
			<rt_info>
				<attribute name="fused_names" value="StatefulPartitionedCall/u_net/model/block_13_project_BN/FusedBatchNormV3/mean/Fused_Mul__copy" version="0"/>
			</rt_info>
			<output>
				<port id="0" names="StatefulPartitionedCall/u_net/model/block_13_project/Conv2D/ReadVariableOp:0" precision="FP32">
					<dim>160</dim>
					<dim>576</dim>
					<dim>1</dim>
					<dim>1</dim>
				</port>
			</output>
		</layer>
		<layer id="204" name="StatefulPartitionedCall/u_net/model/block_13_project/Conv2D" type="Convolution" version="opset1">
			<data auto_pad="same_upper" dilations="1, 1" pads_begin="0, 0" pads_end="0, 0" strides="1, 1"/>
			<rt_info>
				<attribute name="fused_names" value="StatefulPartitionedCall/u_net/model/block_13_project/Conv2D" version="0"/>
			</rt_info>
			<input>
				<port id="0" precision="FP32">
					<dim>-1</dim>
					<dim>576</dim>
					<dim>20</dim>
					<dim>20</dim>
				</port>
				<port id="1" precision="FP32">
					<dim>160</dim>
					<dim>576</dim>
					<dim>1</dim>
					<dim>1</dim>
				</port>
			</input>
			<output>
				<port id="2" precision="FP32">
					<dim>-1</dim>
					<dim>160</dim>
					<dim>20</dim>
					<dim>20</dim>
				</port>
			</output>
		</layer>
		<layer id="205" name="data_add_3441534420" type="Const" version="opset1">
			<data element_type="f32" offset="2753056" shape="1, 160, 1, 1" size="640"/>
			<rt_info>
				<attribute name="fused_names" value="data_add_3441534420" version="0"/>
			</rt_info>
			<output>
				<port id="0" precision="FP32">
					<dim>1</dim>
					<dim>160</dim>
					<dim>1</dim>
					<dim>1</dim>
				</port>
			</output>
		</layer>
		<layer id="206" name="StatefulPartitionedCall/u_net/model/block_13_project_BN/FusedBatchNormV3/variance/Fused_Add_" type="Add" version="opset1">
			<data auto_broadcast="numpy"/>
			<rt_info>
				<attribute name="fused_names" value="StatefulPartitionedCall/u_net/model/block_13_project_BN/FusedBatchNormV3/variance/Fused_Add_" version="0"/>
			</rt_info>
			<input>
				<port id="0" precision="FP32">
					<dim>-1</dim>
					<dim>160</dim>
					<dim>20</dim>
					<dim>20</dim>
				</port>
				<port id="1" precision="FP32">
					<dim>1</dim>
					<dim>160</dim>
					<dim>1</dim>
					<dim>1</dim>
				</port>
			</input>
			<output>
				<port id="2" names="StatefulPartitionedCall/u_net/model/block_13_project_BN/FusedBatchNormV3:0" precision="FP32">
					<dim>-1</dim>
					<dim>160</dim>
					<dim>20</dim>
					<dim>20</dim>
				</port>
			</output>
		</layer>
		<layer id="207" name="StatefulPartitionedCall/u_net/model/block_14_expand_BN/FusedBatchNormV3/mean/Fused_Mul__copy" type="Const" version="opset1">
			<data element_type="f32" offset="2753696" shape="960, 160, 1, 1" size="614400"/>
			<rt_info>
				<attribute name="fused_names" value="StatefulPartitionedCall/u_net/model/block_14_expand_BN/FusedBatchNormV3/mean/Fused_Mul__copy" version="0"/>
			</rt_info>
			<output>
				<port id="0" names="StatefulPartitionedCall/u_net/model/block_14_expand/Conv2D/ReadVariableOp:0" precision="FP32">
					<dim>960</dim>
					<dim>160</dim>
					<dim>1</dim>
					<dim>1</dim>
				</port>
			</output>
		</layer>
		<layer id="208" name="StatefulPartitionedCall/u_net/model/block_14_expand/Conv2D" type="Convolution" version="opset1">
			<data auto_pad="same_upper" dilations="1, 1" pads_begin="0, 0" pads_end="0, 0" strides="1, 1"/>
			<rt_info>
				<attribute name="fused_names" value="StatefulPartitionedCall/u_net/model/block_14_expand/Conv2D" version="0"/>
			</rt_info>
			<input>
				<port id="0" precision="FP32">
					<dim>-1</dim>
					<dim>160</dim>
					<dim>20</dim>
					<dim>20</dim>
				</port>
				<port id="1" precision="FP32">
					<dim>960</dim>
					<dim>160</dim>
					<dim>1</dim>
					<dim>1</dim>
				</port>
			</input>
			<output>
				<port id="2" precision="FP32">
					<dim>-1</dim>
					<dim>960</dim>
					<dim>20</dim>
					<dim>20</dim>
				</port>
			</output>
		</layer>
		<layer id="209" name="data_add_3442334428" type="Const" version="opset1">
			<data element_type="f32" offset="3368096" shape="1, 960, 1, 1" size="3840"/>
			<rt_info>
				<attribute name="fused_names" value="data_add_3442334428" version="0"/>
			</rt_info>
			<output>
				<port id="0" precision="FP32">
					<dim>1</dim>
					<dim>960</dim>
					<dim>1</dim>
					<dim>1</dim>
				</port>
			</output>
		</layer>
		<layer id="210" name="StatefulPartitionedCall/u_net/model/block_14_expand_BN/FusedBatchNormV3/variance/Fused_Add_" type="Add" version="opset1">
			<data auto_broadcast="numpy"/>
			<rt_info>
				<attribute name="fused_names" value="StatefulPartitionedCall/u_net/model/block_14_expand_BN/FusedBatchNormV3/variance/Fused_Add_" version="0"/>
			</rt_info>
			<input>
				<port id="0" precision="FP32">
					<dim>-1</dim>
					<dim>960</dim>
					<dim>20</dim>
					<dim>20</dim>
				</port>
				<port id="1" precision="FP32">
					<dim>1</dim>
					<dim>960</dim>
					<dim>1</dim>
					<dim>1</dim>
				</port>
			</input>
			<output>
				<port id="2" names="StatefulPartitionedCall/u_net/model/block_14_expand_BN/FusedBatchNormV3:0" precision="FP32">
					<dim>-1</dim>
					<dim>960</dim>
					<dim>20</dim>
					<dim>20</dim>
				</port>
			</output>
		</layer>
		<layer id="211" name="StatefulPartitionedCall/u_net/model/block_14_expand_relu/Relu6" type="Clamp" version="opset1">
			<data max="6" min="0"/>
			<rt_info>
				<attribute name="fused_names" value="StatefulPartitionedCall/u_net/model/block_14_expand_relu/Relu6" version="0"/>
			</rt_info>
			<input>
				<port id="0" precision="FP32">
					<dim>-1</dim>
					<dim>960</dim>
					<dim>20</dim>
					<dim>20</dim>
				</port>
			</input>
			<output>
				<port id="1" names="StatefulPartitionedCall/u_net/model/block_14_expand_relu/Relu6:0" precision="FP32">
					<dim>-1</dim>
					<dim>960</dim>
					<dim>20</dim>
					<dim>20</dim>
				</port>
			</output>
		</layer>
		<layer id="212" name="StatefulPartitionedCall/u_net/model/block_14_depthwise_BN/FusedBatchNormV3/mean/Fused_Mul__copy" type="Const" version="opset1">
			<data element_type="f32" offset="3371936" shape="960, 1, 1, 3, 3" size="34560"/>
			<rt_info>
				<attribute name="fused_names" value="StatefulPartitionedCall/u_net/model/block_14_depthwise_BN/FusedBatchNormV3/mean/Fused_Mul__copy" version="0"/>
			</rt_info>
			<output>
				<port id="0" names="StatefulPartitionedCall/u_net/model/block_14_depthwise/depthwise/ReadVariableOp:0" precision="FP32">
					<dim>960</dim>
					<dim>1</dim>
					<dim>1</dim>
					<dim>3</dim>
					<dim>3</dim>
				</port>
			</output>
		</layer>
		<layer id="213" name="StatefulPartitionedCall/u_net/model/block_14_depthwise/depthwise" type="GroupConvolution" version="opset1">
			<data auto_pad="same_upper" dilations="1, 1" pads_begin="0, 0" pads_end="0, 0" strides="1, 1"/>
			<rt_info>
				<attribute name="fused_names" value="StatefulPartitionedCall/u_net/model/block_14_depthwise/depthwise" version="0"/>
			</rt_info>
			<input>
				<port id="0" precision="FP32">
					<dim>-1</dim>
					<dim>960</dim>
					<dim>20</dim>
					<dim>20</dim>
				</port>
				<port id="1" precision="FP32">
					<dim>960</dim>
					<dim>1</dim>
					<dim>1</dim>
					<dim>3</dim>
					<dim>3</dim>
				</port>
			</input>
			<output>
				<port id="2" precision="FP32">
					<dim>-1</dim>
					<dim>960</dim>
					<dim>20</dim>
					<dim>20</dim>
				</port>
			</output>
		</layer>
		<layer id="214" name="data_add_3443134436" type="Const" version="opset1">
			<data element_type="f32" offset="3406496" shape="1, 960, 1, 1" size="3840"/>
			<rt_info>
				<attribute name="fused_names" value="data_add_3443134436" version="0"/>
			</rt_info>
			<output>
				<port id="0" precision="FP32">
					<dim>1</dim>
					<dim>960</dim>
					<dim>1</dim>
					<dim>1</dim>
				</port>
			</output>
		</layer>
		<layer id="215" name="StatefulPartitionedCall/u_net/model/block_14_depthwise_BN/FusedBatchNormV3/variance/Fused_Add_" type="Add" version="opset1">
			<data auto_broadcast="numpy"/>
			<rt_info>
				<attribute name="fused_names" value="StatefulPartitionedCall/u_net/model/block_14_depthwise_BN/FusedBatchNormV3/variance/Fused_Add_" version="0"/>
			</rt_info>
			<input>
				<port id="0" precision="FP32">
					<dim>-1</dim>
					<dim>960</dim>
					<dim>20</dim>
					<dim>20</dim>
				</port>
				<port id="1" precision="FP32">
					<dim>1</dim>
					<dim>960</dim>
					<dim>1</dim>
					<dim>1</dim>
				</port>
			</input>
			<output>
				<port id="2" names="StatefulPartitionedCall/u_net/model/block_14_depthwise_BN/FusedBatchNormV3:0" precision="FP32">
					<dim>-1</dim>
					<dim>960</dim>
					<dim>20</dim>
					<dim>20</dim>
				</port>
			</output>
		</layer>
		<layer id="216" name="StatefulPartitionedCall/u_net/model/block_14_depthwise_relu/Relu6" type="Clamp" version="opset1">
			<data max="6" min="0"/>
			<rt_info>
				<attribute name="fused_names" value="StatefulPartitionedCall/u_net/model/block_14_depthwise_relu/Relu6" version="0"/>
			</rt_info>
			<input>
				<port id="0" precision="FP32">
					<dim>-1</dim>
					<dim>960</dim>
					<dim>20</dim>
					<dim>20</dim>
				</port>
			</input>
			<output>
				<port id="1" names="StatefulPartitionedCall/u_net/model/block_14_depthwise_relu/Relu6:0" precision="FP32">
					<dim>-1</dim>
					<dim>960</dim>
					<dim>20</dim>
					<dim>20</dim>
				</port>
			</output>
		</layer>
		<layer id="217" name="StatefulPartitionedCall/u_net/model/block_14_project_BN/FusedBatchNormV3/mean/Fused_Mul__copy" type="Const" version="opset1">
			<data element_type="f32" offset="3410336" shape="160, 960, 1, 1" size="614400"/>
			<rt_info>
				<attribute name="fused_names" value="StatefulPartitionedCall/u_net/model/block_14_project_BN/FusedBatchNormV3/mean/Fused_Mul__copy" version="0"/>
			</rt_info>
			<output>
				<port id="0" names="StatefulPartitionedCall/u_net/model/block_14_project/Conv2D/ReadVariableOp:0" precision="FP32">
					<dim>160</dim>
					<dim>960</dim>
					<dim>1</dim>
					<dim>1</dim>
				</port>
			</output>
		</layer>
		<layer id="218" name="StatefulPartitionedCall/u_net/model/block_14_project/Conv2D" type="Convolution" version="opset1">
			<data auto_pad="same_upper" dilations="1, 1" pads_begin="0, 0" pads_end="0, 0" strides="1, 1"/>
			<rt_info>
				<attribute name="fused_names" value="StatefulPartitionedCall/u_net/model/block_14_project/Conv2D" version="0"/>
			</rt_info>
			<input>
				<port id="0" precision="FP32">
					<dim>-1</dim>
					<dim>960</dim>
					<dim>20</dim>
					<dim>20</dim>
				</port>
				<port id="1" precision="FP32">
					<dim>160</dim>
					<dim>960</dim>
					<dim>1</dim>
					<dim>1</dim>
				</port>
			</input>
			<output>
				<port id="2" precision="FP32">
					<dim>-1</dim>
					<dim>160</dim>
					<dim>20</dim>
					<dim>20</dim>
				</port>
			</output>
…
		<edge from-layer="82" from-port="0" to-layer="83" to-port="1"/>
		<edge from-layer="83" from-port="2" to-layer="84" to-port="0"/>
		<edge from-layer="84" from-port="1" to-layer="86" to-port="0"/>
		<edge from-layer="85" from-port="0" to-layer="86" to-port="1"/>
		<edge from-layer="86" from-port="2" to-layer="88" to-port="0"/>
		<edge from-layer="87" from-port="0" to-layer="88" to-port="1"/>
		<edge from-layer="88" from-port="2" to-layer="89" to-port="1"/>
		<edge from-layer="89" from-port="2" to-layer="91" to-port="0"/>
		<edge from-layer="90" from-port="0" to-layer="91" to-port="1"/>
		<edge from-layer="91" from-port="2" to-layer="93" to-port="0"/>
		<edge from-layer="92" from-port="0" to-layer="93" to-port="1"/>
		<edge from-layer="93" from-port="2" to-layer="94" to-port="0"/>
		<edge from-layer="94" from-port="1" to-layer="96" to-port="0"/>
		<edge from-layer="95" from-port="0" to-layer="96" to-port="1"/>
		<edge from-layer="96" from-port="2" to-layer="98" to-port="0"/>
		<edge from-layer="97" from-port="0" to-layer="98" to-port="1"/>
		<edge from-layer="98" from-port="2" to-layer="99" to-port="0"/>
		<edge from-layer="99" from-port="1" to-layer="101" to-port="0"/>
		<edge from-layer="100" from-port="0" to-layer="101" to-port="1"/>
		<edge from-layer="101" from-port="2" to-layer="103" to-port="0"/>
		<edge from-layer="102" from-port="0" to-layer="103" to-port="1"/>
		<edge from-layer="103" from-port="2" to-layer="105" to-port="0"/>
		<edge from-layer="103" from-port="2" to-layer="118" to-port="0"/>
		<edge from-layer="104" from-port="0" to-layer="105" to-port="1"/>
		<edge from-layer="105" from-port="2" to-layer="107" to-port="0"/>
		<edge from-layer="106" from-port="0" to-layer="107" to-port="1"/>
		<edge from-layer="107" from-port="2" to-layer="108" to-port="0"/>
		<edge from-layer="108" from-port="1" to-layer="110" to-port="0"/>
		<edge from-layer="109" from-port="0" to-layer="110" to-port="1"/>
		<edge from-layer="110" from-port="2" to-layer="112" to-port="0"/>
		<edge from-layer="111" from-port="0" to-layer="112" to-port="1"/>
		<edge from-layer="112" from-port="2" to-layer="113" to-port="0"/>
		<edge from-layer="113" from-port="1" to-layer="115" to-port="0"/>
		<edge from-layer="114" from-port="0" to-layer="115" to-port="1"/>
		<edge from-layer="115" from-port="2" to-layer="117" to-port="0"/>
		<edge from-layer="116" from-port="0" to-layer="117" to-port="1"/>
		<edge from-layer="117" from-port="2" to-layer="118" to-port="1"/>
		<edge from-layer="118" from-port="2" to-layer="120" to-port="0"/>
		<edge from-layer="118" from-port="2" to-layer="133" to-port="0"/>
		<edge from-layer="119" from-port="0" to-layer="120" to-port="1"/>
		<edge from-layer="120" from-port="2" to-layer="122" to-port="0"/>
		<edge from-layer="121" from-port="0" to-layer="122" to-port="1"/>
		<edge from-layer="122" from-port="2" to-layer="123" to-port="0"/>
		<edge from-layer="123" from-port="1" to-layer="125" to-port="0"/>
		<edge from-layer="124" from-port="0" to-layer="125" to-port="1"/>
		<edge from-layer="125" from-port="2" to-layer="127" to-port="0"/>
		<edge from-layer="126" from-port="0" to-layer="127" to-port="1"/>
		<edge from-layer="127" from-port="2" to-layer="128" to-port="0"/>
		<edge from-layer="128" from-port="1" to-layer="130" to-port="0"/>
		<edge from-layer="129" from-port="0" to-layer="130" to-port="1"/>
		<edge from-layer="130" from-port="2" to-layer="132" to-port="0"/>
		<edge from-layer="131" from-port="0" to-layer="132" to-port="1"/>
		<edge from-layer="132" from-port="2" to-layer="133" to-port="1"/>
		<edge from-layer="133" from-port="2" to-layer="135" to-port="0"/>
		<edge from-layer="133" from-port="2" to-layer="148" to-port="0"/>
		<edge from-layer="134" from-port="0" to-layer="135" to-port="1"/>
		<edge from-layer="135" from-port="2" to-layer="137" to-port="0"/>
		<edge from-layer="136" from-port="0" to-layer="137" to-port="1"/>
		<edge from-layer="137" from-port="2" to-layer="138" to-port="0"/>
		<edge from-layer="138" from-port="1" to-layer="140" to-port="0"/>
		<edge from-layer="139" from-port="0" to-layer="140" to-port="1"/>
		<edge from-layer="140" from-port="2" to-layer="142" to-port="0"/>
		<edge from-layer="141" from-port="0" to-layer="142" to-port="1"/>
		<edge from-layer="142" from-port="2" to-layer="143" to-port="0"/>
		<edge from-layer="143" from-port="1" to-layer="145" to-port="0"/>
		<edge from-layer="144" from-port="0" to-layer="145" to-port="1"/>
		<edge from-layer="145" from-port="2" to-layer="147" to-port="0"/>
		<edge from-layer="146" from-port="0" to-layer="147" to-port="1"/>
		<edge from-layer="147" from-port="2" to-layer="148" to-port="1"/>
		<edge from-layer="148" from-port="2" to-layer="150" to-port="0"/>
		<edge from-layer="149" from-port="0" to-layer="150" to-port="1"/>
		<edge from-layer="150" from-port="2" to-layer="152" to-port="0"/>
		<edge from-layer="151" from-port="0" to-layer="152" to-port="1"/>
		<edge from-layer="152" from-port="2" to-layer="153" to-port="0"/>
		<edge from-layer="153" from-port="1" to-layer="155" to-port="0"/>
		<edge from-layer="154" from-port="0" to-layer="155" to-port="1"/>
		<edge from-layer="155" from-port="2" to-layer="157" to-port="0"/>
		<edge from-layer="156" from-port="0" to-layer="157" to-port="1"/>
		<edge from-layer="157" from-port="2" to-layer="158" to-port="0"/>
		<edge from-layer="158" from-port="1" to-layer="160" to-port="0"/>
		<edge from-layer="159" from-port="0" to-layer="160" to-port="1"/>
		<edge from-layer="160" from-port="2" to-layer="162" to-port="0"/>
		<edge from-layer="161" from-port="0" to-layer="162" to-port="1"/>
		<edge from-layer="162" from-port="2" to-layer="164" to-port="0"/>
		<edge from-layer="162" from-port="2" to-layer="177" to-port="0"/>
		<edge from-layer="163" from-port="0" to-layer="164" to-port="1"/>
		<edge from-layer="164" from-port="2" to-layer="166" to-port="0"/>
		<edge from-layer="165" from-port="0" to-layer="166" to-port="1"/>
		<edge from-layer="166" from-port="2" to-layer="167" to-port="0"/>
		<edge from-layer="167" from-port="1" to-layer="169" to-port="0"/>
		<edge from-layer="168" from-port="0" to-layer="169" to-port="1"/>
		<edge from-layer="169" from-port="2" to-layer="171" to-port="0"/>
		<edge from-layer="170" from-port="0" to-layer="171" to-port="1"/>
		<edge from-layer="171" from-port="2" to-layer="172" to-port="0"/>
		<edge from-layer="172" from-port="1" to-layer="174" to-port="0"/>
		<edge from-layer="173" from-port="0" to-layer="174" to-port="1"/>
		<edge from-layer="174" from-port="2" to-layer="176" to-port="0"/>
		<edge from-layer="175" from-port="0" to-layer="176" to-port="1"/>
		<edge from-layer="176" from-port="2" to-layer="177" to-port="1"/>
		<edge from-layer="177" from-port="2" to-layer="179" to-port="0"/>
		<edge from-layer="177" from-port="2" to-layer="192" to-port="0"/>
		<edge from-layer="178" from-port="0" to-layer="179" to-port="1"/>
		<edge from-layer="179" from-port="2" to-layer="181" to-port="0"/>
		<edge from-layer="180" from-port="0" to-layer="181" to-port="1"/>
		<edge from-layer="181" from-port="2" to-layer="182" to-port="0"/>
		<edge from-layer="182" from-port="1" to-layer="184" to-port="0"/>
		<edge from-layer="183" from-port="0" to-layer="184" to-port="1"/>
		<edge from-layer="184" from-port="2" to-layer="186" to-port="0"/>
		<edge from-layer="185" from-port="0" to-layer="186" to-port="1"/>
		<edge from-layer="186" from-port="2" to-layer="187" to-port="0"/>
		<edge from-layer="187" from-port="1" to-layer="189" to-port="0"/>
		<edge from-layer="188" from-port="0" to-layer="189" to-port="1"/>
		<edge from-layer="189" from-port="2" to-layer="191" to-port="0"/>
		<edge from-layer="190" from-port="0" to-layer="191" to-port="1"/>
		<edge from-layer="191" from-port="2" to-layer="192" to-port="1"/>
		<edge from-layer="192" from-port="2" to-layer="194" to-port="0"/>
		<edge from-layer="193" from-port="0" to-layer="194" to-port="1"/>
		<edge from-layer="194" from-port="2" to-layer="196" to-port="0"/>
		<edge from-layer="195" from-port="0" to-layer="196" to-port="1"/>
		<edge from-layer="196" from-port="2" to-layer="197" to-port="0"/>
		<edge from-layer="197" from-port="1" to-layer="199" to-port="0"/>
		<edge from-layer="198" from-port="0" to-layer="199" to-port="1"/>
		<edge from-layer="199" from-port="2" to-layer="201" to-port="0"/>
		<edge from-layer="200" from-port="0" to-layer="201" to-port="1"/>
		<edge from-layer="201" from-port="2" to-layer="202" to-port="0"/>
		<edge from-layer="202" from-port="1" to-layer="204" to-port="0"/>
		<edge from-layer="203" from-port="0" to-layer="204" to-port="1"/>
		<edge from-layer="204" from-port="2" to-layer="206" to-port="0"/>
		<edge from-layer="205" from-port="0" to-layer="206" to-port="1"/>
		<edge from-layer="206" from-port="2" to-layer="208" to-port="0"/>
		<edge from-layer="206" from-port="2" to-layer="221" to-port="0"/>
		<edge from-layer="207" from-port="0" to-layer="208" to-port="1"/>
		<edge from-layer="208" from-port="2" to-layer="210" to-port="0"/>
		<edge from-layer="209" from-port="0" to-layer="210" to-port="1"/>
		<edge from-layer="210" from-port="2" to-layer="211" to-port="0"/>
		<edge from-layer="211" from-port="1" to-layer="213" to-port="0"/>
		<edge from-layer="212" from-port="0" to-layer="213" to-port="1"/>
		<edge from-layer="213" from-port="2" to-layer="215" to-port="0"/>
		<edge from-layer="214" from-port="0" to-layer="215" to-port="1"/>
		<edge from-layer="215" from-port="2" to-layer="216" to-port="0"/>
		<edge from-layer="216" from-port="1" to-layer="218" to-port="0"/>
		<edge from-layer="217" from-port="0" to-layer="218" to-port="1"/>
		<edge from-layer="218" from-port="2" to-layer="220" to-port="0"/>
		<edge from-layer="219" from-port="0" to-layer="220" to-port="1"/>
		<edge from-layer="220" from-port="2" to-layer="221" to-port="1"/>
		<edge from-layer="221" from-port="2" to-layer="223" to-port="0"/>
		<edge from-layer="221" from-port="2" to-layer="236" to-port="0"/>
		<edge from-layer="222" from-port="0" to-layer="223" to-port="1"/>
		<edge from-layer="223" from-port="2" to-layer="225" to-port="0"/>
		<edge from-layer="224" from-port="0" to-layer="225" to-port="1"/>
		<edge from-layer="225" from-port="2" to-layer="226" to-port="0"/>
		<edge from-layer="226" from-port="1" to-layer="228" to-port="0"/>
		<edge from-layer="227" from-port="0" to-layer="228" to-port="1"/>
		<edge from-layer="228" from-port="2" to-layer="230" to-port="0"/>
		<edge from-layer="229" from-port="0" to-layer="230" to-port="1"/>
		<edge from-layer="230" from-port="2" to-layer="231" to-port="0"/>
		<edge from-layer="231" from-port="1" to-layer="233" to-port="0"/>
		<edge from-layer="232" from-port="0" to-layer="233" to-port="1"/>
		<edge from-layer="233" from-port="2" to-layer="235" to-port="0"/>
		<edge from-layer="234" from-port="0" to-layer="235" to-port="1"/>
		<edge from-layer="235" from-port="2" to-layer="236" to-port="1"/>
		<edge from-layer="236" from-port="2" to-layer="238" to-port="0"/>
		<edge from-layer="237" from-port="0" to-layer="238" to-port="1"/>
		<edge from-layer="238" from-port="2" to-layer="240" to-port="0"/>
		<edge from-layer="239" from-port="0" to-layer="240" to-port="1"/>
		<edge from-layer="240" from-port="2" to-layer="241" to-port="0"/>
		<edge from-layer="241" from-port="1" to-layer="243" to-port="0"/>
		<edge from-layer="242" from-port="0" to-layer="243" to-port="1"/>
		<edge from-layer="243" from-port="2" to-layer="245" to-port="0"/>
		<edge from-layer="244" from-port="0" to-layer="245" to-port="1"/>
		<edge from-layer="245" from-port="2" to-layer="246" to-port="0"/>
		<edge from-layer="246" from-port="1" to-layer="248" to-port="0"/>
		<edge from-layer="247" from-port="0" to-layer="248" to-port="1"/>
		<edge from-layer="248" from-port="2" to-layer="250" to-port="0"/>
		<edge from-layer="249" from-port="0" to-layer="250" to-port="1"/>
		<edge from-layer="250" from-port="2" to-layer="252" to-port="0"/>
		<edge from-layer="251" from-port="0" to-layer="252" to-port="1"/>
		<edge from-layer="252" from-port="2" to-layer="254" to-port="0"/>
		<edge from-layer="253" from-port="0" to-layer="254" to-port="1"/>
		<edge from-layer="254" from-port="2" to-layer="255" to-port="0"/>
		<edge from-layer="255" from-port="1" to-layer="258" to-port="0"/>
		<edge from-layer="255" from-port="1" to-layer="269" to-port="0"/>
		<edge from-layer="256" from-port="0" to-layer="269" to-port="1"/>
		<edge from-layer="257" from-port="0" to-layer="267" to-port="0"/>
		<edge from-layer="258" from-port="1" to-layer="261" to-port="0"/>
		<edge from-layer="259" from-port="0" to-layer="261" to-port="1"/>
		<edge from-layer="260" from-port="0" to-layer="261" to-port="2"/>
		<edge from-layer="261" from-port="3" to-layer="265" to-port="0"/>
		<edge from-layer="262" from-port="0" to-layer="265" to-port="1"/>
		<edge from-layer="263" from-port="0" to-layer="265" to-port="2"/>
		<edge from-layer="264" from-port="0" to-layer="265" to-port="3"/>
		<edge from-layer="265" from-port="4" to-layer="266" to-port="0"/>
		<edge from-layer="266" from-port="1" to-layer="267" to-port="1"/>
		<edge from-layer="267" from-port="2" to-layer="269" to-port="2"/>
		<edge from-layer="268" from-port="0" to-layer="269" to-port="3"/>
		<edge from-layer="269" from-port="4" to-layer="271" to-port="0"/>
		<edge from-layer="270" from-port="0" to-layer="271" to-port="1"/>
		<edge from-layer="271" from-port="2" to-layer="467" to-port="0"/>
		<edge from-layer="272" from-port="0" to-layer="273" to-port="1"/>
		<edge from-layer="273" from-port="2" to-layer="275" to-port="0"/>
		<edge from-layer="274" from-port="0" to-layer="275" to-port="1"/>
		<edge from-layer="275" from-port="2" to-layer="276" to-port="0"/>
		<edge from-layer="276" from-port="1" to-layer="278" to-port="0"/>
		<edge from-layer="277" from-port="0" to-layer="278" to-port="1"/>
		<edge from-layer="278" from-port="2" to-layer="280" to-port="0"/>
		<edge from-layer="279" from-port="0" to-layer="280" to-port="1"/>
		<edge from-layer="280" from-port="2" to-layer="281" to-port="0"/>
		<edge from-layer="281" from-port="1" to-layer="283" to-port="0"/>
		<edge from-layer="282" from-port="0" to-layer="283" to-port="1"/>
		<edge from-layer="283" from-port="2" to-layer="285" to-port="0"/>
		<edge from-layer="284" from-port="0" to-layer="285" to-port="1"/>
		<edge from-layer="285" from-port="2" to-layer="287" to-port="0"/>
		<edge from-layer="286" from-port="0" to-layer="287" to-port="1"/>
		<edge from-layer="287" from-port="2" to-layer="289" to-port="0"/>
		<edge from-layer="288" from-port="0" to-layer="289" to-port="1"/>
		<edge from-layer="289" from-port="2" to-layer="290" to-port="0"/>
		<edge from-layer="290" from-port="1" to-layer="292" to-port="0"/>
		<edge from-layer="291" from-port="0" to-layer="292" to-port="1"/>
		<edge from-layer="292" from-port="2" to-layer="294" to-port="0"/>
		<edge from-layer="293" from-port="0" to-layer="294" to-port="1"/>
		<edge from-layer="294" from-port="2" to-layer="295" to-port="0"/>
		<edge from-layer="295" from-port="1" to-layer="297" to-port="0"/>
		<edge from-layer="296" from-port="0" to-layer="297" to-port="1"/>
		<edge from-layer="297" from-port="2" to-layer="299" to-port="0"/>
		<edge from-layer="298" from-port="0" to-layer="299" to-port="1"/>
		<edge from-layer="299" from-port="2" to-layer="314" to-port="0"/>
		<edge from-layer="299" from-port="2" to-layer="301" to-port="0"/>
		<edge from-layer="300" from-port="0" to-layer="301" to-port="1"/>
		<edge from-layer="301" from-port="2" to-layer="303" to-port="0"/>
		<edge from-layer="302" from-port="0" to-layer="303" to-port="1"/>
		<edge from-layer="303" from-port="2" to-layer="304" to-port="0"/>
		<edge from-layer="304" from-port="1" to-layer="306" to-port="0"/>
		<edge from-layer="305" from-port="0" to-layer="306" to-port="1"/>
		<edge from-layer="306" from-port="2" to-layer="308" to-port="0"/>
		<edge from-layer="307" from-port="0" to-layer="308" to-port="1"/>
		<edge from-layer="308" from-port="2" to-layer="309" to-port="0"/>
		<edge from-layer="309" from-port="1" to-layer="311" to-port="0"/>
		<edge from-layer="310" from-port="0" to-layer="311" to-port="1"/>
		<edge from-layer="311" from-port="2" to-layer="313" to-port="0"/>
		<edge from-layer="312" from-port="0" to-layer="313" to-port="1"/>
		<edge from-layer="313" from-port="2" to-layer="314" to-port="1"/>
		<edge from-layer="314" from-port="2" to-layer="316" to-port="0"/>
		<edge from-layer="315" from-port="0" to-layer="316" to-port="1"/>
		<edge from-layer="316" from-port="2" to-layer="318" to-port="0"/>
		<edge from-layer="317" from-port="0" to-layer="318" to-port="1"/>
		<edge from-layer="318" from-port="2" to-layer="319" to-port="0"/>
		<edge from-layer="319" from-port="1" to-layer="321" to-port="0"/>
		<edge from-layer="320" from-port="0" to-layer="321" to-port="1"/>
		<edge from-layer="321" from-port="2" to-layer="323" to-port="0"/>
		<edge from-layer="322" from-port="0" to-layer="323" to-port="1"/>
		<edge from-layer="323" from-port="2" to-layer="324" to-port="0"/>
		<edge from-layer="324" from-port="1" to-layer="326" to-port="0"/>
		<edge from-layer="325" from-port="0" to-layer="326" to-port="1"/>
		<edge from-layer="326" from-port="2" to-layer="328" to-port="0"/>
		<edge from-layer="327" from-port="0" to-layer="328" to-port="1"/>
		<edge from-layer="328" from-port="2" to-layer="343" to-port="0"/>
		<edge from-layer="328" from-port="2" to-layer="330" to-port="0"/>
		<edge from-layer="329" from-port="0" to-layer="330" to-port="1"/>
		<edge from-layer="330" from-port="2" to-layer="332" to-port="0"/>
		<edge from-layer="331" from-port="0" to-layer="332" to-port="1"/>
		<edge from-layer="332" from-port="2" to-layer="333" to-port="0"/>
		<edge from-layer="333" from-port="1" to-layer="335" to-port="0"/>
		<edge from-layer="334" from-port="0" to-layer="335" to-port="1"/>
		<edge from-layer="335" from-port="2" to-layer="337" to-port="0"/>
		<edge from-layer="336" from-port="0" to-layer="337" to-port="1"/>
		<edge from-layer="337" from-port="2" to-layer="338" to-port="0"/>
		<edge from-layer="338" from-port="1" to-layer="340" to-port="0"/>
		<edge from-layer="339" from-port="0" to-layer="340" to-port="1"/>
		<edge from-layer="340" from-port="2" to-layer="342" to-port="0"/>
		<edge from-layer="341" from-port="0" to-layer="342" to-port="1"/>
		<edge from-layer="342" from-port="2" to-layer="343" to-port="1"/>
		<edge from-layer="343" from-port="2" to-layer="358" to-port="0"/>
		<edge from-layer="343" from-port="2" to-layer="345" to-port="0"/>
		<edge from-layer="344" from-port="0" to-layer="345" to-port="1"/>
		<edge from-layer="345" from-port="2" to-layer="347" to-port="0"/>
		<edge from-layer="346" from-port="0" to-layer="347" to-port="1"/>
		<edge from-layer="347" from-port="2" to-layer="348" to-port="0"/>
		<edge from-layer="348" from-port="1" to-layer="350" to-port="0"/>
		<edge from-layer="349" from-port="0" to-layer="350" to-port="1"/>
		<edge from-layer="350" from-port="2" to-layer="352" to-port="0"/>
		<edge from-layer="351" from-port="0" to-layer="352" to-port="1"/>
		<edge from-layer="352" from-port="2" to-layer="353" to-port="0"/>
		<edge from-layer="353" from-port="1" to-layer="355" to-port="0"/>
		<edge from-layer="354" from-port="0" to-layer="355" to-port="1"/>
		<edge from-layer="355" from-port="2" to-layer="357" to-port="0"/>
		<edge from-layer="356" from-port="0" to-layer="357" to-port="1"/>
		<edge from-layer="357" from-port="2" to-layer="358" to-port="1"/>
		<edge from-layer="358" from-port="2" to-layer="360" to-port="0"/>
		<edge from-layer="359" from-port="0" to-layer="360" to-port="1"/>
		<edge from-layer="360" from-port="2" to-layer="362" to-port="0"/>
		<edge from-layer="361" from-port="0" to-layer="362" to-port="1"/>
		<edge from-layer="362" from-port="2" to-layer="363" to-port="0"/>
		<edge from-layer="363" from-port="1" to-layer="365" to-port="0"/>
		<edge from-layer="364" from-port="0" to-layer="365" to-port="1"/>
		<edge from-layer="365" from-port="2" to-layer="367" to-port="0"/>
		<edge from-layer="366" from-port="0" to-layer="367" to-port="1"/>
		<edge from-layer="367" from-port="2" to-layer="368" to-port="0"/>
		<edge from-layer="368" from-port="1" to-layer="370" to-port="0"/>
		<edge from-layer="369" from-port="0" to-layer="370" to-port="1"/>
		<edge from-layer="370" from-port="2" to-layer="372" to-port="0"/>
		<edge from-layer="371" from-port="0" to-layer="372" to-port="1"/>
		<edge from-layer="372" from-port="2" to-layer="387" to-port="0"/>
		<edge from-layer="372" from-port="2" to-layer="374" to-port="0"/>
		<edge from-layer="373" from-port="0" to-layer="374" to-port="1"/>
		<edge from-layer="374" from-port="2" to-layer="376" to-port="0"/>
		<edge from-layer="375" from-port="0" to-layer="376" to-port="1"/>
		<edge from-layer="376" from-port="2" to-layer="377" to-port="0"/>
		<edge from-layer="377" from-port="1" to-layer="379" to-port="0"/>
		<edge from-layer="378" from-port="0" to-layer="379" to-port="1"/>
		<edge from-layer="379" from-port="2" to-layer="381" to-port="0"/>
		<edge from-layer="380" from-port="0" to-layer="381" to-port="1"/>
		<edge from-layer="381" from-port="2" to-layer="382" to-port="0"/>
		<edge from-layer="382" from-port="1" to-layer="384" to-port="0"/>
		<edge from-layer="383" from-port="0" to-layer="384" to-port="1"/>
		<edge from-layer="384" from-port="2" to-layer="386" to-port="0"/>
		<edge from-layer="385" from-port="0" to-layer="386" to-port="1"/>
		<edge from-layer="386" from-port="2" to-layer="387" to-port="1"/>
		<edge from-layer="387" from-port="2" to-layer="402" to-port="0"/>
		<edge from-layer="387" from-port="2" to-layer="389" to-port="0"/>
		<edge from-layer="388" from-port="0" to-layer="389" to-port="1"/>
		<edge from-layer="389" from-port="2" to-layer="391" to-port="0"/>
		<edge from-layer="390" from-port="0" to-layer="391" to-port="1"/>
		<edge from-layer="391" from-port="2" to-layer="392" to-port="0"/>
		<edge from-layer="392" from-port="1" to-layer="394" to-port="0"/>
		<edge from-layer="393" from-port="0" to-layer="394" to-port="1"/>
		<edge from-layer="394" from-port="2" to-layer="396" to-port="0"/>
		<edge from-layer="395" from-port="0" to-layer="396" to-port="1"/>
		<edge from-layer="396" from-port="2" to-layer="397" to-port="0"/>
		<edge from-layer="397" from-port="1" to-layer="399" to-port="0"/>
		<edge from-layer="398" from-port="0" to-layer="399" to-port="1"/>
		<edge from-layer="399" from-port="2" to-layer="401" to-port="0"/>
		<edge from-layer="400" from-port="0" to-layer="401" to-port="1"/>
		<edge from-layer="401" from-port="2" to-layer="402" to-port="1"/>
		<edge from-layer="402" from-port="2" to-layer="417" to-port="0"/>
		<edge from-layer="402" from-port="2" to-layer="404" to-port="0"/>
		<edge from-layer="403" from-port="0" to-layer="404" to-port="1"/>
		<edge from-layer="404" from-port="2" to-layer="406" to-port="0"/>
		<edge from-layer="405" from-port="0" to-layer="406" to-port="1"/>
		<edge from-layer="406" from-port="2" to-layer="407" to-port="0"/>
		<edge from-layer="407" from-port="1" to-layer="409" to-port="0"/>
		<edge from-layer="408" from-port="0" to-layer="409" to-port="1"/>
		<edge from-layer="409" from-port="2" to-layer="411" to-port="0"/>
		<edge from-layer="410" from-port="0" to-layer="411" to-port="1"/>
		<edge from-layer="411" from-port="2" to-layer="412" to-port="0"/>
		<edge from-layer="412" from-port="1" to-layer="414" to-port="0"/>
		<edge from-layer="413" from-port="0" to-layer="414" to-port="1"/>
		<edge from-layer="414" from-port="2" to-layer="416" to-port="0"/>
		<edge from-layer="415" from-port="0" to-layer="416" to-port="1"/>
		<edge from-layer="416" from-port="2" to-layer="417" to-port="1"/>
		<edge from-layer="417" from-port="2" to-layer="419" to-port="0"/>
		<edge from-layer="418" from-port="0" to-layer="419" to-port="1"/>
		<edge from-layer="419" from-port="2" to-layer="421" to-port="0"/>
		<edge from-layer="420" from-port="0" to-layer="421" to-port="1"/>
		<edge from-layer="421" from-port="2" to-layer="422" to-port="0"/>
		<edge from-layer="422" from-port="1" to-layer="424" to-port="0"/>
		<edge from-layer="423" from-port="0" to-layer="424" to-port="1"/>
		<edge from-layer="424" from-port="2" to-layer="426" to-port="0"/>
		<edge from-layer="425" from-port="0" to-layer="426" to-port="1"/>
		<edge from-layer="426" from-port="2" to-layer="427" to-port="0"/>
		<edge from-layer="427" from-port="1" to-layer="429" to-port="0"/>
		<edge from-layer="428" from-port="0" to-layer="429" to-port="1"/>
		<edge from-layer="429" from-port="2" to-layer="431" to-port="0"/>
		<edge from-layer="430" from-port="0" to-layer="431" to-port="1"/>
		<edge from-layer="431" from-port="2" to-layer="433" to-port="0"/>
		<edge from-layer="431" from-port="2" to-layer="446" to-port="0"/>
		<edge from-layer="432" from-port="0" to-layer="433" to-port="1"/>
		<edge from-layer="433" from-port="2" to-layer="435" to-port="0"/>
		<edge from-layer="434" from-port="0" to-layer="435" to-port="1"/>
		<edge from-layer="435" from-port="2" to-layer="436" to-port="0"/>
		<edge from-layer="436" from-port="1" to-layer="438" to-port="0"/>
		<edge from-layer="437" from-port="0" to-layer="438" to-port="1"/>
		<edge from-layer="438" from-port="2" to-layer="440" to-port="0"/>
		<edge from-layer="439" from-port="0" to-layer="440" to-port="1"/>
		<edge from-layer="440" from-port="2" to-layer="441" to-port="0"/>
		<edge from-layer="441" from-port="1" to-layer="443" to-port="0"/>
		<edge from-layer="442" from-port="0" to-layer="443" to-port="1"/>
		<edge from-layer="443" from-port="2" to-layer="445" to-port="0"/>
		<edge from-layer="444" from-port="0" to-layer="445" to-port="1"/>
		<edge from-layer="445" from-port="2" to-layer="446" to-port="1"/>
		<edge from-layer="446" from-port="2" to-layer="448" to-port="0"/>
		<edge from-layer="446" from-port="2" to-layer="461" to-port="0"/>
		<edge from-layer="447" from-port="0" to-layer="448" to-port="1"/>
		<edge from-layer="448" from-port="2" to-layer="450" to-port="0"/>
		<edge from-layer="449" from-port="0" to-layer="450" to-port="1"/>
		<edge from-layer="450" from-port="2" to-layer="451" to-port="0"/>
		<edge from-layer="451" from-port="1" to-layer="453" to-port="0"/>
		<edge from-layer="452" from-port="0" to-layer="453" to-port="1"/>
		<edge from-layer="453" from-port="2" to-layer="455" to-port="0"/>
		<edge from-layer="454" from-port="0" to-layer="455" to-port="1"/>
		<edge from-layer="455" from-port="2" to-layer="456" to-port="0"/>
		<edge from-layer="456" from-port="1" to-layer="458" to-port="0"/>
		<edge from-layer="457" from-port="0" to-layer="458" to-port="1"/>
		<edge from-layer="458" from-port="2" to-layer="460" to-port="0"/>
		<edge from-layer="459" from-port="0" to-layer="460" to-port="1"/>
		<edge from-layer="460" from-port="2" to-layer="461" to-port="1"/>
		<edge from-layer="461" from-port="2" to-layer="463" to-port="0"/>
		<edge from-layer="462" from-port="0" to-layer="463" to-port="1"/>
		<edge from-layer="463" from-port="2" to-layer="465" to-port="0"/>
		<edge from-layer="464" from-port="0" to-layer="465" to-port="1"/>
		<edge from-layer="465" from-port="2" to-layer="466" to-port="0"/>
		<edge from-layer="466" from-port="1" to-layer="467" to-port="1"/>
		<edge from-layer="467" from-port="2" to-layer="469" to-port="0"/>
		<edge from-layer="468" from-port="0" to-layer="469" to-port="1"/>
		<edge from-layer="469" from-port="2" to-layer="471" to-port="0"/>
		<edge from-layer="470" from-port="0" to-layer="471" to-port="1"/>
		<edge from-layer="471" from-port="2" to-layer="472" to-port="0"/>
		<edge from-layer="472" from-port="1" to-layer="474" to-port="0"/>
		<edge from-layer="473" from-port="0" to-layer="474" to-port="1"/>
		<edge from-layer="474" from-port="2" to-layer="476" to-port="0"/>
		<edge from-layer="475" from-port="0" to-layer="476" to-port="1"/>
		<edge from-layer="476" from-port="2" to-layer="477" to-port="0"/>
		<edge from-layer="477" from-port="1" to-layer="491" to-port="0"/>
		<edge from-layer="477" from-port="1" to-layer="480" to-port="0"/>
		<edge from-layer="478" from-port="0" to-layer="491" to-port="1"/>
		<edge from-layer="479" from-port="0" to-layer="489" to-port="0"/>
		<edge from-layer="480" from-port="1" to-layer="483" to-port="0"/>
		<edge from-layer="481" from-port="0" to-layer="483" to-port="1"/>
		<edge from-layer="482" from-port="0" to-layer="483" to-port="2"/>
		<edge from-layer="483" from-port="3" to-layer="487" to-port="0"/>
		<edge from-layer="484" from-port="0" to-layer="487" to-port="1"/>
		<edge from-layer="485" from-port="0" to-layer="487" to-port="2"/>
		<edge from-layer="486" from-port="0" to-layer="487" to-port="3"/>
		<edge from-layer="487" from-port="4" to-layer="488" to-port="0"/>
		<edge from-layer="488" from-port="1" to-layer="489" to-port="1"/>
		<edge from-layer="489" from-port="2" to-layer="491" to-port="2"/>
		<edge from-layer="490" from-port="0" to-layer="491" to-port="3"/>
		<edge from-layer="491" from-port="4" to-layer="493" to-port="0"/>
		<edge from-layer="492" from-port="0" to-layer="493" to-port="1"/>
		<edge from-layer="493" from-port="2" to-layer="586" to-port="0"/>
		<edge from-layer="494" from-port="0" to-layer="495" to-port="1"/>
		<edge from-layer="495" from-port="2" to-layer="497" to-port="0"/>
		<edge from-layer="496" from-port="0" to-layer="497" to-port="1"/>
		<edge from-layer="497" from-port="2" to-layer="498" to-port="0"/>
		<edge from-layer="498" from-port="1" to-layer="500" to-port="0"/>
		<edge from-layer="499" from-port="0" to-layer="500" to-port="1"/>
		<edge from-layer="500" from-port="2" to-layer="502" to-port="0"/>
		<edge from-layer="501" from-port="0" to-layer="502" to-port="1"/>
		<edge from-layer="502" from-port="2" to-layer="503" to-port="0"/>
		<edge from-layer="503" from-port="1" to-layer="505" to-port="0"/>
		<edge from-layer="504" from-port="0" to-layer="505" to-port="1"/>
		<edge from-layer="505" from-port="2" to-layer="507" to-port="0"/>
		<edge from-layer="506" from-port="0" to-layer="507" to-port="1"/>
		<edge from-layer="507" from-port="2" to-layer="509" to-port="0"/>
		<edge from-layer="508" from-port="0" to-layer="509" to-port="1"/>
		<edge from-layer="509" from-port="2" to-layer="511" to-port="0"/>
		<edge from-layer="510" from-port="0" to-layer="511" to-port="1"/>
		<edge from-layer="511" from-port="2" to-layer="512" to-port="0"/>
		<edge from-layer="512" from-port="1" to-layer="514" to-port="0"/>
		<edge from-layer="513" from-port="0" to-layer="514" to-port="1"/>
		<edge from-layer="514" from-port="2" to-layer="516" to-port="0"/>
		<edge from-layer="515" from-port="0" to-layer="516" to-port="1"/>
		<edge from-layer="516" from-port="2" to-layer="517" to-port="0"/>
		<edge from-layer="517" from-port="1" to-layer="519" to-port="0"/>
		<edge from-layer="518" from-port="0" to-layer="519" to-port="1"/>
		<edge from-layer="519" from-port="2" to-layer="521" to-port="0"/>
		<edge from-layer="520" from-port="0" to-layer="521" to-port="1"/>
		<edge from-layer="521" from-port="2" to-layer="523" to-port="0"/>
		<edge from-layer="521" from-port="2" to-layer="536" to-port="0"/>
		<edge from-layer="522" from-port="0" to-layer="523" to-port="1"/>
		<edge from-layer="523" from-port="2" to-layer="525" to-port="0"/>
		<edge from-layer="524" from-port="0" to-layer="525" to-port="1"/>
		<edge from-layer="525" from-port="2" to-layer="526" to-port="0"/>
		<edge from-layer="526" from-port="1" to-layer="528" to-port="0"/>
		<edge from-layer="527" from-port="0" to-layer="528" to-port="1"/>
		<edge from-layer="528" from-port="2" to-layer="530" to-port="0"/>
		<edge from-layer="529" from-port="0" to-layer="530" to-port="1"/>
		<edge from-layer="530" from-port="2" to-layer="531" to-port="0"/>
		<edge from-layer="531" from-port="1" to-layer="533" to-port="0"/>
		<edge from-layer="532" from-port="0" to-layer="533" to-port="1"/>
		<edge from-layer="533" from-port="2" to-layer="535" to-port="0"/>
		<edge from-layer="534" from-port="0" to-layer="535" to-port="1"/>
		<edge from-layer="535" from-port="2" to-layer="536" to-port="1"/>
		<edge from-layer="536" from-port="2" to-layer="538" to-port="0"/>
		<edge from-layer="537" from-port="0" to-layer="538" to-port="1"/>
		<edge from-layer="538" from-port="2" to-layer="540" to-port="0"/>
		<edge from-layer="539" from-port="0" to-layer="540" to-port="1"/>
		<edge from-layer="540" from-port="2" to-layer="541" to-port="0"/>
		<edge from-layer="541" from-port="1" to-layer="543" to-port="0"/>
		<edge from-layer="542" from-port="0" to-layer="543" to-port="1"/>
		<edge from-layer="543" from-port="2" to-layer="545" to-port="0"/>
		<edge from-layer="544" from-port="0" to-layer="545" to-port="1"/>
		<edge from-layer="545" from-port="2" to-layer="546" to-port="0"/>
		<edge from-layer="546" from-port="1" to-layer="548" to-port="0"/>
		<edge from-layer="547" from-port="0" to-layer="548" to-port="1"/>
		<edge from-layer="548" from-port="2" to-layer="550" to-port="0"/>
		<edge from-layer="549" from-port="0" to-layer="550" to-port="1"/>
		<edge from-layer="550" from-port="2" to-layer="552" to-port="0"/>
		<edge from-layer="550" from-port="2" to-layer="565" to-port="0"/>
		<edge from-layer="551" from-port="0" to-layer="552" to-port="1"/>
		<edge from-layer="552" from-port="2" to-layer="554" to-port="0"/>
		<edge from-layer="553" from-port="0" to-layer="554" to-port="1"/>
		<edge from-layer="554" from-port="2" to-layer="555" to-port="0"/>
		<edge from-layer="555" from-port="1" to-layer="557" to-port="0"/>
		<edge from-layer="556" from-port="0" to-layer="557" to-port="1"/>
		<edge from-layer="557" from-port="2" to-layer="559" to-port="0"/>
		<edge from-layer="558" from-port="0" to-layer="559" to-port="1"/>
		<edge from-layer="559" from-port="2" to-layer="560" to-port="0"/>
		<edge from-layer="560" from-port="1" to-layer="562" to-port="0"/>
		<edge from-layer="561" from-port="0" to-layer="562" to-port="1"/>
		<edge from-layer="562" from-port="2" to-layer="564" to-port="0"/>
		<edge from-layer="563" from-port="0" to-layer="564" to-port="1"/>
		<edge from-layer="564" from-port="2" to-layer="565" to-port="1"/>
		<edge from-layer="565" from-port="2" to-layer="580" to-port="0"/>
		<edge from-layer="565" from-port="2" to-layer="567" to-port="0"/>
		<edge from-layer="566" from-port="0" to-layer="567" to-port="1"/>
		<edge from-layer="567" from-port="2" to-layer="569" to-port="0"/>
		<edge from-layer="568" from-port="0" to-layer="569" to-port="1"/>
		<edge from-layer="569" from-port="2" to-layer="570" to-port="0"/>
		<edge from-layer="570" from-port="1" to-layer="572" to-port="0"/>
		<edge from-layer="571" from-port="0" to-layer="572" to-port="1"/>
		<edge from-layer="572" from-port="2" to-layer="574" to-port="0"/>
		<edge from-layer="573" from-port="0" to-layer="574" to-port="1"/>
		<edge from-layer="574" from-port="2" to-layer="575" to-port="0"/>
		<edge from-layer="575" from-port="1" to-layer="577" to-port="0"/>
		<edge from-layer="576" from-port="0" to-layer="577" to-port="1"/>
		<edge from-layer="577" from-port="2" to-layer="579" to-port="0"/>
		<edge from-layer="578" from-port="0" to-layer="579" to-port="1"/>
		<edge from-layer="579" from-port="2" to-layer="580" to-port="1"/>
		<edge from-layer="580" from-port="2" to-layer="582" to-port="0"/>
		<edge from-layer="581" from-port="0" to-layer="582" to-port="1"/>
		<edge from-layer="582" from-port="2" to-layer="584" to-port="0"/>
		<edge from-layer="583" from-port="0" to-layer="584" to-port="1"/>
		<edge from-layer="584" from-port="2" to-layer="585" to-port="0"/>
		<edge from-layer="585" from-port="1" to-layer="586" to-port="1"/>
		<edge from-layer="586" from-port="2" to-layer="588" to-port="0"/>
		<edge from-layer="587" from-port="0" to-layer="588" to-port="1"/>
		<edge from-layer="588" from-port="2" to-layer="590" to-port="0"/>
		<edge from-layer="589" from-port="0" to-layer="590" to-port="1"/>
		<edge from-layer="590" from-port="2" to-layer="591" to-port="0"/>
		<edge from-layer="591" from-port="1" to-layer="593" to-port="0"/>
		<edge from-layer="592" from-port="0" to-layer="593" to-port="1"/>
		<edge from-layer="593" from-port="2" to-layer="595" to-port="0"/>
		<edge from-layer="594" from-port="0" to-layer="595" to-port="1"/>
		<edge from-layer="595" from-port="2" to-layer="596" to-port="0"/>
		<edge from-layer="596" from-port="1" to-layer="599" to-port="0"/>
		<edge from-layer="596" from-port="1" to-layer="610" to-port="0"/>
		<edge from-layer="597" from-port="0" to-layer="610" to-port="1"/>
		<edge from-layer="598" from-port="0" to-layer="608" to-port="0"/>
		<edge from-layer="599" from-port="1" to-layer="602" to-port="0"/>
		<edge from-layer="600" from-port="0" to-layer="602" to-port="1"/>
		<edge from-layer="601" from-port="0" to-layer="602" to-port="2"/>
		<edge from-layer="602" from-port="3" to-layer="606" to-port="0"/>
		<edge from-layer="603" from-port="0" to-layer="606" to-port="1"/>
		<edge from-layer="604" from-port="0" to-layer="606" to-port="2"/>
		<edge from-layer="605" from-port="0" to-layer="606" to-port="3"/>
		<edge from-layer="606" from-port="4" to-layer="607" to-port="0"/>
		<edge from-layer="607" from-port="1" to-layer="608" to-port="1"/>
		<edge from-layer="608" from-port="2" to-layer="610" to-port="2"/>
		<edge from-layer="609" from-port="0" to-layer="610" to-port="3"/>
		<edge from-layer="610" from-port="4" to-layer="612" to-port="0"/>
		<edge from-layer="611" from-port="0" to-layer="612" to-port="1"/>
		<edge from-layer="612" from-port="2" to-layer="661" to-port="0"/>
		<edge from-layer="613" from-port="0" to-layer="614" to-port="1"/>
		<edge from-layer="614" from-port="2" to-layer="616" to-port="0"/>
		<edge from-layer="615" from-port="0" to-layer="616" to-port="1"/>
		<edge from-layer="616" from-port="2" to-layer="617" to-port="0"/>
		<edge from-layer="617" from-port="1" to-layer="619" to-port="0"/>
		<edge from-layer="618" from-port="0" to-layer="619" to-port="1"/>
		<edge from-layer="619" from-port="2" to-layer="621" to-port="0"/>
		<edge from-layer="620" from-port="0" to-layer="621" to-port="1"/>
		<edge from-layer="621" from-port="2" to-layer="622" to-port="0"/>
		<edge from-layer="622" from-port="1" to-layer="624" to-port="0"/>
		<edge from-layer="623" from-port="0" to-layer="624" to-port="1"/>
		<edge from-layer="624" from-port="2" to-layer="626" to-port="0"/>
		<edge from-layer="625" from-port="0" to-layer="626" to-port="1"/>
		<edge from-layer="626" from-port="2" to-layer="628" to-port="0"/>
		<edge from-layer="627" from-port="0" to-layer="628" to-port="1"/>
		<edge from-layer="628" from-port="2" to-layer="630" to-port="0"/>
		<edge from-layer="629" from-port="0" to-layer="630" to-port="1"/>
		<edge from-layer="630" from-port="2" to-layer="631" to-port="0"/>
		<edge from-layer="631" from-port="1" to-layer="633" to-port="0"/>
		<edge from-layer="632" from-port="0" to-layer="633" to-port="1"/>
		<edge from-layer="633" from-port="2" to-layer="635" to-port="0"/>
		<edge from-layer="634" from-port="0" to-layer="635" to-port="1"/>
		<edge from-layer="635" from-port="2" to-layer="636" to-port="0"/>
		<edge from-layer="636" from-port="1" to-layer="638" to-port="0"/>
		<edge from-layer="637" from-port="0" to-layer="638" to-port="1"/>
		<edge from-layer="638" from-port="2" to-layer="640" to-port="0"/>
		<edge from-layer="639" from-port="0" to-layer="640" to-port="1"/>
		<edge from-layer="640" from-port="2" to-layer="642" to-port="0"/>
		<edge from-layer="640" from-port="2" to-layer="655" to-port="0"/>
		<edge from-layer="641" from-port="0" to-layer="642" to-port="1"/>
		<edge from-layer="642" from-port="2" to-layer="644" to-port="0"/>
		<edge from-layer="643" from-port="0" to-layer="644" to-port="1"/>
		<edge from-layer="644" from-port="2" to-layer="645" to-port="0"/>
		<edge from-layer="645" from-port="1" to-layer="647" to-port="0"/>
		<edge from-layer="646" from-port="0" to-layer="647" to-port="1"/>
		<edge from-layer="647" from-port="2" to-layer="649" to-port="0"/>
		<edge from-layer="648" from-port="0" to-layer="649" to-port="1"/>
		<edge from-layer="649" from-port="2" to-layer="650" to-port="0"/>
		<edge from-layer="650" from-port="1" to-layer="652" to-port="0"/>
		<edge from-layer="651" from-port="0" to-layer="652" to-port="1"/>
		<edge from-layer="652" from-port="2" to-layer="654" to-port="0"/>
		<edge from-layer="653" from-port="0" to-layer="654" to-port="1"/>
		<edge from-layer="654" from-port="2" to-layer="655" to-port="1"/>
		<edge from-layer="655" from-port="2" to-layer="657" to-port="0"/>
		<edge from-layer="656" from-port="0" to-layer="657" to-port="1"/>
		<edge from-layer="657" from-port="2" to-layer="659" to-port="0"/>
		<edge from-layer="658" from-port="0" to-layer="659" to-port="1"/>
		<edge from-layer="659" from-port="2" to-layer="660" to-port="0"/>
		<edge from-layer="660" from-port="1" to-layer="661" to-port="1"/>
		<edge from-layer="661" from-port="2" to-layer="663" to-port="0"/>
		<edge from-layer="662" from-port="0" to-layer="663" to-port="1"/>
		<edge from-layer="663" from-port="2" to-layer="665" to-port="0"/>
		<edge from-layer="664" from-port="0" to-layer="665" to-port="1"/>
		<edge from-layer="665" from-port="2" to-layer="666" to-port="0"/>
		<edge from-layer="666" from-port="1" to-layer="668" to-port="0"/>
		<edge from-layer="667" from-port="0" to-layer="668" to-port="1"/>
		<edge from-layer="668" from-port="2" to-layer="670" to-port="0"/>
		<edge from-layer="669" from-port="0" to-layer="670" to-port="1"/>
		<edge from-layer="670" from-port="2" to-layer="671" to-port="0"/>
		<edge from-layer="671" from-port="1" to-layer="674" to-port="0"/>
		<edge from-layer="671" from-port="1" to-layer="685" to-port="0"/>
		<edge from-layer="672" from-port="0" to-layer="685" to-port="1"/>
		<edge from-layer="673" from-port="0" to-layer="683" to-port="0"/>
		<edge from-layer="674" from-port="1" to-layer="677" to-port="0"/>
		<edge from-layer="675" from-port="0" to-layer="677" to-port="1"/>
		<edge from-layer="676" from-port="0" to-layer="677" to-port="2"/>
		<edge from-layer="677" from-port="3" to-layer="681" to-port="0"/>
		<edge from-layer="678" from-port="0" to-layer="681" to-port="1"/>
		<edge from-layer="679" from-port="0" to-layer="681" to-port="2"/>
		<edge from-layer="680" from-port="0" to-layer="681" to-port="3"/>
		<edge from-layer="681" from-port="4" to-layer="682" to-port="0"/>
		<edge from-layer="682" from-port="1" to-layer="683" to-port="1"/>
		<edge from-layer="683" from-port="2" to-layer="685" to-port="2"/>
		<edge from-layer="684" from-port="0" to-layer="685" to-port="3"/>
		<edge from-layer="685" from-port="4" to-layer="687" to-port="0"/>
		<edge from-layer="686" from-port="0" to-layer="687" to-port="1"/>
		<edge from-layer="687" from-port="2" to-layer="707" to-port="0"/>
		<edge from-layer="688" from-port="0" to-layer="689" to-port="1"/>
		<edge from-layer="689" from-port="2" to-layer="691" to-port="0"/>
		<edge from-layer="690" from-port="0" to-layer="691" to-port="1"/>
		<edge from-layer="691" from-port="2" to-layer="692" to-port="0"/>
		<edge from-layer="692" from-port="1" to-layer="694" to-port="0"/>
		<edge from-layer="693" from-port="0" to-layer="694" to-port="1"/>
		<edge from-layer="694" from-port="2" to-layer="696" to-port="0"/>
		<edge from-layer="695" from-port="0" to-layer="696" to-port="1"/>
		<edge from-layer="696" from-port="2" to-layer="697" to-port="0"/>
		<edge from-layer="697" from-port="1" to-layer="699" to-port="0"/>
		<edge from-layer="698" from-port="0" to-layer="699" to-port="1"/>
		<edge from-layer="699" from-port="2" to-layer="701" to-port="0"/>
		<edge from-layer="700" from-port="0" to-layer="701" to-port="1"/>
		<edge from-layer="701" from-port="2" to-layer="703" to-port="0"/>
		<edge from-layer="702" from-port="0" to-layer="703" to-port="1"/>
		<edge from-layer="703" from-port="2" to-layer="705" to-port="0"/>
		<edge from-layer="704" from-port="0" to-layer="705" to-port="1"/>
		<edge from-layer="705" from-port="2" to-layer="706" to-port="0"/>
		<edge from-layer="706" from-port="1" to-layer="707" to-port="1"/>
		<edge from-layer="707" from-port="2" to-layer="709" to-port="0"/>
		<edge from-layer="708" from-port="0" to-layer="709" to-port="1"/>
		<edge from-layer="709" from-port="2" to-layer="711" to-port="0"/>
		<edge from-layer="710" from-port="0" to-layer="711" to-port="1"/>
		<edge from-layer="711" from-port="2" to-layer="712" to-port="0"/>
		<edge from-layer="712" from-port="1" to-layer="714" to-port="0"/>
		<edge from-layer="713" from-port="0" to-layer="714" to-port="1"/>
		<edge from-layer="714" from-port="2" to-layer="716" to-port="0"/>
		<edge from-layer="715" from-port="0" to-layer="716" to-port="1"/>
		<edge from-layer="716" from-port="2" to-layer="717" to-port="0"/>
		<edge from-layer="717" from-port="1" to-layer="720" to-port="0"/>
		<edge from-layer="717" from-port="1" to-layer="731" to-port="0"/>
		<edge from-layer="718" from-port="0" to-layer="731" to-port="1"/>
		<edge from-layer="719" from-port="0" to-layer="729" to-port="0"/>
		<edge from-layer="720" from-port="1" to-layer="723" to-port="0"/>
		<edge from-layer="721" from-port="0" to-layer="723" to-port="1"/>
		<edge from-layer="722" from-port="0" to-layer="723" to-port="2"/>
		<edge from-layer="723" from-port="3" to-layer="727" to-port="0"/>
		<edge from-layer="724" from-port="0" to-layer="727" to-port="1"/>
		<edge from-layer="725" from-port="0" to-layer="727" to-port="2"/>
		<edge from-layer="726" from-port="0" to-layer="727" to-port="3"/>
		<edge from-layer="727" from-port="4" to-layer="728" to-port="0"/>
		<edge from-layer="728" from-port="1" to-layer="729" to-port="1"/>
		<edge from-layer="729" from-port="2" to-layer="731" to-port="2"/>
		<edge from-layer="730" from-port="0" to-layer="731" to-port="3"/>
		<edge from-layer="731" from-port="4" to-layer="733" to-port="0"/>
		<edge from-layer="732" from-port="0" to-layer="733" to-port="1"/>
		<edge from-layer="733" from-port="2" to-layer="744" to-port="0"/>
		<edge from-layer="734" from-port="0" to-layer="735" to-port="1"/>
		<edge from-layer="735" from-port="2" to-layer="737" to-port="0"/>
		<edge from-layer="736" from-port="0" to-layer="737" to-port="1"/>
		<edge from-layer="737" from-port="2" to-layer="738" to-port="0"/>
		<edge from-layer="738" from-port="1" to-layer="740" to-port="0"/>
		<edge from-layer="739" from-port="0" to-layer="740" to-port="1"/>
		<edge from-layer="740" from-port="2" to-layer="742" to-port="0"/>
		<edge from-layer="741" from-port="0" to-layer="742" to-port="1"/>
		<edge from-layer="742" from-port="2" to-layer="743" to-port="0"/>
		<edge from-layer="743" from-port="1" to-layer="744" to-port="1"/>
		<edge from-layer="744" from-port="2" to-layer="746" to-port="0"/>
		<edge from-layer="745" from-port="0" to-layer="746" to-port="1"/>
		<edge from-layer="746" from-port="2" to-layer="748" to-port="0"/>
		<edge from-layer="747" from-port="0" to-layer="748" to-port="1"/>
		<edge from-layer="748" from-port="2" to-layer="749" to-port="0"/>
		<edge from-layer="749" from-port="1" to-layer="751" to-port="0"/>
		<edge from-layer="750" from-port="0" to-layer="751" to-port="1"/>
		<edge from-layer="751" from-port="2" to-layer="753" to-port="0"/>
		<edge from-layer="752" from-port="0" to-layer="753" to-port="1"/>
		<edge from-layer="753" from-port="2" to-layer="754" to-port="0"/>
		<edge from-layer="754" from-port="1" to-layer="756" to-port="0"/>
		<edge from-layer="755" from-port="0" to-layer="756" to-port="1"/>
		<edge from-layer="756" from-port="2" to-layer="758" to-port="0"/>
		<edge from-layer="757" from-port="0" to-layer="758" to-port="1"/>
		<edge from-layer="758" from-port="2" to-layer="759" to-port="0"/>
		<edge from-layer="759" from-port="1" to-layer="761" to-port="0"/>
		<edge from-layer="760" from-port="0" to-layer="761" to-port="1"/>
		<edge from-layer="761" from-port="2" to-layer="762" to-port="0"/>
	</edges>
	<meta_data>
		<MO_version value="2022.2.0-7713-af16ea1d79a-releases/2022/2"/>
		<Runtime_version value="2022.2.0-7713-af16ea1d79a-releases/2022/2"/>
		<legacy_path value="True"/>
		<cli_parameters>
			<caffe_parser_path value="DIR"/>
			<compress_fp16 value="False"/>
			<data_type value="float"/>
			<disable_nhwc_to_nchw value="False"/>
			<disable_omitting_optional value="False"/>
			<disable_resnet_optimization value="False"/>
			<disable_weights_compression value="False"/>
			<enable_concat_optimization value="False"/>
			<enable_flattening_nested_params value="False"/>
			<enable_ssd_gluoncv value="False"/>
			<extensions value="DIR"/>
			<framework value="tf"/>
			<freeze_placeholder_with_value value="{}"/>
			<input_model_is_text value="False"/>
			<k value="DIR\CustomLayersMapping.xml"/>
			<layout value="()"/>
			<layout_values value="{}"/>
			<legacy_mxnet_model value="False"/>
			<log_level value="ERROR"/>
			<mean_scale_values value="{}"/>
			<mean_values value="()"/>
			<model_name value="saved_model"/>
			<output_dir value="DIR"/>
			<placeholder_data_types value="{}"/>
			<progress value="False"/>
			<remove_memory value="False"/>
			<remove_output_softmax value="False"/>
			<reverse_input_channels value="False"/>
			<save_params_from_nd value="False"/>
			<saved_model_dir value="DIR"/>
			<scale_values value="()"/>
			<silent value="False"/>
			<source_layout value="()"/>
			<static_shape value="False"/>
			<stream_output value="False"/>
			<target_layout value="()"/>
			<transform value=""/>
			<use_legacy_frontend value="False"/>
			<use_new_frontend value="False"/>
			<unset unset_cli_parameters="batch, counts, disable_fusing, finegrain_fusing, input, input_checkpoint, input_meta_graph, input_model, input_proto, input_shape, input_symbol, mean_file, mean_file_offsets, nd_prefix_name, output, packed_user_shapes, placeholder_shapes, pretrained_model_name, saved_model_tags, scale, tensorboard_logdir, tensorflow_custom_layer_libraries, tensorflow_custom_operations_config_update, tensorflow_object_detection_api_pipeline_config, tensorflow_use_custom_operations_config, transformations_config"/>
		</cli_parameters>
	</meta_data>
</net>
